// -----// IR Dump After SodaKernelOutlining //----- //
#map0 = affine_map<(d0, d1, d2, d3) -> (d0 * 1225 + d1 * 35 + d2 + d3 + 36)>
#map1 = affine_map<(d0, d1, d2, d3) -> (d3, d0, d1, d2)>
#map2 = affine_map<(d0, d1, d2, d3) -> (d0, d1, d2, d3)>
#map3 = affine_map<(d0, d1, d2, d3) -> (d3)>
#map4 = affine_map<(d0, d1) -> (d0, d1)>
#map5 = affine_map<(d0, d1) -> (d1)>
#map6 = affine_map<(d0, d1) -> (d0)>
module attributes {soda.container_module, tf.versions = {bad_consumers = [], min_consumer = 0 : i32, producer = 561 : i32}} {
  memref.global "private" constant @__constant_2xf32 : memref<2xf32> = dense<0.000000e+00>
  memref.global "private" constant @__constant_4xf32 : memref<4xf32> = dense<0.000000e+00>
  memref.global "private" constant @__constant_8xf32 : memref<8xf32> = dense<0.000000e+00>
  memref.global "private" constant @__constant_1xf32 : memref<1xf32> = dense<0.000000e+00>
  memref.global "private" constant @__constant_1x5x5x1xf32 : memref<1x5x5x1xf32> = dense<[[[[… >
  memref.global "private" constant @__constant_1x256x8xf32 : memref<1x256x8xf32> = dense<"…">
  memref.global "private" constant @__constant_1x8x4xf32 : memref<1x8x4xf32> = dense<[[[… >
  memref.global "private" constant @__constant_1x4x2xf32 : memref<1x4x2xf32> = dense<[[[-0.649729251, -0.36405158], [0.711094856, -0.165482044], [-0.528160095, -0.548771381], [0.198056698, 0.657765388]]]>
  func @main(%arg0: memref<4x32x32x1xf32>, %arg1: memref<4x2xf32>) attributes {tf.entry_function = {control_outputs = "", inputs = "x1", outputs = "Identity"}} {
    %cst = arith.constant 0.000000e+00 : f32
    %cst_0 = arith.constant 3.40282347E+38 : f32
    %cst_1 = arith.constant 1.000000e+00 : f32
    %0 = memref.alloc() {alignment = 128 : i64} : memref<4x35x35x1xf32>
    %1 = memref.get_global @__constant_2xf32 : memref<2xf32>
    %2 = memref.get_global @__constant_4xf32 : memref<4xf32>
    %3 = memref.get_global @__constant_8xf32 : memref<8xf32>
    %4 = memref.get_global @__constant_1xf32 : memref<1xf32>
    %5 = memref.get_global @__constant_1x5x5x1xf32 : memref<1x5x5x1xf32>
    %6 = memref.get_global @__constant_1x256x8xf32 : memref<1x256x8xf32>
    %7 = memref.get_global @__constant_1x8x4xf32 : memref<1x8x4xf32>
    %8 = memref.get_global @__constant_1x4x2xf32 : memref<1x4x2xf32>
    %9 = memref.alloc() : memref<4x35x35x1xf32>
    linalg.fill(%cst, %9) : f32, memref<4x35x35x1xf32> 
    memref.copy %9, %0 : memref<4x35x35x1xf32> to memref<4x35x35x1xf32>
    memref.dealloc %9 : memref<4x35x35x1xf32>
    %10 = memref.subview %0[0, 1, 1, 0] [4, 32, 32, 1] [1, 1, 1, 1] : memref<4x35x35x1xf32> to memref<4x32x32x1xf32, #map0>
    memref.copy %arg0, %10 : memref<4x32x32x1xf32> to memref<4x32x32x1xf32, #map0>
    %11 = memref.alloc() : memref<5x5x1x1xf32>
    linalg.generic {indexing_maps = [#map1, #map2], iterator_types = ["parallel", "parallel", "parallel", "parallel"]} ins(%5 : memref<1x5x5x1xf32>) outs(%11 : memref<5x5x1x1xf32>) {
    ^bb0(%arg2: f32, %arg3: f32):
      linalg.yield %arg2 : f32
    }
    %12 = memref.alloc() : memref<4x16x16x1xf32>
    linalg.fill(%cst, %12) : f32, memref<4x16x16x1xf32> 
    %13 = memref.alloc() : memref<4x16x16x1xf32>
    memref.copy %12, %13 : memref<4x16x16x1xf32> to memref<4x16x16x1xf32>
    memref.dealloc %12 : memref<4x16x16x1xf32>
    linalg.conv_2d_nhwc_hwcf {dilations = dense<1> : tensor<2xi64>, strides = dense<2> : tensor<2xi64>} ins(%0, %11 : memref<4x35x35x1xf32>, memref<5x5x1x1xf32>) outs(%13 : memref<4x16x16x1xf32>)
    memref.dealloc %11 : memref<5x5x1x1xf32>
    memref.dealloc %0 : memref<4x35x35x1xf32>
    %14 = memref.alloc() : memref<4x16x16x1xf32>
    linalg.generic {indexing_maps = [#map3, #map2, #map2], iterator_types = ["parallel", "parallel", "parallel", "parallel"]} ins(%4, %13 : memref<1xf32>, memref<4x16x16x1xf32>) outs(%14 : memref<4x16x16x1xf32>) {
    ^bb0(%arg2: f32, %arg3: f32, %arg4: f32):
      %41 = arith.addf %arg2, %arg3 : f32
      linalg.yield %41 : f32
    }
    memref.dealloc %13 : memref<4x16x16x1xf32>
    %15 = memref.alloc() : memref<4x16x16x1xf32>
    linalg.generic {indexing_maps = [#map2, #map2], iterator_types = ["parallel", "parallel", "parallel", "parallel"]} ins(%14 : memref<4x16x16x1xf32>) outs(%15 : memref<4x16x16x1xf32>) {
    ^bb0(%arg2: f32, %arg3: f32):
      %41 = arith.cmpf olt, %arg2, %cst : f32
      %42 = arith.select %41, %cst, %arg2 : f32
      %43 = arith.cmpf olt, %cst_0, %arg2 : f32
      %44 = arith.select %43, %cst_0, %42 : f32
      linalg.yield %44 : f32
    }
    memref.dealloc %14 : memref<4x16x16x1xf32>
    %16 = memref.collapse_shape %15 [[0], [1, 2, 3]] : memref<4x16x16x1xf32> into memref<4x256xf32>
    %17 = memref.expand_shape %16 [[0, 1], [2]] : memref<4x256xf32> into memref<1x4x256xf32>
    %18 = memref.alloc() : memref<1x4x8xf32>
    linalg.fill(%cst, %18) : f32, memref<1x4x8xf32> 
    %19 = memref.alloc() : memref<1x4x8xf32>
    memref.copy %18, %19 : memref<1x4x8xf32> to memref<1x4x8xf32>
    memref.dealloc %18 : memref<1x4x8xf32>
    linalg.batch_matmul ins(%17, %6 : memref<1x4x256xf32>, memref<1x256x8xf32>) outs(%19 : memref<1x4x8xf32>)
    memref.dealloc %15 : memref<4x16x16x1xf32>
    %20 = memref.collapse_shape %19 [[0, 1], [2]] : memref<1x4x8xf32> into memref<4x8xf32>
    %21 = memref.alloc() : memref<4x8xf32>
    linalg.generic {indexing_maps = [#map4, #map5, #map4], iterator_types = ["parallel", "parallel"]} ins(%20, %3 : memref<4x8xf32>, memref<8xf32>) outs(%21 : memref<4x8xf32>) {
    ^bb0(%arg2: f32, %arg3: f32, %arg4: f32):
      %41 = arith.addf %arg2, %arg3 : f32
      linalg.yield %41 : f32
    }
    memref.dealloc %19 : memref<1x4x8xf32>
    %22 = memref.alloc() : memref<4x8xf32>
    linalg.generic {indexing_maps = [#map4, #map4], iterator_types = ["parallel", "parallel"]} ins(%21 : memref<4x8xf32>) outs(%22 : memref<4x8xf32>) {
    ^bb0(%arg2: f32, %arg3: f32):
      %41 = arith.cmpf olt, %arg2, %cst : f32
      %42 = arith.select %41, %cst, %arg2 : f32
      %43 = arith.cmpf olt, %cst_0, %arg2 : f32
      %44 = arith.select %43, %cst_0, %42 : f32
      linalg.yield %44 : f32
    }
    memref.dealloc %21 : memref<4x8xf32>
    %23 = memref.expand_shape %22 [[0, 1], [2]] : memref<4x8xf32> into memref<1x4x8xf32>
    %24 = memref.alloc() : memref<1x4x4xf32>
    linalg.fill(%cst, %24) : f32, memref<1x4x4xf32> 
    %25 = memref.alloc() : memref<1x4x4xf32>
    memref.copy %24, %25 : memref<1x4x4xf32> to memref<1x4x4xf32>
    memref.dealloc %24 : memref<1x4x4xf32>
    soda.launch_func  @main_kernel::@main_kernel args(%23 : memref<1x4x8xf32>, %7 : memref<1x8x4xf32>, %25 : memref<1x4x4xf32>)
    memref.dealloc %22 : memref<4x8xf32>
    %26 = memref.collapse_shape %25 [[0, 1], [2]] : memref<1x4x4xf32> into memref<4x4xf32>
    %27 = memref.alloc() : memref<4x4xf32>
    linalg.generic {indexing_maps = [#map4, #map5, #map4], iterator_types = ["parallel", "parallel"]} ins(%26, %2 : memref<4x4xf32>, memref<4xf32>) outs(%27 : memref<4x4xf32>) {
    ^bb0(%arg2: f32, %arg3: f32, %arg4: f32):
      %41 = arith.addf %arg2, %arg3 : f32
      linalg.yield %41 : f32
    }
    memref.dealloc %25 : memref<1x4x4xf32>
    %28 = memref.alloc() : memref<4x4xf32>
    linalg.generic {indexing_maps = [#map4, #map4], iterator_types = ["parallel", "parallel"]} ins(%27 : memref<4x4xf32>) outs(%28 : memref<4x4xf32>) {
    ^bb0(%arg2: f32, %arg3: f32):
      %41 = arith.cmpf olt, %arg2, %cst : f32
      %42 = arith.select %41, %cst, %arg2 : f32
      %43 = arith.cmpf olt, %cst_0, %arg2 : f32
      %44 = arith.select %43, %cst_0, %42 : f32
      linalg.yield %44 : f32
    }
    memref.dealloc %27 : memref<4x4xf32>
    %29 = memref.expand_shape %28 [[0, 1], [2]] : memref<4x4xf32> into memref<1x4x4xf32>
    %30 = memref.alloc() : memref<1x4x2xf32>
    linalg.fill(%cst, %30) : f32, memref<1x4x2xf32> 
    %31 = memref.alloc() : memref<1x4x2xf32>
    memref.copy %30, %31 : memref<1x4x2xf32> to memref<1x4x2xf32>
    memref.dealloc %30 : memref<1x4x2xf32>
    linalg.batch_matmul ins(%29, %8 : memref<1x4x4xf32>, memref<1x4x2xf32>) outs(%31 : memref<1x4x2xf32>)
    memref.dealloc %28 : memref<4x4xf32>
    %32 = memref.collapse_shape %31 [[0, 1], [2]] : memref<1x4x2xf32> into memref<4x2xf32>
    %33 = memref.alloc() : memref<4x2xf32>
    linalg.generic {indexing_maps = [#map4, #map5, #map4], iterator_types = ["parallel", "parallel"]} ins(%32, %1 : memref<4x2xf32>, memref<2xf32>) outs(%33 : memref<4x2xf32>) {
    ^bb0(%arg2: f32, %arg3: f32, %arg4: f32):
      %41 = arith.addf %arg2, %arg3 : f32
      linalg.yield %41 : f32
    }
    memref.dealloc %31 : memref<1x4x2xf32>
    %34 = memref.alloc() : memref<4x2xf32>
    linalg.generic {indexing_maps = [#map4, #map4], iterator_types = ["parallel", "parallel"]} ins(%33 : memref<4x2xf32>) outs(%34 : memref<4x2xf32>) {
    ^bb0(%arg2: f32, %arg3: f32):
      %41 = math.exp %arg2 : f32
      linalg.yield %41 : f32
    }
    memref.dealloc %33 : memref<4x2xf32>
    %35 = memref.alloc() : memref<4xf32>
    linalg.fill(%cst, %35) : f32, memref<4xf32> 
    %36 = memref.alloc() : memref<4xf32>
    memref.copy %35, %36 : memref<4xf32> to memref<4xf32>
    memref.dealloc %35 : memref<4xf32>
    linalg.generic {indexing_maps = [#map4, #map6], iterator_types = ["parallel", "reduction"]} ins(%34 : memref<4x2xf32>) outs(%36 : memref<4xf32>) {
    ^bb0(%arg2: f32, %arg3: f32):
      %41 = arith.addf %arg2, %arg3 : f32
      linalg.yield %41 : f32
    }
    %37 = memref.expand_shape %36 [[0, 1]] : memref<4xf32> into memref<4x1xf32>
    %38 = memref.alloc() : memref<4x1xf32>
    linalg.generic {indexing_maps = [#map4, #map4], iterator_types = ["parallel", "parallel"]} ins(%37 : memref<4x1xf32>) outs(%38 : memref<4x1xf32>) {
    ^bb0(%arg2: f32, %arg3: f32):
      %41 = arith.divf %cst_1, %arg2 : f32
      linalg.yield %41 : f32
    }
    memref.dealloc %36 : memref<4xf32>
    %39 = memref.collapse_shape %38 [[0, 1]] : memref<4x1xf32> into memref<4xf32>
    %40 = memref.alloc() : memref<4x2xf32>
    linalg.generic {indexing_maps = [#map4, #map6, #map4], iterator_types = ["parallel", "parallel"]} ins(%34, %39 : memref<4x2xf32>, memref<4xf32>) outs(%40 : memref<4x2xf32>) {
    ^bb0(%arg2: f32, %arg3: f32, %arg4: f32):
      %41 = arith.mulf %arg2, %arg3 : f32
      linalg.yield %41 : f32
    }
    memref.dealloc %38 : memref<4x1xf32>
    memref.dealloc %34 : memref<4x2xf32>
    memref.copy %40, %arg1 : memref<4x2xf32> to memref<4x2xf32>
    return
  }
  soda.module @main_kernel {
    soda.func @main_kernel(%arg0: memref<1x4x8xf32>, %arg1: memref<1x8x4xf32>, %arg2: memref<1x4x4xf32>) kernel{
      cf.br ^bb1
    ^bb1:  // pred: ^bb0
      linalg.batch_matmul ins(%arg0, %arg1 : memref<1x4x8xf32>, memref<1x8x4xf32>) outs(%arg2 : memref<1x4x4xf32>)
      soda.return
    }
  }
}


// -----// IR Dump After TestArgumentsToXML //----- //
#map0 = affine_map<(d0, d1, d2, d3) -> (d0 * 1225 + d1 * 35 + d2 + d3 + 36)>
#map1 = affine_map<(d0, d1, d2, d3) -> (d3, d0, d1, d2)>
#map2 = affine_map<(d0, d1, d2, d3) -> (d0, d1, d2, d3)>
#map3 = affine_map<(d0, d1, d2, d3) -> (d3)>
#map4 = affine_map<(d0, d1) -> (d0, d1)>
#map5 = affine_map<(d0, d1) -> (d1)>
#map6 = affine_map<(d0, d1) -> (d0)>
module attributes {soda.container_module, tf.versions = {bad_consumers = [], min_consumer = 0 : i32, producer = 561 : i32}} {
  memref.global "private" constant @__constant_2xf32 : memref<2xf32> = dense<0.000000e+00>
  memref.global "private" constant @__constant_4xf32 : memref<4xf32> = dense<0.000000e+00>
  memref.global "private" constant @__constant_8xf32 : memref<8xf32> = dense<0.000000e+00>
  memref.global "private" constant @__constant_1xf32 : memref<1xf32> = dense<0.000000e+00>
  memref.global "private" constant @__constant_1x5x5x1xf32 : memref<1x5x5x1xf32> = dense<[[[[… >
  memref.global "private" constant @__constant_1x256x8xf32 : memref<1x256x8xf32> = dense<"…">
  memref.global "private" constant @__constant_1x8x4xf32 : memref<1x8x4xf32> = dense<[[[… >
  memref.global "private" constant @__constant_1x4x2xf32 : memref<1x4x2xf32> = dense<[[[-0.649729251, -0.36405158], [0.711094856, -0.165482044], [-0.528160095, -0.548771381], [0.198056698, 0.657765388]]]>
  func @main(%arg0: memref<4x32x32x1xf32>, %arg1: memref<4x2xf32>) attributes {tf.entry_function = {control_outputs = "", inputs = "x1", outputs = "Identity"}} {
    %cst = arith.constant 0.000000e+00 : f32
    %cst_0 = arith.constant 3.40282347E+38 : f32
    %cst_1 = arith.constant 1.000000e+00 : f32
    %0 = memref.alloc() {alignment = 128 : i64} : memref<4x35x35x1xf32>
    %1 = memref.get_global @__constant_2xf32 : memref<2xf32>
    %2 = memref.get_global @__constant_4xf32 : memref<4xf32>
    %3 = memref.get_global @__constant_8xf32 : memref<8xf32>
    %4 = memref.get_global @__constant_1xf32 : memref<1xf32>
    %5 = memref.get_global @__constant_1x5x5x1xf32 : memref<1x5x5x1xf32>
    %6 = memref.get_global @__constant_1x256x8xf32 : memref<1x256x8xf32>
    %7 = memref.get_global @__constant_1x8x4xf32 : memref<1x8x4xf32>
    %8 = memref.get_global @__constant_1x4x2xf32 : memref<1x4x2xf32>
    %9 = memref.alloc() : memref<4x35x35x1xf32>
    linalg.fill(%cst, %9) : f32, memref<4x35x35x1xf32> 
    memref.copy %9, %0 : memref<4x35x35x1xf32> to memref<4x35x35x1xf32>
    memref.dealloc %9 : memref<4x35x35x1xf32>
    %10 = memref.subview %0[0, 1, 1, 0] [4, 32, 32, 1] [1, 1, 1, 1] : memref<4x35x35x1xf32> to memref<4x32x32x1xf32, #map0>
    memref.copy %arg0, %10 : memref<4x32x32x1xf32> to memref<4x32x32x1xf32, #map0>
    %11 = memref.alloc() : memref<5x5x1x1xf32>
    linalg.generic {indexing_maps = [#map1, #map2], iterator_types = ["parallel", "parallel", "parallel", "parallel"]} ins(%5 : memref<1x5x5x1xf32>) outs(%11 : memref<5x5x1x1xf32>) {
    ^bb0(%arg2: f32, %arg3: f32):
      linalg.yield %arg2 : f32
    }
    %12 = memref.alloc() : memref<4x16x16x1xf32>
    linalg.fill(%cst, %12) : f32, memref<4x16x16x1xf32> 
    %13 = memref.alloc() : memref<4x16x16x1xf32>
    memref.copy %12, %13 : memref<4x16x16x1xf32> to memref<4x16x16x1xf32>
    memref.dealloc %12 : memref<4x16x16x1xf32>
    linalg.conv_2d_nhwc_hwcf {dilations = dense<1> : tensor<2xi64>, strides = dense<2> : tensor<2xi64>} ins(%0, %11 : memref<4x35x35x1xf32>, memref<5x5x1x1xf32>) outs(%13 : memref<4x16x16x1xf32>)
    memref.dealloc %11 : memref<5x5x1x1xf32>
    memref.dealloc %0 : memref<4x35x35x1xf32>
    %14 = memref.alloc() : memref<4x16x16x1xf32>
    linalg.generic {indexing_maps = [#map3, #map2, #map2], iterator_types = ["parallel", "parallel", "parallel", "parallel"]} ins(%4, %13 : memref<1xf32>, memref<4x16x16x1xf32>) outs(%14 : memref<4x16x16x1xf32>) {
    ^bb0(%arg2: f32, %arg3: f32, %arg4: f32):
      %41 = arith.addf %arg2, %arg3 : f32
      linalg.yield %41 : f32
    }
    memref.dealloc %13 : memref<4x16x16x1xf32>
    %15 = memref.alloc() : memref<4x16x16x1xf32>
    linalg.generic {indexing_maps = [#map2, #map2], iterator_types = ["parallel", "parallel", "parallel", "parallel"]} ins(%14 : memref<4x16x16x1xf32>) outs(%15 : memref<4x16x16x1xf32>) {
    ^bb0(%arg2: f32, %arg3: f32):
      %41 = arith.cmpf olt, %arg2, %cst : f32
      %42 = arith.select %41, %cst, %arg2 : f32
      %43 = arith.cmpf olt, %cst_0, %arg2 : f32
      %44 = arith.select %43, %cst_0, %42 : f32
      linalg.yield %44 : f32
    }
    memref.dealloc %14 : memref<4x16x16x1xf32>
    %16 = memref.collapse_shape %15 [[0], [1, 2, 3]] : memref<4x16x16x1xf32> into memref<4x256xf32>
    %17 = memref.expand_shape %16 [[0, 1], [2]] : memref<4x256xf32> into memref<1x4x256xf32>
    %18 = memref.alloc() : memref<1x4x8xf32>
    linalg.fill(%cst, %18) : f32, memref<1x4x8xf32> 
    %19 = memref.alloc() : memref<1x4x8xf32>
    memref.copy %18, %19 : memref<1x4x8xf32> to memref<1x4x8xf32>
    memref.dealloc %18 : memref<1x4x8xf32>
    linalg.batch_matmul ins(%17, %6 : memref<1x4x256xf32>, memref<1x256x8xf32>) outs(%19 : memref<1x4x8xf32>)
    memref.dealloc %15 : memref<4x16x16x1xf32>
    %20 = memref.collapse_shape %19 [[0, 1], [2]] : memref<1x4x8xf32> into memref<4x8xf32>
    %21 = memref.alloc() : memref<4x8xf32>
    linalg.generic {indexing_maps = [#map4, #map5, #map4], iterator_types = ["parallel", "parallel"]} ins(%20, %3 : memref<4x8xf32>, memref<8xf32>) outs(%21 : memref<4x8xf32>) {
    ^bb0(%arg2: f32, %arg3: f32, %arg4: f32):
      %41 = arith.addf %arg2, %arg3 : f32
      linalg.yield %41 : f32
    }
    memref.dealloc %19 : memref<1x4x8xf32>
    %22 = memref.alloc() : memref<4x8xf32>
    linalg.generic {indexing_maps = [#map4, #map4], iterator_types = ["parallel", "parallel"]} ins(%21 : memref<4x8xf32>) outs(%22 : memref<4x8xf32>) {
    ^bb0(%arg2: f32, %arg3: f32):
      %41 = arith.cmpf olt, %arg2, %cst : f32
      %42 = arith.select %41, %cst, %arg2 : f32
      %43 = arith.cmpf olt, %cst_0, %arg2 : f32
      %44 = arith.select %43, %cst_0, %42 : f32
      linalg.yield %44 : f32
    }
    memref.dealloc %21 : memref<4x8xf32>
    %23 = memref.expand_shape %22 [[0, 1], [2]] : memref<4x8xf32> into memref<1x4x8xf32>
    %24 = memref.alloc() : memref<1x4x4xf32>
    linalg.fill(%cst, %24) : f32, memref<1x4x4xf32> 
    %25 = memref.alloc() : memref<1x4x4xf32>
    memref.copy %24, %25 : memref<1x4x4xf32> to memref<1x4x4xf32>
    memref.dealloc %24 : memref<1x4x4xf32>
    soda.launch_func  @main_kernel::@main_kernel args(%23 : memref<1x4x8xf32>, %7 : memref<1x8x4xf32>, %25 : memref<1x4x4xf32>)
    memref.dealloc %22 : memref<4x8xf32>
    %26 = memref.collapse_shape %25 [[0, 1], [2]] : memref<1x4x4xf32> into memref<4x4xf32>
    %27 = memref.alloc() : memref<4x4xf32>
    linalg.generic {indexing_maps = [#map4, #map5, #map4], iterator_types = ["parallel", "parallel"]} ins(%26, %2 : memref<4x4xf32>, memref<4xf32>) outs(%27 : memref<4x4xf32>) {
    ^bb0(%arg2: f32, %arg3: f32, %arg4: f32):
      %41 = arith.addf %arg2, %arg3 : f32
      linalg.yield %41 : f32
    }
    memref.dealloc %25 : memref<1x4x4xf32>
    %28 = memref.alloc() : memref<4x4xf32>
    linalg.generic {indexing_maps = [#map4, #map4], iterator_types = ["parallel", "parallel"]} ins(%27 : memref<4x4xf32>) outs(%28 : memref<4x4xf32>) {
    ^bb0(%arg2: f32, %arg3: f32):
      %41 = arith.cmpf olt, %arg2, %cst : f32
      %42 = arith.select %41, %cst, %arg2 : f32
      %43 = arith.cmpf olt, %cst_0, %arg2 : f32
      %44 = arith.select %43, %cst_0, %42 : f32
      linalg.yield %44 : f32
    }
    memref.dealloc %27 : memref<4x4xf32>
    %29 = memref.expand_shape %28 [[0, 1], [2]] : memref<4x4xf32> into memref<1x4x4xf32>
    %30 = memref.alloc() : memref<1x4x2xf32>
    linalg.fill(%cst, %30) : f32, memref<1x4x2xf32> 
    %31 = memref.alloc() : memref<1x4x2xf32>
    memref.copy %30, %31 : memref<1x4x2xf32> to memref<1x4x2xf32>
    memref.dealloc %30 : memref<1x4x2xf32>
    linalg.batch_matmul ins(%29, %8 : memref<1x4x4xf32>, memref<1x4x2xf32>) outs(%31 : memref<1x4x2xf32>)
    memref.dealloc %28 : memref<4x4xf32>
    %32 = memref.collapse_shape %31 [[0, 1], [2]] : memref<1x4x2xf32> into memref<4x2xf32>
    %33 = memref.alloc() : memref<4x2xf32>
    linalg.generic {indexing_maps = [#map4, #map5, #map4], iterator_types = ["parallel", "parallel"]} ins(%32, %1 : memref<4x2xf32>, memref<2xf32>) outs(%33 : memref<4x2xf32>) {
    ^bb0(%arg2: f32, %arg3: f32, %arg4: f32):
      %41 = arith.addf %arg2, %arg3 : f32
      linalg.yield %41 : f32
    }
    memref.dealloc %31 : memref<1x4x2xf32>
    %34 = memref.alloc() : memref<4x2xf32>
    linalg.generic {indexing_maps = [#map4, #map4], iterator_types = ["parallel", "parallel"]} ins(%33 : memref<4x2xf32>) outs(%34 : memref<4x2xf32>) {
    ^bb0(%arg2: f32, %arg3: f32):
      %41 = math.exp %arg2 : f32
      linalg.yield %41 : f32
    }
    memref.dealloc %33 : memref<4x2xf32>
    %35 = memref.alloc() : memref<4xf32>
    linalg.fill(%cst, %35) : f32, memref<4xf32> 
    %36 = memref.alloc() : memref<4xf32>
    memref.copy %35, %36 : memref<4xf32> to memref<4xf32>
    memref.dealloc %35 : memref<4xf32>
    linalg.generic {indexing_maps = [#map4, #map6], iterator_types = ["parallel", "reduction"]} ins(%34 : memref<4x2xf32>) outs(%36 : memref<4xf32>) {
    ^bb0(%arg2: f32, %arg3: f32):
      %41 = arith.addf %arg2, %arg3 : f32
      linalg.yield %41 : f32
    }
    %37 = memref.expand_shape %36 [[0, 1]] : memref<4xf32> into memref<4x1xf32>
    %38 = memref.alloc() : memref<4x1xf32>
    linalg.generic {indexing_maps = [#map4, #map4], iterator_types = ["parallel", "parallel"]} ins(%37 : memref<4x1xf32>) outs(%38 : memref<4x1xf32>) {
    ^bb0(%arg2: f32, %arg3: f32):
      %41 = arith.divf %cst_1, %arg2 : f32
      linalg.yield %41 : f32
    }
    memref.dealloc %36 : memref<4xf32>
    %39 = memref.collapse_shape %38 [[0, 1]] : memref<4x1xf32> into memref<4xf32>
    %40 = memref.alloc() : memref<4x2xf32>
    linalg.generic {indexing_maps = [#map4, #map6, #map4], iterator_types = ["parallel", "parallel"]} ins(%34, %39 : memref<4x2xf32>, memref<4xf32>) outs(%40 : memref<4x2xf32>) {
    ^bb0(%arg2: f32, %arg3: f32, %arg4: f32):
      %41 = arith.mulf %arg2, %arg3 : f32
      linalg.yield %41 : f32
    }
    memref.dealloc %38 : memref<4x1xf32>
    memref.dealloc %34 : memref<4x2xf32>
    memref.copy %40, %arg1 : memref<4x2xf32> to memref<4x2xf32>
    return
  }
  soda.module @main_kernel {
    soda.func @main_kernel(%arg0: memref<1x4x8xf32>, %arg1: memref<1x8x4xf32>, %arg2: memref<1x4x4xf32>) kernel{
      cf.br ^bb1
    ^bb1:  // pred: ^bb0
      linalg.batch_matmul ins(%arg0, %arg1 : memref<1x4x8xf32>, memref<1x8x4xf32>) outs(%arg2 : memref<1x4x4xf32>)
      soda.return
    }
  }
}


// -----// IR Dump After SodaKernelGeneration //----- //
module attributes {soda.bambu.container_module, soda.container_module, tf.versions = {bad_consumers = [], min_consumer = 0 : i32, producer = 561 : i32}} {
  func @main_kernel(%arg0: memref<1x4x8xf32> {llvm.noalias}, %arg1: memref<1x8x4xf32> {llvm.noalias}, %arg2: memref<1x4x4xf32> {llvm.noalias}) {
    cf.br ^bb1
  ^bb1:  // pred: ^bb0
    linalg.batch_matmul ins(%arg0, %arg1 : memref<1x4x8xf32>, memref<1x8x4xf32>) outs(%arg2 : memref<1x4x4xf32>)
    return
  }
}


// -----// IR Dump After LinalgLowerToAffineLoops //----- //
func @main_kernel(%arg0: memref<1x4x8xf32> {llvm.noalias}, %arg1: memref<1x8x4xf32> {llvm.noalias}, %arg2: memref<1x4x4xf32> {llvm.noalias}) {
  cf.br ^bb1
^bb1:  // pred: ^bb0
  affine.for %arg3 = 0 to 1 {
    affine.for %arg4 = 0 to 4 {
      affine.for %arg5 = 0 to 4 {
        affine.for %arg6 = 0 to 8 {
          %0 = affine.load %arg0[%arg3, %arg4, %arg6] : memref<1x4x8xf32>
          %1 = affine.load %arg1[%arg3, %arg6, %arg5] : memref<1x8x4xf32>
          %2 = affine.load %arg2[%arg3, %arg4, %arg5] : memref<1x4x4xf32>
          %3 = arith.mulf %0, %1 : f32
          %4 = arith.addf %2, %3 : f32
          affine.store %4, %arg2[%arg3, %arg4, %arg5] : memref<1x4x4xf32>
        }
      }
    }
  }
  return
}

// -----// IR Dump After AffineDataCopyGeneration //----- //
func @main_kernel(%arg0: memref<1x4x8xf32> {llvm.noalias}, %arg1: memref<1x8x4xf32> {llvm.noalias}, %arg2: memref<1x4x4xf32> {llvm.noalias}) {
  %c16 = arith.constant 16 : index
  %c0 = arith.constant 0 : index
  %c16_0 = arith.constant 16 : index
  %c0_1 = arith.constant 0 : index
  %c32 = arith.constant 32 : index
  %c0_2 = arith.constant 0 : index
  %c32_3 = arith.constant 32 : index
  %c0_4 = arith.constant 0 : index
  %c0_5 = arith.constant 0 : index
  cf.br ^bb1
^bb1:  // pred: ^bb0
  %0 = memref.alloc() : memref<1x4x8xf32>
  affine.for %arg3 = 0 to 4 {
    affine.for %arg4 = 0 to 8 {
      %3 = affine.load %arg0[0, %arg3, %arg4] : memref<1x4x8xf32>
      affine.store %3, %0[0, %arg3, %arg4] : memref<1x4x8xf32>
    }
  }
  %1 = memref.alloc() : memref<1x8x4xf32>
  affine.for %arg3 = 0 to 8 {
    affine.for %arg4 = 0 to 4 {
      %3 = affine.load %arg1[0, %arg3, %arg4] : memref<1x8x4xf32>
      affine.store %3, %1[0, %arg3, %arg4] : memref<1x8x4xf32>
    }
  }
  %2 = memref.alloc() : memref<1x4x4xf32>
  affine.for %arg3 = 0 to 4 {
    affine.for %arg4 = 0 to 4 {
      %3 = affine.load %arg2[0, %arg3, %arg4] : memref<1x4x4xf32>
      affine.store %3, %2[0, %arg3, %arg4] : memref<1x4x4xf32>
    }
  }
  affine.for %arg3 = 0 to 1 {
    affine.for %arg4 = 0 to 4 {
      affine.for %arg5 = 0 to 4 {
        affine.for %arg6 = 0 to 8 {
          %3 = affine.load %0[%arg3, %arg4, %arg6] : memref<1x4x8xf32>
          %4 = affine.load %1[%arg3, %arg6, %arg5] : memref<1x8x4xf32>
          %5 = affine.load %2[%arg3, %arg4, %arg5] : memref<1x4x4xf32>
          %6 = arith.mulf %3, %4 : f32
          %7 = arith.addf %5, %6 : f32
          affine.store %7, %2[%arg3, %arg4, %arg5] : memref<1x4x4xf32>
        }
      }
    }
  }
  affine.for %arg3 = 0 to 4 {
    affine.for %arg4 = 0 to 4 {
      %3 = affine.load %2[0, %arg3, %arg4] : memref<1x4x4xf32>
      affine.store %3, %arg2[0, %arg3, %arg4] : memref<1x4x4xf32>
    }
  }
  memref.dealloc %2 : memref<1x4x4xf32>
  memref.dealloc %1 : memref<1x8x4xf32>
  memref.dealloc %0 : memref<1x4x8xf32>
  return
}

// -----// IR Dump After EraseMemrefDealloc //----- //
module attributes {soda.bambu.container_module, soda.container_module, tf.versions = {bad_consumers = [], min_consumer = 0 : i32, producer = 561 : i32}} {
  func @main_kernel(%arg0: memref<1x4x8xf32> {llvm.noalias}, %arg1: memref<1x8x4xf32> {llvm.noalias}, %arg2: memref<1x4x4xf32> {llvm.noalias}) {
    cf.br ^bb1
  ^bb1:  // pred: ^bb0
    %0 = memref.alloc() : memref<1x4x8xf32>
    affine.for %arg3 = 0 to 4 {
      affine.for %arg4 = 0 to 8 {
        %3 = affine.load %arg0[0, %arg3, %arg4] : memref<1x4x8xf32>
        affine.store %3, %0[0, %arg3, %arg4] : memref<1x4x8xf32>
      }
    }
    %1 = memref.alloc() : memref<1x8x4xf32>
    affine.for %arg3 = 0 to 8 {
      affine.for %arg4 = 0 to 4 {
        %3 = affine.load %arg1[0, %arg3, %arg4] : memref<1x8x4xf32>
        affine.store %3, %1[0, %arg3, %arg4] : memref<1x8x4xf32>
      }
    }
    %2 = memref.alloc() : memref<1x4x4xf32>
    affine.for %arg3 = 0 to 4 {
      affine.for %arg4 = 0 to 4 {
        %3 = affine.load %arg2[0, %arg3, %arg4] : memref<1x4x4xf32>
        affine.store %3, %2[0, %arg3, %arg4] : memref<1x4x4xf32>
      }
    }
    affine.for %arg3 = 0 to 1 {
      affine.for %arg4 = 0 to 4 {
        affine.for %arg5 = 0 to 4 {
          affine.for %arg6 = 0 to 8 {
            %3 = affine.load %0[%arg3, %arg4, %arg6] : memref<1x4x8xf32>
            %4 = affine.load %1[%arg3, %arg6, %arg5] : memref<1x8x4xf32>
            %5 = affine.load %2[%arg3, %arg4, %arg5] : memref<1x4x4xf32>
            %6 = arith.mulf %3, %4 : f32
            %7 = arith.addf %5, %6 : f32
            affine.store %7, %2[%arg3, %arg4, %arg5] : memref<1x4x4xf32>
          }
        }
      }
    }
    affine.for %arg3 = 0 to 4 {
      affine.for %arg4 = 0 to 4 {
        %3 = affine.load %2[0, %arg3, %arg4] : memref<1x4x4xf32>
        affine.store %3, %arg2[0, %arg3, %arg4] : memref<1x4x4xf32>
      }
    }
    return
  }
}


// -----// IR Dump After PromoteBuffersToStack //----- //
func @main_kernel(%arg0: memref<1x4x8xf32> {llvm.noalias}, %arg1: memref<1x8x4xf32> {llvm.noalias}, %arg2: memref<1x4x4xf32> {llvm.noalias}) {
  cf.br ^bb1
^bb1:  // pred: ^bb0
  %0 = memref.alloca() : memref<1x4x8xf32>
  affine.for %arg3 = 0 to 4 {
    affine.for %arg4 = 0 to 8 {
      %3 = affine.load %arg0[0, %arg3, %arg4] : memref<1x4x8xf32>
      affine.store %3, %0[0, %arg3, %arg4] : memref<1x4x8xf32>
    }
  }
  %1 = memref.alloca() : memref<1x8x4xf32>
  affine.for %arg3 = 0 to 8 {
    affine.for %arg4 = 0 to 4 {
      %3 = affine.load %arg1[0, %arg3, %arg4] : memref<1x8x4xf32>
      affine.store %3, %1[0, %arg3, %arg4] : memref<1x8x4xf32>
    }
  }
  %2 = memref.alloca() : memref<1x4x4xf32>
  affine.for %arg3 = 0 to 4 {
    affine.for %arg4 = 0 to 4 {
      %3 = affine.load %arg2[0, %arg3, %arg4] : memref<1x4x4xf32>
      affine.store %3, %2[0, %arg3, %arg4] : memref<1x4x4xf32>
    }
  }
  affine.for %arg3 = 0 to 1 {
    affine.for %arg4 = 0 to 4 {
      affine.for %arg5 = 0 to 4 {
        affine.for %arg6 = 0 to 8 {
          %3 = affine.load %0[%arg3, %arg4, %arg6] : memref<1x4x8xf32>
          %4 = affine.load %1[%arg3, %arg6, %arg5] : memref<1x8x4xf32>
          %5 = affine.load %2[%arg3, %arg4, %arg5] : memref<1x4x4xf32>
          %6 = arith.mulf %3, %4 : f32
          %7 = arith.addf %5, %6 : f32
          affine.store %7, %2[%arg3, %arg4, %arg5] : memref<1x4x4xf32>
        }
      }
    }
  }
  affine.for %arg3 = 0 to 4 {
    affine.for %arg4 = 0 to 4 {
      %3 = affine.load %2[0, %arg3, %arg4] : memref<1x4x4xf32>
      affine.store %3, %arg2[0, %arg3, %arg4] : memref<1x4x4xf32>
    }
  }
  return
}

// -----// IR Dump After AffineLoopUnroll //----- //
func @main_kernel(%arg0: memref<1x4x8xf32> {llvm.noalias}, %arg1: memref<1x8x4xf32> {llvm.noalias}, %arg2: memref<1x4x4xf32> {llvm.noalias}) {
  %c0 = arith.constant 0 : index
  %c0_0 = arith.constant 0 : index
  %c0_1 = arith.constant 0 : index
  %c0_2 = arith.constant 0 : index
  %c0_3 = arith.constant 0 : index
  cf.br ^bb1
^bb1:  // pred: ^bb0
  %0 = memref.alloca() : memref<1x4x8xf32>
  affine.for %arg3 = 0 to 4 {
    %3 = affine.load %arg0[0, %arg3, %c0_3] : memref<1x4x8xf32>
    affine.store %3, %0[0, %arg3, %c0_3] : memref<1x4x8xf32>
    %4 = affine.apply affine_map<(d0) -> (d0 + 1)>(%c0_3)
    %5 = affine.load %arg0[0, %arg3, %4] : memref<1x4x8xf32>
    affine.store %5, %0[0, %arg3, %4] : memref<1x4x8xf32>
    %6 = affine.apply affine_map<(d0) -> (d0 + 2)>(%c0_3)
    %7 = affine.load %arg0[0, %arg3, %6] : memref<1x4x8xf32>
    affine.store %7, %0[0, %arg3, %6] : memref<1x4x8xf32>
    %8 = affine.apply affine_map<(d0) -> (d0 + 3)>(%c0_3)
    %9 = affine.load %arg0[0, %arg3, %8] : memref<1x4x8xf32>
    affine.store %9, %0[0, %arg3, %8] : memref<1x4x8xf32>
    %10 = affine.apply affine_map<(d0) -> (d0 + 4)>(%c0_3)
    %11 = affine.load %arg0[0, %arg3, %10] : memref<1x4x8xf32>
    affine.store %11, %0[0, %arg3, %10] : memref<1x4x8xf32>
    %12 = affine.apply affine_map<(d0) -> (d0 + 5)>(%c0_3)
    %13 = affine.load %arg0[0, %arg3, %12] : memref<1x4x8xf32>
    affine.store %13, %0[0, %arg3, %12] : memref<1x4x8xf32>
    %14 = affine.apply affine_map<(d0) -> (d0 + 6)>(%c0_3)
    %15 = affine.load %arg0[0, %arg3, %14] : memref<1x4x8xf32>
    affine.store %15, %0[0, %arg3, %14] : memref<1x4x8xf32>
    %16 = affine.apply affine_map<(d0) -> (d0 + 7)>(%c0_3)
    %17 = affine.load %arg0[0, %arg3, %16] : memref<1x4x8xf32>
    affine.store %17, %0[0, %arg3, %16] : memref<1x4x8xf32>
  }
  %1 = memref.alloca() : memref<1x8x4xf32>
  affine.for %arg3 = 0 to 8 {
    %3 = affine.load %arg1[0, %arg3, %c0_2] : memref<1x8x4xf32>
    affine.store %3, %1[0, %arg3, %c0_2] : memref<1x8x4xf32>
    %4 = affine.apply affine_map<(d0) -> (d0 + 1)>(%c0_2)
    %5 = affine.load %arg1[0, %arg3, %4] : memref<1x8x4xf32>
    affine.store %5, %1[0, %arg3, %4] : memref<1x8x4xf32>
    %6 = affine.apply affine_map<(d0) -> (d0 + 2)>(%c0_2)
    %7 = affine.load %arg1[0, %arg3, %6] : memref<1x8x4xf32>
    affine.store %7, %1[0, %arg3, %6] : memref<1x8x4xf32>
    %8 = affine.apply affine_map<(d0) -> (d0 + 3)>(%c0_2)
    %9 = affine.load %arg1[0, %arg3, %8] : memref<1x8x4xf32>
    affine.store %9, %1[0, %arg3, %8] : memref<1x8x4xf32>
  }
  %2 = memref.alloca() : memref<1x4x4xf32>
  affine.for %arg3 = 0 to 4 {
    %3 = affine.load %arg2[0, %arg3, %c0_1] : memref<1x4x4xf32>
    affine.store %3, %2[0, %arg3, %c0_1] : memref<1x4x4xf32>
    %4 = affine.apply affine_map<(d0) -> (d0 + 1)>(%c0_1)
    %5 = affine.load %arg2[0, %arg3, %4] : memref<1x4x4xf32>
    affine.store %5, %2[0, %arg3, %4] : memref<1x4x4xf32>
    %6 = affine.apply affine_map<(d0) -> (d0 + 2)>(%c0_1)
    %7 = affine.load %arg2[0, %arg3, %6] : memref<1x4x4xf32>
    affine.store %7, %2[0, %arg3, %6] : memref<1x4x4xf32>
    %8 = affine.apply affine_map<(d0) -> (d0 + 3)>(%c0_1)
    %9 = affine.load %arg2[0, %arg3, %8] : memref<1x4x4xf32>
    affine.store %9, %2[0, %arg3, %8] : memref<1x4x4xf32>
  }
  affine.for %arg3 = 0 to 1 {
    affine.for %arg4 = 0 to 4 {
      affine.for %arg5 = 0 to 4 {
        %3 = affine.load %0[%arg3, %arg4, %c0_0] : memref<1x4x8xf32>
        %4 = affine.load %1[%arg3, %c0_0, %arg5] : memref<1x8x4xf32>
        %5 = affine.load %2[%arg3, %arg4, %arg5] : memref<1x4x4xf32>
        %6 = arith.mulf %3, %4 : f32
        %7 = arith.addf %5, %6 : f32
        affine.store %7, %2[%arg3, %arg4, %arg5] : memref<1x4x4xf32>
        %8 = affine.apply affine_map<(d0) -> (d0 + 1)>(%c0_0)
        %9 = affine.load %0[%arg3, %arg4, %8] : memref<1x4x8xf32>
        %10 = affine.load %1[%arg3, %8, %arg5] : memref<1x8x4xf32>
        %11 = affine.load %2[%arg3, %arg4, %arg5] : memref<1x4x4xf32>
        %12 = arith.mulf %9, %10 : f32
        %13 = arith.addf %11, %12 : f32
        affine.store %13, %2[%arg3, %arg4, %arg5] : memref<1x4x4xf32>
        %14 = affine.apply affine_map<(d0) -> (d0 + 2)>(%c0_0)
        %15 = affine.load %0[%arg3, %arg4, %14] : memref<1x4x8xf32>
        %16 = affine.load %1[%arg3, %14, %arg5] : memref<1x8x4xf32>
        %17 = affine.load %2[%arg3, %arg4, %arg5] : memref<1x4x4xf32>
        %18 = arith.mulf %15, %16 : f32
        %19 = arith.addf %17, %18 : f32
        affine.store %19, %2[%arg3, %arg4, %arg5] : memref<1x4x4xf32>
        %20 = affine.apply affine_map<(d0) -> (d0 + 3)>(%c0_0)
        %21 = affine.load %0[%arg3, %arg4, %20] : memref<1x4x8xf32>
        %22 = affine.load %1[%arg3, %20, %arg5] : memref<1x8x4xf32>
        %23 = affine.load %2[%arg3, %arg4, %arg5] : memref<1x4x4xf32>
        %24 = arith.mulf %21, %22 : f32
        %25 = arith.addf %23, %24 : f32
        affine.store %25, %2[%arg3, %arg4, %arg5] : memref<1x4x4xf32>
        %26 = affine.apply affine_map<(d0) -> (d0 + 4)>(%c0_0)
        %27 = affine.load %0[%arg3, %arg4, %26] : memref<1x4x8xf32>
        %28 = affine.load %1[%arg3, %26, %arg5] : memref<1x8x4xf32>
        %29 = affine.load %2[%arg3, %arg4, %arg5] : memref<1x4x4xf32>
        %30 = arith.mulf %27, %28 : f32
        %31 = arith.addf %29, %30 : f32
        affine.store %31, %2[%arg3, %arg4, %arg5] : memref<1x4x4xf32>
        %32 = affine.apply affine_map<(d0) -> (d0 + 5)>(%c0_0)
        %33 = affine.load %0[%arg3, %arg4, %32] : memref<1x4x8xf32>
        %34 = affine.load %1[%arg3, %32, %arg5] : memref<1x8x4xf32>
        %35 = affine.load %2[%arg3, %arg4, %arg5] : memref<1x4x4xf32>
        %36 = arith.mulf %33, %34 : f32
        %37 = arith.addf %35, %36 : f32
        affine.store %37, %2[%arg3, %arg4, %arg5] : memref<1x4x4xf32>
        %38 = affine.apply affine_map<(d0) -> (d0 + 6)>(%c0_0)
        %39 = affine.load %0[%arg3, %arg4, %38] : memref<1x4x8xf32>
        %40 = affine.load %1[%arg3, %38, %arg5] : memref<1x8x4xf32>
        %41 = affine.load %2[%arg3, %arg4, %arg5] : memref<1x4x4xf32>
        %42 = arith.mulf %39, %40 : f32
        %43 = arith.addf %41, %42 : f32
        affine.store %43, %2[%arg3, %arg4, %arg5] : memref<1x4x4xf32>
        %44 = affine.apply affine_map<(d0) -> (d0 + 7)>(%c0_0)
        %45 = affine.load %0[%arg3, %arg4, %44] : memref<1x4x8xf32>
        %46 = affine.load %1[%arg3, %44, %arg5] : memref<1x8x4xf32>
        %47 = affine.load %2[%arg3, %arg4, %arg5] : memref<1x4x4xf32>
        %48 = arith.mulf %45, %46 : f32
        %49 = arith.addf %47, %48 : f32
        affine.store %49, %2[%arg3, %arg4, %arg5] : memref<1x4x4xf32>
      }
    }
  }
  affine.for %arg3 = 0 to 4 {
    %3 = affine.load %2[0, %arg3, %c0] : memref<1x4x4xf32>
    affine.store %3, %arg2[0, %arg3, %c0] : memref<1x4x4xf32>
    %4 = affine.apply affine_map<(d0) -> (d0 + 1)>(%c0)
    %5 = affine.load %2[0, %arg3, %4] : memref<1x4x4xf32>
    affine.store %5, %arg2[0, %arg3, %4] : memref<1x4x4xf32>
    %6 = affine.apply affine_map<(d0) -> (d0 + 2)>(%c0)
    %7 = affine.load %2[0, %arg3, %6] : memref<1x4x4xf32>
    affine.store %7, %arg2[0, %arg3, %6] : memref<1x4x4xf32>
    %8 = affine.apply affine_map<(d0) -> (d0 + 3)>(%c0)
    %9 = affine.load %2[0, %arg3, %8] : memref<1x4x4xf32>
    affine.store %9, %arg2[0, %arg3, %8] : memref<1x4x4xf32>
  }
  return
}

// -----// IR Dump After CSE //----- //
#map0 = affine_map<(d0) -> (d0 + 1)>
#map1 = affine_map<(d0) -> (d0 + 2)>
#map2 = affine_map<(d0) -> (d0 + 3)>
#map3 = affine_map<(d0) -> (d0 + 4)>
#map4 = affine_map<(d0) -> (d0 + 5)>
#map5 = affine_map<(d0) -> (d0 + 6)>
#map6 = affine_map<(d0) -> (d0 + 7)>
module attributes {soda.bambu.container_module, soda.container_module, tf.versions = {bad_consumers = [], min_consumer = 0 : i32, producer = 561 : i32}} {
  func @main_kernel(%arg0: memref<1x4x8xf32> {llvm.noalias}, %arg1: memref<1x8x4xf32> {llvm.noalias}, %arg2: memref<1x4x4xf32> {llvm.noalias}) {
    %c0 = arith.constant 0 : index
    cf.br ^bb1
  ^bb1:  // pred: ^bb0
    %0 = memref.alloca() : memref<1x4x8xf32>
    affine.for %arg3 = 0 to 4 {
      %3 = affine.load %arg0[0, %arg3, %c0] : memref<1x4x8xf32>
      affine.store %3, %0[0, %arg3, %c0] : memref<1x4x8xf32>
      %4 = affine.apply #map0(%c0)
      %5 = affine.load %arg0[0, %arg3, %4] : memref<1x4x8xf32>
      affine.store %5, %0[0, %arg3, %4] : memref<1x4x8xf32>
      %6 = affine.apply #map1(%c0)
      %7 = affine.load %arg0[0, %arg3, %6] : memref<1x4x8xf32>
      affine.store %7, %0[0, %arg3, %6] : memref<1x4x8xf32>
      %8 = affine.apply #map2(%c0)
      %9 = affine.load %arg0[0, %arg3, %8] : memref<1x4x8xf32>
      affine.store %9, %0[0, %arg3, %8] : memref<1x4x8xf32>
      %10 = affine.apply #map3(%c0)
      %11 = affine.load %arg0[0, %arg3, %10] : memref<1x4x8xf32>
      affine.store %11, %0[0, %arg3, %10] : memref<1x4x8xf32>
      %12 = affine.apply #map4(%c0)
      %13 = affine.load %arg0[0, %arg3, %12] : memref<1x4x8xf32>
      affine.store %13, %0[0, %arg3, %12] : memref<1x4x8xf32>
      %14 = affine.apply #map5(%c0)
      %15 = affine.load %arg0[0, %arg3, %14] : memref<1x4x8xf32>
      affine.store %15, %0[0, %arg3, %14] : memref<1x4x8xf32>
      %16 = affine.apply #map6(%c0)
      %17 = affine.load %arg0[0, %arg3, %16] : memref<1x4x8xf32>
      affine.store %17, %0[0, %arg3, %16] : memref<1x4x8xf32>
    }
    %1 = memref.alloca() : memref<1x8x4xf32>
    affine.for %arg3 = 0 to 8 {
      %3 = affine.load %arg1[0, %arg3, %c0] : memref<1x8x4xf32>
      affine.store %3, %1[0, %arg3, %c0] : memref<1x8x4xf32>
      %4 = affine.apply #map0(%c0)
      %5 = affine.load %arg1[0, %arg3, %4] : memref<1x8x4xf32>
      affine.store %5, %1[0, %arg3, %4] : memref<1x8x4xf32>
      %6 = affine.apply #map1(%c0)
      %7 = affine.load %arg1[0, %arg3, %6] : memref<1x8x4xf32>
      affine.store %7, %1[0, %arg3, %6] : memref<1x8x4xf32>
      %8 = affine.apply #map2(%c0)
      %9 = affine.load %arg1[0, %arg3, %8] : memref<1x8x4xf32>
      affine.store %9, %1[0, %arg3, %8] : memref<1x8x4xf32>
    }
    %2 = memref.alloca() : memref<1x4x4xf32>
    affine.for %arg3 = 0 to 4 {
      %3 = affine.load %arg2[0, %arg3, %c0] : memref<1x4x4xf32>
      affine.store %3, %2[0, %arg3, %c0] : memref<1x4x4xf32>
      %4 = affine.apply #map0(%c0)
      %5 = affine.load %arg2[0, %arg3, %4] : memref<1x4x4xf32>
      affine.store %5, %2[0, %arg3, %4] : memref<1x4x4xf32>
      %6 = affine.apply #map1(%c0)
      %7 = affine.load %arg2[0, %arg3, %6] : memref<1x4x4xf32>
      affine.store %7, %2[0, %arg3, %6] : memref<1x4x4xf32>
      %8 = affine.apply #map2(%c0)
      %9 = affine.load %arg2[0, %arg3, %8] : memref<1x4x4xf32>
      affine.store %9, %2[0, %arg3, %8] : memref<1x4x4xf32>
    }
    affine.for %arg3 = 0 to 1 {
      affine.for %arg4 = 0 to 4 {
        affine.for %arg5 = 0 to 4 {
          %3 = affine.load %0[%arg3, %arg4, %c0] : memref<1x4x8xf32>
          %4 = affine.load %1[%arg3, %c0, %arg5] : memref<1x8x4xf32>
          %5 = affine.load %2[%arg3, %arg4, %arg5] : memref<1x4x4xf32>
          %6 = arith.mulf %3, %4 : f32
          %7 = arith.addf %5, %6 : f32
          affine.store %7, %2[%arg3, %arg4, %arg5] : memref<1x4x4xf32>
          %8 = affine.apply #map0(%c0)
          %9 = affine.load %0[%arg3, %arg4, %8] : memref<1x4x8xf32>
          %10 = affine.load %1[%arg3, %8, %arg5] : memref<1x8x4xf32>
          %11 = affine.load %2[%arg3, %arg4, %arg5] : memref<1x4x4xf32>
          %12 = arith.mulf %9, %10 : f32
          %13 = arith.addf %11, %12 : f32
          affine.store %13, %2[%arg3, %arg4, %arg5] : memref<1x4x4xf32>
          %14 = affine.apply #map1(%c0)
          %15 = affine.load %0[%arg3, %arg4, %14] : memref<1x4x8xf32>
          %16 = affine.load %1[%arg3, %14, %arg5] : memref<1x8x4xf32>
          %17 = affine.load %2[%arg3, %arg4, %arg5] : memref<1x4x4xf32>
          %18 = arith.mulf %15, %16 : f32
          %19 = arith.addf %17, %18 : f32
          affine.store %19, %2[%arg3, %arg4, %arg5] : memref<1x4x4xf32>
          %20 = affine.apply #map2(%c0)
          %21 = affine.load %0[%arg3, %arg4, %20] : memref<1x4x8xf32>
          %22 = affine.load %1[%arg3, %20, %arg5] : memref<1x8x4xf32>
          %23 = affine.load %2[%arg3, %arg4, %arg5] : memref<1x4x4xf32>
          %24 = arith.mulf %21, %22 : f32
          %25 = arith.addf %23, %24 : f32
          affine.store %25, %2[%arg3, %arg4, %arg5] : memref<1x4x4xf32>
          %26 = affine.apply #map3(%c0)
          %27 = affine.load %0[%arg3, %arg4, %26] : memref<1x4x8xf32>
          %28 = affine.load %1[%arg3, %26, %arg5] : memref<1x8x4xf32>
          %29 = affine.load %2[%arg3, %arg4, %arg5] : memref<1x4x4xf32>
          %30 = arith.mulf %27, %28 : f32
          %31 = arith.addf %29, %30 : f32
          affine.store %31, %2[%arg3, %arg4, %arg5] : memref<1x4x4xf32>
          %32 = affine.apply #map4(%c0)
          %33 = affine.load %0[%arg3, %arg4, %32] : memref<1x4x8xf32>
          %34 = affine.load %1[%arg3, %32, %arg5] : memref<1x8x4xf32>
          %35 = affine.load %2[%arg3, %arg4, %arg5] : memref<1x4x4xf32>
          %36 = arith.mulf %33, %34 : f32
          %37 = arith.addf %35, %36 : f32
          affine.store %37, %2[%arg3, %arg4, %arg5] : memref<1x4x4xf32>
          %38 = affine.apply #map5(%c0)
          %39 = affine.load %0[%arg3, %arg4, %38] : memref<1x4x8xf32>
          %40 = affine.load %1[%arg3, %38, %arg5] : memref<1x8x4xf32>
          %41 = affine.load %2[%arg3, %arg4, %arg5] : memref<1x4x4xf32>
          %42 = arith.mulf %39, %40 : f32
          %43 = arith.addf %41, %42 : f32
          affine.store %43, %2[%arg3, %arg4, %arg5] : memref<1x4x4xf32>
          %44 = affine.apply #map6(%c0)
          %45 = affine.load %0[%arg3, %arg4, %44] : memref<1x4x8xf32>
          %46 = affine.load %1[%arg3, %44, %arg5] : memref<1x8x4xf32>
          %47 = affine.load %2[%arg3, %arg4, %arg5] : memref<1x4x4xf32>
          %48 = arith.mulf %45, %46 : f32
          %49 = arith.addf %47, %48 : f32
          affine.store %49, %2[%arg3, %arg4, %arg5] : memref<1x4x4xf32>
        }
      }
    }
    affine.for %arg3 = 0 to 4 {
      %3 = affine.load %2[0, %arg3, %c0] : memref<1x4x4xf32>
      affine.store %3, %arg2[0, %arg3, %c0] : memref<1x4x4xf32>
      %4 = affine.apply #map0(%c0)
      %5 = affine.load %2[0, %arg3, %4] : memref<1x4x4xf32>
      affine.store %5, %arg2[0, %arg3, %4] : memref<1x4x4xf32>
      %6 = affine.apply #map1(%c0)
      %7 = affine.load %2[0, %arg3, %6] : memref<1x4x4xf32>
      affine.store %7, %arg2[0, %arg3, %6] : memref<1x4x4xf32>
      %8 = affine.apply #map2(%c0)
      %9 = affine.load %2[0, %arg3, %8] : memref<1x4x4xf32>
      affine.store %9, %arg2[0, %arg3, %8] : memref<1x4x4xf32>
    }
    return
  }
}


// -----// IR Dump After AffineScalarReplacement //----- //
func @main_kernel(%arg0: memref<1x4x8xf32> {llvm.noalias}, %arg1: memref<1x8x4xf32> {llvm.noalias}, %arg2: memref<1x4x4xf32> {llvm.noalias}) {
  %c0 = arith.constant 0 : index
  cf.br ^bb1
^bb1:  // pred: ^bb0
  %0 = memref.alloca() : memref<1x4x8xf32>
  affine.for %arg3 = 0 to 4 {
    %3 = affine.load %arg0[0, %arg3, %c0] : memref<1x4x8xf32>
    affine.store %3, %0[0, %arg3, %c0] : memref<1x4x8xf32>
    %4 = affine.apply affine_map<(d0) -> (d0 + 1)>(%c0)
    %5 = affine.load %arg0[0, %arg3, %4] : memref<1x4x8xf32>
    affine.store %5, %0[0, %arg3, %4] : memref<1x4x8xf32>
    %6 = affine.apply affine_map<(d0) -> (d0 + 2)>(%c0)
    %7 = affine.load %arg0[0, %arg3, %6] : memref<1x4x8xf32>
    affine.store %7, %0[0, %arg3, %6] : memref<1x4x8xf32>
    %8 = affine.apply affine_map<(d0) -> (d0 + 3)>(%c0)
    %9 = affine.load %arg0[0, %arg3, %8] : memref<1x4x8xf32>
    affine.store %9, %0[0, %arg3, %8] : memref<1x4x8xf32>
    %10 = affine.apply affine_map<(d0) -> (d0 + 4)>(%c0)
    %11 = affine.load %arg0[0, %arg3, %10] : memref<1x4x8xf32>
    affine.store %11, %0[0, %arg3, %10] : memref<1x4x8xf32>
    %12 = affine.apply affine_map<(d0) -> (d0 + 5)>(%c0)
    %13 = affine.load %arg0[0, %arg3, %12] : memref<1x4x8xf32>
    affine.store %13, %0[0, %arg3, %12] : memref<1x4x8xf32>
    %14 = affine.apply affine_map<(d0) -> (d0 + 6)>(%c0)
    %15 = affine.load %arg0[0, %arg3, %14] : memref<1x4x8xf32>
    affine.store %15, %0[0, %arg3, %14] : memref<1x4x8xf32>
    %16 = affine.apply affine_map<(d0) -> (d0 + 7)>(%c0)
    %17 = affine.load %arg0[0, %arg3, %16] : memref<1x4x8xf32>
    affine.store %17, %0[0, %arg3, %16] : memref<1x4x8xf32>
  }
  %1 = memref.alloca() : memref<1x8x4xf32>
  affine.for %arg3 = 0 to 8 {
    %3 = affine.load %arg1[0, %arg3, %c0] : memref<1x8x4xf32>
    affine.store %3, %1[0, %arg3, %c0] : memref<1x8x4xf32>
    %4 = affine.apply affine_map<(d0) -> (d0 + 1)>(%c0)
    %5 = affine.load %arg1[0, %arg3, %4] : memref<1x8x4xf32>
    affine.store %5, %1[0, %arg3, %4] : memref<1x8x4xf32>
    %6 = affine.apply affine_map<(d0) -> (d0 + 2)>(%c0)
    %7 = affine.load %arg1[0, %arg3, %6] : memref<1x8x4xf32>
    affine.store %7, %1[0, %arg3, %6] : memref<1x8x4xf32>
    %8 = affine.apply affine_map<(d0) -> (d0 + 3)>(%c0)
    %9 = affine.load %arg1[0, %arg3, %8] : memref<1x8x4xf32>
    affine.store %9, %1[0, %arg3, %8] : memref<1x8x4xf32>
  }
  %2 = memref.alloca() : memref<1x4x4xf32>
  affine.for %arg3 = 0 to 4 {
    %3 = affine.load %arg2[0, %arg3, %c0] : memref<1x4x4xf32>
    affine.store %3, %2[0, %arg3, %c0] : memref<1x4x4xf32>
    %4 = affine.apply affine_map<(d0) -> (d0 + 1)>(%c0)
    %5 = affine.load %arg2[0, %arg3, %4] : memref<1x4x4xf32>
    affine.store %5, %2[0, %arg3, %4] : memref<1x4x4xf32>
    %6 = affine.apply affine_map<(d0) -> (d0 + 2)>(%c0)
    %7 = affine.load %arg2[0, %arg3, %6] : memref<1x4x4xf32>
    affine.store %7, %2[0, %arg3, %6] : memref<1x4x4xf32>
    %8 = affine.apply affine_map<(d0) -> (d0 + 3)>(%c0)
    %9 = affine.load %arg2[0, %arg3, %8] : memref<1x4x4xf32>
    affine.store %9, %2[0, %arg3, %8] : memref<1x4x4xf32>
  }
  affine.for %arg3 = 0 to 1 {
    affine.for %arg4 = 0 to 4 {
      affine.for %arg5 = 0 to 4 {
        %3 = affine.load %0[%arg3, %arg4, %c0] : memref<1x4x8xf32>
        %4 = affine.load %1[%arg3, %c0, %arg5] : memref<1x8x4xf32>
        %5 = affine.load %2[%arg3, %arg4, %arg5] : memref<1x4x4xf32>
        %6 = arith.mulf %3, %4 : f32
        %7 = arith.addf %5, %6 : f32
        %8 = affine.apply affine_map<(d0) -> (d0 + 1)>(%c0)
        %9 = affine.load %0[%arg3, %arg4, %8] : memref<1x4x8xf32>
        %10 = affine.load %1[%arg3, %8, %arg5] : memref<1x8x4xf32>
        %11 = arith.mulf %9, %10 : f32
        %12 = arith.addf %7, %11 : f32
        %13 = affine.apply affine_map<(d0) -> (d0 + 2)>(%c0)
        %14 = affine.load %0[%arg3, %arg4, %13] : memref<1x4x8xf32>
        %15 = affine.load %1[%arg3, %13, %arg5] : memref<1x8x4xf32>
        %16 = arith.mulf %14, %15 : f32
        %17 = arith.addf %12, %16 : f32
        %18 = affine.apply affine_map<(d0) -> (d0 + 3)>(%c0)
        %19 = affine.load %0[%arg3, %arg4, %18] : memref<1x4x8xf32>
        %20 = affine.load %1[%arg3, %18, %arg5] : memref<1x8x4xf32>
        %21 = arith.mulf %19, %20 : f32
        %22 = arith.addf %17, %21 : f32
        %23 = affine.apply affine_map<(d0) -> (d0 + 4)>(%c0)
        %24 = affine.load %0[%arg3, %arg4, %23] : memref<1x4x8xf32>
        %25 = affine.load %1[%arg3, %23, %arg5] : memref<1x8x4xf32>
        %26 = arith.mulf %24, %25 : f32
        %27 = arith.addf %22, %26 : f32
        %28 = affine.apply affine_map<(d0) -> (d0 + 5)>(%c0)
        %29 = affine.load %0[%arg3, %arg4, %28] : memref<1x4x8xf32>
        %30 = affine.load %1[%arg3, %28, %arg5] : memref<1x8x4xf32>
        %31 = arith.mulf %29, %30 : f32
        %32 = arith.addf %27, %31 : f32
        %33 = affine.apply affine_map<(d0) -> (d0 + 6)>(%c0)
        %34 = affine.load %0[%arg3, %arg4, %33] : memref<1x4x8xf32>
        %35 = affine.load %1[%arg3, %33, %arg5] : memref<1x8x4xf32>
        %36 = arith.mulf %34, %35 : f32
        %37 = arith.addf %32, %36 : f32
        %38 = affine.apply affine_map<(d0) -> (d0 + 7)>(%c0)
        %39 = affine.load %0[%arg3, %arg4, %38] : memref<1x4x8xf32>
        %40 = affine.load %1[%arg3, %38, %arg5] : memref<1x8x4xf32>
        %41 = arith.mulf %39, %40 : f32
        %42 = arith.addf %37, %41 : f32
        affine.store %42, %2[%arg3, %arg4, %arg5] : memref<1x4x4xf32>
      }
    }
  }
  affine.for %arg3 = 0 to 4 {
    %3 = affine.load %2[0, %arg3, %c0] : memref<1x4x4xf32>
    affine.store %3, %arg2[0, %arg3, %c0] : memref<1x4x4xf32>
    %4 = affine.apply affine_map<(d0) -> (d0 + 1)>(%c0)
    %5 = affine.load %2[0, %arg3, %4] : memref<1x4x4xf32>
    affine.store %5, %arg2[0, %arg3, %4] : memref<1x4x4xf32>
    %6 = affine.apply affine_map<(d0) -> (d0 + 2)>(%c0)
    %7 = affine.load %2[0, %arg3, %6] : memref<1x4x4xf32>
    affine.store %7, %arg2[0, %arg3, %6] : memref<1x4x4xf32>
    %8 = affine.apply affine_map<(d0) -> (d0 + 3)>(%c0)
    %9 = affine.load %2[0, %arg3, %8] : memref<1x4x4xf32>
    affine.store %9, %arg2[0, %arg3, %8] : memref<1x4x4xf32>
  }
  return
}

// -----// IR Dump After ConvertAffineToStandard //----- //
module attributes {soda.bambu.container_module, soda.container_module, tf.versions = {bad_consumers = [], min_consumer = 0 : i32, producer = 561 : i32}} {
  func @main_kernel(%arg0: memref<1x4x8xf32> {llvm.noalias}, %arg1: memref<1x8x4xf32> {llvm.noalias}, %arg2: memref<1x4x4xf32> {llvm.noalias}) {
    %c0 = arith.constant 0 : index
    cf.br ^bb1
  ^bb1:  // pred: ^bb0
    %0 = memref.alloca() : memref<1x4x8xf32>
    %c0_0 = arith.constant 0 : index
    %c4 = arith.constant 4 : index
    %c1 = arith.constant 1 : index
    scf.for %arg3 = %c0_0 to %c4 step %c1 {
      %c0_12 = arith.constant 0 : index
      %3 = memref.load %arg0[%c0_12, %arg3, %c0] : memref<1x4x8xf32>
      %c0_13 = arith.constant 0 : index
      memref.store %3, %0[%c0_13, %arg3, %c0] : memref<1x4x8xf32>
      %c1_14 = arith.constant 1 : index
      %c0_15 = arith.constant 0 : index
      %4 = memref.load %arg0[%c0_15, %arg3, %c1_14] : memref<1x4x8xf32>
      %c0_16 = arith.constant 0 : index
      memref.store %4, %0[%c0_16, %arg3, %c1_14] : memref<1x4x8xf32>
      %c2 = arith.constant 2 : index
      %c0_17 = arith.constant 0 : index
      %5 = memref.load %arg0[%c0_17, %arg3, %c2] : memref<1x4x8xf32>
      %c0_18 = arith.constant 0 : index
      memref.store %5, %0[%c0_18, %arg3, %c2] : memref<1x4x8xf32>
      %c3 = arith.constant 3 : index
      %c0_19 = arith.constant 0 : index
      %6 = memref.load %arg0[%c0_19, %arg3, %c3] : memref<1x4x8xf32>
      %c0_20 = arith.constant 0 : index
      memref.store %6, %0[%c0_20, %arg3, %c3] : memref<1x4x8xf32>
      %c4_21 = arith.constant 4 : index
      %c0_22 = arith.constant 0 : index
      %7 = memref.load %arg0[%c0_22, %arg3, %c4_21] : memref<1x4x8xf32>
      %c0_23 = arith.constant 0 : index
      memref.store %7, %0[%c0_23, %arg3, %c4_21] : memref<1x4x8xf32>
      %c5 = arith.constant 5 : index
      %c0_24 = arith.constant 0 : index
      %8 = memref.load %arg0[%c0_24, %arg3, %c5] : memref<1x4x8xf32>
      %c0_25 = arith.constant 0 : index
      memref.store %8, %0[%c0_25, %arg3, %c5] : memref<1x4x8xf32>
      %c6 = arith.constant 6 : index
      %c0_26 = arith.constant 0 : index
      %9 = memref.load %arg0[%c0_26, %arg3, %c6] : memref<1x4x8xf32>
      %c0_27 = arith.constant 0 : index
      memref.store %9, %0[%c0_27, %arg3, %c6] : memref<1x4x8xf32>
      %c7 = arith.constant 7 : index
      %c0_28 = arith.constant 0 : index
      %10 = memref.load %arg0[%c0_28, %arg3, %c7] : memref<1x4x8xf32>
      %c0_29 = arith.constant 0 : index
      memref.store %10, %0[%c0_29, %arg3, %c7] : memref<1x4x8xf32>
    }
    %1 = memref.alloca() : memref<1x8x4xf32>
    %c0_1 = arith.constant 0 : index
    %c8 = arith.constant 8 : index
    %c1_2 = arith.constant 1 : index
    scf.for %arg3 = %c0_1 to %c8 step %c1_2 {
      %c0_12 = arith.constant 0 : index
      %3 = memref.load %arg1[%c0_12, %arg3, %c0] : memref<1x8x4xf32>
      %c0_13 = arith.constant 0 : index
      memref.store %3, %1[%c0_13, %arg3, %c0] : memref<1x8x4xf32>
      %c1_14 = arith.constant 1 : index
      %c0_15 = arith.constant 0 : index
      %4 = memref.load %arg1[%c0_15, %arg3, %c1_14] : memref<1x8x4xf32>
      %c0_16 = arith.constant 0 : index
      memref.store %4, %1[%c0_16, %arg3, %c1_14] : memref<1x8x4xf32>
      %c2 = arith.constant 2 : index
      %c0_17 = arith.constant 0 : index
      %5 = memref.load %arg1[%c0_17, %arg3, %c2] : memref<1x8x4xf32>
      %c0_18 = arith.constant 0 : index
      memref.store %5, %1[%c0_18, %arg3, %c2] : memref<1x8x4xf32>
      %c3 = arith.constant 3 : index
      %c0_19 = arith.constant 0 : index
      %6 = memref.load %arg1[%c0_19, %arg3, %c3] : memref<1x8x4xf32>
      %c0_20 = arith.constant 0 : index
      memref.store %6, %1[%c0_20, %arg3, %c3] : memref<1x8x4xf32>
    }
    %2 = memref.alloca() : memref<1x4x4xf32>
    %c0_3 = arith.constant 0 : index
    %c4_4 = arith.constant 4 : index
    %c1_5 = arith.constant 1 : index
    scf.for %arg3 = %c0_3 to %c4_4 step %c1_5 {
      %c0_12 = arith.constant 0 : index
      %3 = memref.load %arg2[%c0_12, %arg3, %c0] : memref<1x4x4xf32>
      %c0_13 = arith.constant 0 : index
      memref.store %3, %2[%c0_13, %arg3, %c0] : memref<1x4x4xf32>
      %c1_14 = arith.constant 1 : index
      %c0_15 = arith.constant 0 : index
      %4 = memref.load %arg2[%c0_15, %arg3, %c1_14] : memref<1x4x4xf32>
      %c0_16 = arith.constant 0 : index
      memref.store %4, %2[%c0_16, %arg3, %c1_14] : memref<1x4x4xf32>
      %c2 = arith.constant 2 : index
      %c0_17 = arith.constant 0 : index
      %5 = memref.load %arg2[%c0_17, %arg3, %c2] : memref<1x4x4xf32>
      %c0_18 = arith.constant 0 : index
      memref.store %5, %2[%c0_18, %arg3, %c2] : memref<1x4x4xf32>
      %c3 = arith.constant 3 : index
      %c0_19 = arith.constant 0 : index
      %6 = memref.load %arg2[%c0_19, %arg3, %c3] : memref<1x4x4xf32>
      %c0_20 = arith.constant 0 : index
      memref.store %6, %2[%c0_20, %arg3, %c3] : memref<1x4x4xf32>
    }
    %c0_6 = arith.constant 0 : index
    %c1_7 = arith.constant 1 : index
    %c1_8 = arith.constant 1 : index
    scf.for %arg3 = %c0_6 to %c1_7 step %c1_8 {
      %c0_12 = arith.constant 0 : index
      %c4_13 = arith.constant 4 : index
      %c1_14 = arith.constant 1 : index
      scf.for %arg4 = %c0_12 to %c4_13 step %c1_14 {
        %c0_15 = arith.constant 0 : index
        %c4_16 = arith.constant 4 : index
        %c1_17 = arith.constant 1 : index
        scf.for %arg5 = %c0_15 to %c4_16 step %c1_17 {
          %3 = memref.load %0[%arg3, %arg4, %c0] : memref<1x4x8xf32>
          %4 = memref.load %1[%arg3, %c0, %arg5] : memref<1x8x4xf32>
          %5 = memref.load %2[%arg3, %arg4, %arg5] : memref<1x4x4xf32>
          %6 = arith.mulf %3, %4 : f32
          %7 = arith.addf %5, %6 : f32
          %c1_18 = arith.constant 1 : index
          %8 = memref.load %0[%arg3, %arg4, %c1_18] : memref<1x4x8xf32>
          %9 = memref.load %1[%arg3, %c1_18, %arg5] : memref<1x8x4xf32>
          %10 = arith.mulf %8, %9 : f32
          %11 = arith.addf %7, %10 : f32
          %c2 = arith.constant 2 : index
          %12 = memref.load %0[%arg3, %arg4, %c2] : memref<1x4x8xf32>
          %13 = memref.load %1[%arg3, %c2, %arg5] : memref<1x8x4xf32>
          %14 = arith.mulf %12, %13 : f32
          %15 = arith.addf %11, %14 : f32
          %c3 = arith.constant 3 : index
          %16 = memref.load %0[%arg3, %arg4, %c3] : memref<1x4x8xf32>
          %17 = memref.load %1[%arg3, %c3, %arg5] : memref<1x8x4xf32>
          %18 = arith.mulf %16, %17 : f32
          %19 = arith.addf %15, %18 : f32
          %c4_19 = arith.constant 4 : index
          %20 = memref.load %0[%arg3, %arg4, %c4_19] : memref<1x4x8xf32>
          %21 = memref.load %1[%arg3, %c4_19, %arg5] : memref<1x8x4xf32>
          %22 = arith.mulf %20, %21 : f32
          %23 = arith.addf %19, %22 : f32
          %c5 = arith.constant 5 : index
          %24 = memref.load %0[%arg3, %arg4, %c5] : memref<1x4x8xf32>
          %25 = memref.load %1[%arg3, %c5, %arg5] : memref<1x8x4xf32>
          %26 = arith.mulf %24, %25 : f32
          %27 = arith.addf %23, %26 : f32
          %c6 = arith.constant 6 : index
          %28 = memref.load %0[%arg3, %arg4, %c6] : memref<1x4x8xf32>
          %29 = memref.load %1[%arg3, %c6, %arg5] : memref<1x8x4xf32>
          %30 = arith.mulf %28, %29 : f32
          %31 = arith.addf %27, %30 : f32
          %c7 = arith.constant 7 : index
          %32 = memref.load %0[%arg3, %arg4, %c7] : memref<1x4x8xf32>
          %33 = memref.load %1[%arg3, %c7, %arg5] : memref<1x8x4xf32>
          %34 = arith.mulf %32, %33 : f32
          %35 = arith.addf %31, %34 : f32
          memref.store %35, %2[%arg3, %arg4, %arg5] : memref<1x4x4xf32>
        }
      }
    }
    %c0_9 = arith.constant 0 : index
    %c4_10 = arith.constant 4 : index
    %c1_11 = arith.constant 1 : index
    scf.for %arg3 = %c0_9 to %c4_10 step %c1_11 {
      %c0_12 = arith.constant 0 : index
      %3 = memref.load %2[%c0_12, %arg3, %c0] : memref<1x4x4xf32>
      %c0_13 = arith.constant 0 : index
      memref.store %3, %arg2[%c0_13, %arg3, %c0] : memref<1x4x4xf32>
      %c1_14 = arith.constant 1 : index
      %c0_15 = arith.constant 0 : index
      %4 = memref.load %2[%c0_15, %arg3, %c1_14] : memref<1x4x4xf32>
      %c0_16 = arith.constant 0 : index
      memref.store %4, %arg2[%c0_16, %arg3, %c1_14] : memref<1x4x4xf32>
      %c2 = arith.constant 2 : index
      %c0_17 = arith.constant 0 : index
      %5 = memref.load %2[%c0_17, %arg3, %c2] : memref<1x4x4xf32>
      %c0_18 = arith.constant 0 : index
      memref.store %5, %arg2[%c0_18, %arg3, %c2] : memref<1x4x4xf32>
      %c3 = arith.constant 3 : index
      %c0_19 = arith.constant 0 : index
      %6 = memref.load %2[%c0_19, %arg3, %c3] : memref<1x4x4xf32>
      %c0_20 = arith.constant 0 : index
      memref.store %6, %arg2[%c0_20, %arg3, %c3] : memref<1x4x4xf32>
    }
    return
  }
}


// -----// IR Dump After Canonicalizer //----- //
module attributes {soda.bambu.container_module, soda.container_module, tf.versions = {bad_consumers = [], min_consumer = 0 : i32, producer = 561 : i32}} {
  func @main_kernel(%arg0: memref<1x4x8xf32> {llvm.noalias}, %arg1: memref<1x8x4xf32> {llvm.noalias}, %arg2: memref<1x4x4xf32> {llvm.noalias}) {
    %c1 = arith.constant 1 : index
    %c4 = arith.constant 4 : index
    %c0 = arith.constant 0 : index
    %c8 = arith.constant 8 : index
    %c7 = arith.constant 7 : index
    %c6 = arith.constant 6 : index
    %c5 = arith.constant 5 : index
    %c3 = arith.constant 3 : index
    %c2 = arith.constant 2 : index
    %0 = memref.alloca() : memref<1x4x8xf32>
    scf.for %arg3 = %c0 to %c4 step %c1 {
      %3 = memref.load %arg0[%c0, %arg3, %c0] : memref<1x4x8xf32>
      memref.store %3, %0[%c0, %arg3, %c0] : memref<1x4x8xf32>
      %4 = memref.load %arg0[%c0, %arg3, %c1] : memref<1x4x8xf32>
      memref.store %4, %0[%c0, %arg3, %c1] : memref<1x4x8xf32>
      %5 = memref.load %arg0[%c0, %arg3, %c2] : memref<1x4x8xf32>
      memref.store %5, %0[%c0, %arg3, %c2] : memref<1x4x8xf32>
      %6 = memref.load %arg0[%c0, %arg3, %c3] : memref<1x4x8xf32>
      memref.store %6, %0[%c0, %arg3, %c3] : memref<1x4x8xf32>
      %7 = memref.load %arg0[%c0, %arg3, %c4] : memref<1x4x8xf32>
      memref.store %7, %0[%c0, %arg3, %c4] : memref<1x4x8xf32>
      %8 = memref.load %arg0[%c0, %arg3, %c5] : memref<1x4x8xf32>
      memref.store %8, %0[%c0, %arg3, %c5] : memref<1x4x8xf32>
      %9 = memref.load %arg0[%c0, %arg3, %c6] : memref<1x4x8xf32>
      memref.store %9, %0[%c0, %arg3, %c6] : memref<1x4x8xf32>
      %10 = memref.load %arg0[%c0, %arg3, %c7] : memref<1x4x8xf32>
      memref.store %10, %0[%c0, %arg3, %c7] : memref<1x4x8xf32>
    }
    %1 = memref.alloca() : memref<1x8x4xf32>
    scf.for %arg3 = %c0 to %c8 step %c1 {
      %3 = memref.load %arg1[%c0, %arg3, %c0] : memref<1x8x4xf32>
      memref.store %3, %1[%c0, %arg3, %c0] : memref<1x8x4xf32>
      %4 = memref.load %arg1[%c0, %arg3, %c1] : memref<1x8x4xf32>
      memref.store %4, %1[%c0, %arg3, %c1] : memref<1x8x4xf32>
      %5 = memref.load %arg1[%c0, %arg3, %c2] : memref<1x8x4xf32>
      memref.store %5, %1[%c0, %arg3, %c2] : memref<1x8x4xf32>
      %6 = memref.load %arg1[%c0, %arg3, %c3] : memref<1x8x4xf32>
      memref.store %6, %1[%c0, %arg3, %c3] : memref<1x8x4xf32>
    }
    %2 = memref.alloca() : memref<1x4x4xf32>
    scf.for %arg3 = %c0 to %c4 step %c1 {
      %3 = memref.load %arg2[%c0, %arg3, %c0] : memref<1x4x4xf32>
      memref.store %3, %2[%c0, %arg3, %c0] : memref<1x4x4xf32>
      %4 = memref.load %arg2[%c0, %arg3, %c1] : memref<1x4x4xf32>
      memref.store %4, %2[%c0, %arg3, %c1] : memref<1x4x4xf32>
      %5 = memref.load %arg2[%c0, %arg3, %c2] : memref<1x4x4xf32>
      memref.store %5, %2[%c0, %arg3, %c2] : memref<1x4x4xf32>
      %6 = memref.load %arg2[%c0, %arg3, %c3] : memref<1x4x4xf32>
      memref.store %6, %2[%c0, %arg3, %c3] : memref<1x4x4xf32>
    }
    scf.for %arg3 = %c0 to %c4 step %c1 {
      scf.for %arg4 = %c0 to %c4 step %c1 {
        %3 = memref.load %0[%c0, %arg3, %c0] : memref<1x4x8xf32>
        %4 = memref.load %1[%c0, %c0, %arg4] : memref<1x8x4xf32>
        %5 = memref.load %2[%c0, %arg3, %arg4] : memref<1x4x4xf32>
        %6 = arith.mulf %3, %4 : f32
        %7 = arith.addf %5, %6 : f32
        %8 = memref.load %0[%c0, %arg3, %c1] : memref<1x4x8xf32>
        %9 = memref.load %1[%c0, %c1, %arg4] : memref<1x8x4xf32>
        %10 = arith.mulf %8, %9 : f32
        %11 = arith.addf %7, %10 : f32
        %12 = memref.load %0[%c0, %arg3, %c2] : memref<1x4x8xf32>
        %13 = memref.load %1[%c0, %c2, %arg4] : memref<1x8x4xf32>
        %14 = arith.mulf %12, %13 : f32
        %15 = arith.addf %11, %14 : f32
        %16 = memref.load %0[%c0, %arg3, %c3] : memref<1x4x8xf32>
        %17 = memref.load %1[%c0, %c3, %arg4] : memref<1x8x4xf32>
        %18 = arith.mulf %16, %17 : f32
        %19 = arith.addf %15, %18 : f32
        %20 = memref.load %0[%c0, %arg3, %c4] : memref<1x4x8xf32>
        %21 = memref.load %1[%c0, %c4, %arg4] : memref<1x8x4xf32>
        %22 = arith.mulf %20, %21 : f32
        %23 = arith.addf %19, %22 : f32
        %24 = memref.load %0[%c0, %arg3, %c5] : memref<1x4x8xf32>
        %25 = memref.load %1[%c0, %c5, %arg4] : memref<1x8x4xf32>
        %26 = arith.mulf %24, %25 : f32
        %27 = arith.addf %23, %26 : f32
        %28 = memref.load %0[%c0, %arg3, %c6] : memref<1x4x8xf32>
        %29 = memref.load %1[%c0, %c6, %arg4] : memref<1x8x4xf32>
        %30 = arith.mulf %28, %29 : f32
        %31 = arith.addf %27, %30 : f32
        %32 = memref.load %0[%c0, %arg3, %c7] : memref<1x4x8xf32>
        %33 = memref.load %1[%c0, %c7, %arg4] : memref<1x8x4xf32>
        %34 = arith.mulf %32, %33 : f32
        %35 = arith.addf %31, %34 : f32
        memref.store %35, %2[%c0, %arg3, %arg4] : memref<1x4x4xf32>
      }
    }
    scf.for %arg3 = %c0 to %c4 step %c1 {
      %3 = memref.load %2[%c0, %arg3, %c0] : memref<1x4x4xf32>
      memref.store %3, %arg2[%c0, %arg3, %c0] : memref<1x4x4xf32>
      %4 = memref.load %2[%c0, %arg3, %c1] : memref<1x4x4xf32>
      memref.store %4, %arg2[%c0, %arg3, %c1] : memref<1x4x4xf32>
      %5 = memref.load %2[%c0, %arg3, %c2] : memref<1x4x4xf32>
      memref.store %5, %arg2[%c0, %arg3, %c2] : memref<1x4x4xf32>
      %6 = memref.load %2[%c0, %arg3, %c3] : memref<1x4x4xf32>
      memref.store %6, %arg2[%c0, %arg3, %c3] : memref<1x4x4xf32>
    }
    return
  }
}


// -----// IR Dump After CSE //----- //
module attributes {soda.bambu.container_module, soda.container_module, tf.versions = {bad_consumers = [], min_consumer = 0 : i32, producer = 561 : i32}} {
  func @main_kernel(%arg0: memref<1x4x8xf32> {llvm.noalias}, %arg1: memref<1x8x4xf32> {llvm.noalias}, %arg2: memref<1x4x4xf32> {llvm.noalias}) {
    %c1 = arith.constant 1 : index
    %c4 = arith.constant 4 : index
    %c0 = arith.constant 0 : index
    %c8 = arith.constant 8 : index
    %c7 = arith.constant 7 : index
    %c6 = arith.constant 6 : index
    %c5 = arith.constant 5 : index
    %c3 = arith.constant 3 : index
    %c2 = arith.constant 2 : index
    %0 = memref.alloca() : memref<1x4x8xf32>
    scf.for %arg3 = %c0 to %c4 step %c1 {
      %3 = memref.load %arg0[%c0, %arg3, %c0] : memref<1x4x8xf32>
      memref.store %3, %0[%c0, %arg3, %c0] : memref<1x4x8xf32>
      %4 = memref.load %arg0[%c0, %arg3, %c1] : memref<1x4x8xf32>
      memref.store %4, %0[%c0, %arg3, %c1] : memref<1x4x8xf32>
      %5 = memref.load %arg0[%c0, %arg3, %c2] : memref<1x4x8xf32>
      memref.store %5, %0[%c0, %arg3, %c2] : memref<1x4x8xf32>
      %6 = memref.load %arg0[%c0, %arg3, %c3] : memref<1x4x8xf32>
      memref.store %6, %0[%c0, %arg3, %c3] : memref<1x4x8xf32>
      %7 = memref.load %arg0[%c0, %arg3, %c4] : memref<1x4x8xf32>
      memref.store %7, %0[%c0, %arg3, %c4] : memref<1x4x8xf32>
      %8 = memref.load %arg0[%c0, %arg3, %c5] : memref<1x4x8xf32>
      memref.store %8, %0[%c0, %arg3, %c5] : memref<1x4x8xf32>
      %9 = memref.load %arg0[%c0, %arg3, %c6] : memref<1x4x8xf32>
      memref.store %9, %0[%c0, %arg3, %c6] : memref<1x4x8xf32>
      %10 = memref.load %arg0[%c0, %arg3, %c7] : memref<1x4x8xf32>
      memref.store %10, %0[%c0, %arg3, %c7] : memref<1x4x8xf32>
    }
    %1 = memref.alloca() : memref<1x8x4xf32>
    scf.for %arg3 = %c0 to %c8 step %c1 {
      %3 = memref.load %arg1[%c0, %arg3, %c0] : memref<1x8x4xf32>
      memref.store %3, %1[%c0, %arg3, %c0] : memref<1x8x4xf32>
      %4 = memref.load %arg1[%c0, %arg3, %c1] : memref<1x8x4xf32>
      memref.store %4, %1[%c0, %arg3, %c1] : memref<1x8x4xf32>
      %5 = memref.load %arg1[%c0, %arg3, %c2] : memref<1x8x4xf32>
      memref.store %5, %1[%c0, %arg3, %c2] : memref<1x8x4xf32>
      %6 = memref.load %arg1[%c0, %arg3, %c3] : memref<1x8x4xf32>
      memref.store %6, %1[%c0, %arg3, %c3] : memref<1x8x4xf32>
    }
    %2 = memref.alloca() : memref<1x4x4xf32>
    scf.for %arg3 = %c0 to %c4 step %c1 {
      %3 = memref.load %arg2[%c0, %arg3, %c0] : memref<1x4x4xf32>
      memref.store %3, %2[%c0, %arg3, %c0] : memref<1x4x4xf32>
      %4 = memref.load %arg2[%c0, %arg3, %c1] : memref<1x4x4xf32>
      memref.store %4, %2[%c0, %arg3, %c1] : memref<1x4x4xf32>
      %5 = memref.load %arg2[%c0, %arg3, %c2] : memref<1x4x4xf32>
      memref.store %5, %2[%c0, %arg3, %c2] : memref<1x4x4xf32>
      %6 = memref.load %arg2[%c0, %arg3, %c3] : memref<1x4x4xf32>
      memref.store %6, %2[%c0, %arg3, %c3] : memref<1x4x4xf32>
    }
    scf.for %arg3 = %c0 to %c4 step %c1 {
      scf.for %arg4 = %c0 to %c4 step %c1 {
        %3 = memref.load %0[%c0, %arg3, %c0] : memref<1x4x8xf32>
        %4 = memref.load %1[%c0, %c0, %arg4] : memref<1x8x4xf32>
        %5 = memref.load %2[%c0, %arg3, %arg4] : memref<1x4x4xf32>
        %6 = arith.mulf %3, %4 : f32
        %7 = arith.addf %5, %6 : f32
        %8 = memref.load %0[%c0, %arg3, %c1] : memref<1x4x8xf32>
        %9 = memref.load %1[%c0, %c1, %arg4] : memref<1x8x4xf32>
        %10 = arith.mulf %8, %9 : f32
        %11 = arith.addf %7, %10 : f32
        %12 = memref.load %0[%c0, %arg3, %c2] : memref<1x4x8xf32>
        %13 = memref.load %1[%c0, %c2, %arg4] : memref<1x8x4xf32>
        %14 = arith.mulf %12, %13 : f32
        %15 = arith.addf %11, %14 : f32
        %16 = memref.load %0[%c0, %arg3, %c3] : memref<1x4x8xf32>
        %17 = memref.load %1[%c0, %c3, %arg4] : memref<1x8x4xf32>
        %18 = arith.mulf %16, %17 : f32
        %19 = arith.addf %15, %18 : f32
        %20 = memref.load %0[%c0, %arg3, %c4] : memref<1x4x8xf32>
        %21 = memref.load %1[%c0, %c4, %arg4] : memref<1x8x4xf32>
        %22 = arith.mulf %20, %21 : f32
        %23 = arith.addf %19, %22 : f32
        %24 = memref.load %0[%c0, %arg3, %c5] : memref<1x4x8xf32>
        %25 = memref.load %1[%c0, %c5, %arg4] : memref<1x8x4xf32>
        %26 = arith.mulf %24, %25 : f32
        %27 = arith.addf %23, %26 : f32
        %28 = memref.load %0[%c0, %arg3, %c6] : memref<1x4x8xf32>
        %29 = memref.load %1[%c0, %c6, %arg4] : memref<1x8x4xf32>
        %30 = arith.mulf %28, %29 : f32
        %31 = arith.addf %27, %30 : f32
        %32 = memref.load %0[%c0, %arg3, %c7] : memref<1x4x8xf32>
        %33 = memref.load %1[%c0, %c7, %arg4] : memref<1x8x4xf32>
        %34 = arith.mulf %32, %33 : f32
        %35 = arith.addf %31, %34 : f32
        memref.store %35, %2[%c0, %arg3, %arg4] : memref<1x4x4xf32>
      }
    }
    scf.for %arg3 = %c0 to %c4 step %c1 {
      %3 = memref.load %2[%c0, %arg3, %c0] : memref<1x4x4xf32>
      memref.store %3, %arg2[%c0, %arg3, %c0] : memref<1x4x4xf32>
      %4 = memref.load %2[%c0, %arg3, %c1] : memref<1x4x4xf32>
      memref.store %4, %arg2[%c0, %arg3, %c1] : memref<1x4x4xf32>
      %5 = memref.load %2[%c0, %arg3, %c2] : memref<1x4x4xf32>
      memref.store %5, %arg2[%c0, %arg3, %c2] : memref<1x4x4xf32>
      %6 = memref.load %2[%c0, %arg3, %c3] : memref<1x4x4xf32>
      memref.store %6, %arg2[%c0, %arg3, %c3] : memref<1x4x4xf32>
    }
    return
  }
}


// -----// IR Dump After SCFToControlFlow //----- //
module attributes {soda.bambu.container_module, soda.container_module, tf.versions = {bad_consumers = [], min_consumer = 0 : i32, producer = 561 : i32}} {
  func @main_kernel(%arg0: memref<1x4x8xf32> {llvm.noalias}, %arg1: memref<1x8x4xf32> {llvm.noalias}, %arg2: memref<1x4x4xf32> {llvm.noalias}) {
    %c1 = arith.constant 1 : index
    %c4 = arith.constant 4 : index
    %c0 = arith.constant 0 : index
    %c8 = arith.constant 8 : index
    %c7 = arith.constant 7 : index
    %c6 = arith.constant 6 : index
    %c5 = arith.constant 5 : index
    %c3 = arith.constant 3 : index
    %c2 = arith.constant 2 : index
    %0 = memref.alloca() : memref<1x4x8xf32>
    cf.br ^bb1(%c0 : index)
  ^bb1(%1: index):  // 2 preds: ^bb0, ^bb2
    %2 = arith.cmpi slt, %1, %c4 : index
    cf.cond_br %2, ^bb2, ^bb3
  ^bb2:  // pred: ^bb1
    %3 = memref.load %arg0[%c0, %1, %c0] : memref<1x4x8xf32>
    memref.store %3, %0[%c0, %1, %c0] : memref<1x4x8xf32>
    %4 = memref.load %arg0[%c0, %1, %c1] : memref<1x4x8xf32>
    memref.store %4, %0[%c0, %1, %c1] : memref<1x4x8xf32>
    %5 = memref.load %arg0[%c0, %1, %c2] : memref<1x4x8xf32>
    memref.store %5, %0[%c0, %1, %c2] : memref<1x4x8xf32>
    %6 = memref.load %arg0[%c0, %1, %c3] : memref<1x4x8xf32>
    memref.store %6, %0[%c0, %1, %c3] : memref<1x4x8xf32>
    %7 = memref.load %arg0[%c0, %1, %c4] : memref<1x4x8xf32>
    memref.store %7, %0[%c0, %1, %c4] : memref<1x4x8xf32>
    %8 = memref.load %arg0[%c0, %1, %c5] : memref<1x4x8xf32>
    memref.store %8, %0[%c0, %1, %c5] : memref<1x4x8xf32>
    %9 = memref.load %arg0[%c0, %1, %c6] : memref<1x4x8xf32>
    memref.store %9, %0[%c0, %1, %c6] : memref<1x4x8xf32>
    %10 = memref.load %arg0[%c0, %1, %c7] : memref<1x4x8xf32>
    memref.store %10, %0[%c0, %1, %c7] : memref<1x4x8xf32>
    %11 = arith.addi %1, %c1 : index
    cf.br ^bb1(%11 : index)
  ^bb3:  // pred: ^bb1
    %12 = memref.alloca() : memref<1x8x4xf32>
    cf.br ^bb4(%c0 : index)
  ^bb4(%13: index):  // 2 preds: ^bb3, ^bb5
    %14 = arith.cmpi slt, %13, %c8 : index
    cf.cond_br %14, ^bb5, ^bb6
  ^bb5:  // pred: ^bb4
    %15 = memref.load %arg1[%c0, %13, %c0] : memref<1x8x4xf32>
    memref.store %15, %12[%c0, %13, %c0] : memref<1x8x4xf32>
    %16 = memref.load %arg1[%c0, %13, %c1] : memref<1x8x4xf32>
    memref.store %16, %12[%c0, %13, %c1] : memref<1x8x4xf32>
    %17 = memref.load %arg1[%c0, %13, %c2] : memref<1x8x4xf32>
    memref.store %17, %12[%c0, %13, %c2] : memref<1x8x4xf32>
    %18 = memref.load %arg1[%c0, %13, %c3] : memref<1x8x4xf32>
    memref.store %18, %12[%c0, %13, %c3] : memref<1x8x4xf32>
    %19 = arith.addi %13, %c1 : index
    cf.br ^bb4(%19 : index)
  ^bb6:  // pred: ^bb4
    %20 = memref.alloca() : memref<1x4x4xf32>
    cf.br ^bb7(%c0 : index)
  ^bb7(%21: index):  // 2 preds: ^bb6, ^bb8
    %22 = arith.cmpi slt, %21, %c4 : index
    cf.cond_br %22, ^bb8, ^bb9
  ^bb8:  // pred: ^bb7
    %23 = memref.load %arg2[%c0, %21, %c0] : memref<1x4x4xf32>
    memref.store %23, %20[%c0, %21, %c0] : memref<1x4x4xf32>
    %24 = memref.load %arg2[%c0, %21, %c1] : memref<1x4x4xf32>
    memref.store %24, %20[%c0, %21, %c1] : memref<1x4x4xf32>
    %25 = memref.load %arg2[%c0, %21, %c2] : memref<1x4x4xf32>
    memref.store %25, %20[%c0, %21, %c2] : memref<1x4x4xf32>
    %26 = memref.load %arg2[%c0, %21, %c3] : memref<1x4x4xf32>
    memref.store %26, %20[%c0, %21, %c3] : memref<1x4x4xf32>
    %27 = arith.addi %21, %c1 : index
    cf.br ^bb7(%27 : index)
  ^bb9:  // pred: ^bb7
    cf.br ^bb10(%c0 : index)
  ^bb10(%28: index):  // 2 preds: ^bb9, ^bb14
    %29 = arith.cmpi slt, %28, %c4 : index
    cf.cond_br %29, ^bb11, ^bb15
  ^bb11:  // pred: ^bb10
    cf.br ^bb12(%c0 : index)
  ^bb12(%30: index):  // 2 preds: ^bb11, ^bb13
    %31 = arith.cmpi slt, %30, %c4 : index
    cf.cond_br %31, ^bb13, ^bb14
  ^bb13:  // pred: ^bb12
    %32 = memref.load %0[%c0, %28, %c0] : memref<1x4x8xf32>
    %33 = memref.load %12[%c0, %c0, %30] : memref<1x8x4xf32>
    %34 = memref.load %20[%c0, %28, %30] : memref<1x4x4xf32>
    %35 = arith.mulf %32, %33 : f32
    %36 = arith.addf %34, %35 : f32
    %37 = memref.load %0[%c0, %28, %c1] : memref<1x4x8xf32>
    %38 = memref.load %12[%c0, %c1, %30] : memref<1x8x4xf32>
    %39 = arith.mulf %37, %38 : f32
    %40 = arith.addf %36, %39 : f32
    %41 = memref.load %0[%c0, %28, %c2] : memref<1x4x8xf32>
    %42 = memref.load %12[%c0, %c2, %30] : memref<1x8x4xf32>
    %43 = arith.mulf %41, %42 : f32
    %44 = arith.addf %40, %43 : f32
    %45 = memref.load %0[%c0, %28, %c3] : memref<1x4x8xf32>
    %46 = memref.load %12[%c0, %c3, %30] : memref<1x8x4xf32>
    %47 = arith.mulf %45, %46 : f32
    %48 = arith.addf %44, %47 : f32
    %49 = memref.load %0[%c0, %28, %c4] : memref<1x4x8xf32>
    %50 = memref.load %12[%c0, %c4, %30] : memref<1x8x4xf32>
    %51 = arith.mulf %49, %50 : f32
    %52 = arith.addf %48, %51 : f32
    %53 = memref.load %0[%c0, %28, %c5] : memref<1x4x8xf32>
    %54 = memref.load %12[%c0, %c5, %30] : memref<1x8x4xf32>
    %55 = arith.mulf %53, %54 : f32
    %56 = arith.addf %52, %55 : f32
    %57 = memref.load %0[%c0, %28, %c6] : memref<1x4x8xf32>
    %58 = memref.load %12[%c0, %c6, %30] : memref<1x8x4xf32>
    %59 = arith.mulf %57, %58 : f32
    %60 = arith.addf %56, %59 : f32
    %61 = memref.load %0[%c0, %28, %c7] : memref<1x4x8xf32>
    %62 = memref.load %12[%c0, %c7, %30] : memref<1x8x4xf32>
    %63 = arith.mulf %61, %62 : f32
    %64 = arith.addf %60, %63 : f32
    memref.store %64, %20[%c0, %28, %30] : memref<1x4x4xf32>
    %65 = arith.addi %30, %c1 : index
    cf.br ^bb12(%65 : index)
  ^bb14:  // pred: ^bb12
    %66 = arith.addi %28, %c1 : index
    cf.br ^bb10(%66 : index)
  ^bb15:  // pred: ^bb10
    cf.br ^bb16(%c0 : index)
  ^bb16(%67: index):  // 2 preds: ^bb15, ^bb17
    %68 = arith.cmpi slt, %67, %c4 : index
    cf.cond_br %68, ^bb17, ^bb18
  ^bb17:  // pred: ^bb16
    %69 = memref.load %20[%c0, %67, %c0] : memref<1x4x4xf32>
    memref.store %69, %arg2[%c0, %67, %c0] : memref<1x4x4xf32>
    %70 = memref.load %20[%c0, %67, %c1] : memref<1x4x4xf32>
    memref.store %70, %arg2[%c0, %67, %c1] : memref<1x4x4xf32>
    %71 = memref.load %20[%c0, %67, %c2] : memref<1x4x4xf32>
    memref.store %71, %arg2[%c0, %67, %c2] : memref<1x4x4xf32>
    %72 = memref.load %20[%c0, %67, %c3] : memref<1x4x4xf32>
    memref.store %72, %arg2[%c0, %67, %c3] : memref<1x4x4xf32>
    %73 = arith.addi %67, %c1 : index
    cf.br ^bb16(%73 : index)
  ^bb18:  // pred: ^bb16
    return
  }
}


// -----// IR Dump After Canonicalizer //----- //
module attributes {soda.bambu.container_module, soda.container_module, tf.versions = {bad_consumers = [], min_consumer = 0 : i32, producer = 561 : i32}} {
  func @main_kernel(%arg0: memref<1x4x8xf32> {llvm.noalias}, %arg1: memref<1x8x4xf32> {llvm.noalias}, %arg2: memref<1x4x4xf32> {llvm.noalias}) {
    %c2 = arith.constant 2 : index
    %c3 = arith.constant 3 : index
    %c5 = arith.constant 5 : index
    %c6 = arith.constant 6 : index
    %c7 = arith.constant 7 : index
    %c8 = arith.constant 8 : index
    %c0 = arith.constant 0 : index
    %c4 = arith.constant 4 : index
    %c1 = arith.constant 1 : index
    %0 = memref.alloca() : memref<1x4x8xf32>
    cf.br ^bb1(%c0 : index)
  ^bb1(%1: index):  // 2 preds: ^bb0, ^bb2
    %2 = arith.cmpi slt, %1, %c4 : index
    cf.cond_br %2, ^bb2, ^bb3
  ^bb2:  // pred: ^bb1
    %3 = memref.load %arg0[%c0, %1, %c0] : memref<1x4x8xf32>
    memref.store %3, %0[%c0, %1, %c0] : memref<1x4x8xf32>
    %4 = memref.load %arg0[%c0, %1, %c1] : memref<1x4x8xf32>
    memref.store %4, %0[%c0, %1, %c1] : memref<1x4x8xf32>
    %5 = memref.load %arg0[%c0, %1, %c2] : memref<1x4x8xf32>
    memref.store %5, %0[%c0, %1, %c2] : memref<1x4x8xf32>
    %6 = memref.load %arg0[%c0, %1, %c3] : memref<1x4x8xf32>
    memref.store %6, %0[%c0, %1, %c3] : memref<1x4x8xf32>
    %7 = memref.load %arg0[%c0, %1, %c4] : memref<1x4x8xf32>
    memref.store %7, %0[%c0, %1, %c4] : memref<1x4x8xf32>
    %8 = memref.load %arg0[%c0, %1, %c5] : memref<1x4x8xf32>
    memref.store %8, %0[%c0, %1, %c5] : memref<1x4x8xf32>
    %9 = memref.load %arg0[%c0, %1, %c6] : memref<1x4x8xf32>
    memref.store %9, %0[%c0, %1, %c6] : memref<1x4x8xf32>
    %10 = memref.load %arg0[%c0, %1, %c7] : memref<1x4x8xf32>
    memref.store %10, %0[%c0, %1, %c7] : memref<1x4x8xf32>
    %11 = arith.addi %1, %c1 : index
    cf.br ^bb1(%11 : index)
  ^bb3:  // pred: ^bb1
    %12 = memref.alloca() : memref<1x8x4xf32>
    cf.br ^bb4(%c0 : index)
  ^bb4(%13: index):  // 2 preds: ^bb3, ^bb5
    %14 = arith.cmpi slt, %13, %c8 : index
    cf.cond_br %14, ^bb5, ^bb6
  ^bb5:  // pred: ^bb4
    %15 = memref.load %arg1[%c0, %13, %c0] : memref<1x8x4xf32>
    memref.store %15, %12[%c0, %13, %c0] : memref<1x8x4xf32>
    %16 = memref.load %arg1[%c0, %13, %c1] : memref<1x8x4xf32>
    memref.store %16, %12[%c0, %13, %c1] : memref<1x8x4xf32>
    %17 = memref.load %arg1[%c0, %13, %c2] : memref<1x8x4xf32>
    memref.store %17, %12[%c0, %13, %c2] : memref<1x8x4xf32>
    %18 = memref.load %arg1[%c0, %13, %c3] : memref<1x8x4xf32>
    memref.store %18, %12[%c0, %13, %c3] : memref<1x8x4xf32>
    %19 = arith.addi %13, %c1 : index
    cf.br ^bb4(%19 : index)
  ^bb6:  // pred: ^bb4
    %20 = memref.alloca() : memref<1x4x4xf32>
    cf.br ^bb7(%c0 : index)
  ^bb7(%21: index):  // 2 preds: ^bb6, ^bb8
    %22 = arith.cmpi slt, %21, %c4 : index
    cf.cond_br %22, ^bb8, ^bb9(%c0 : index)
  ^bb8:  // pred: ^bb7
    %23 = memref.load %arg2[%c0, %21, %c0] : memref<1x4x4xf32>
    memref.store %23, %20[%c0, %21, %c0] : memref<1x4x4xf32>
    %24 = memref.load %arg2[%c0, %21, %c1] : memref<1x4x4xf32>
    memref.store %24, %20[%c0, %21, %c1] : memref<1x4x4xf32>
    %25 = memref.load %arg2[%c0, %21, %c2] : memref<1x4x4xf32>
    memref.store %25, %20[%c0, %21, %c2] : memref<1x4x4xf32>
    %26 = memref.load %arg2[%c0, %21, %c3] : memref<1x4x4xf32>
    memref.store %26, %20[%c0, %21, %c3] : memref<1x4x4xf32>
    %27 = arith.addi %21, %c1 : index
    cf.br ^bb7(%27 : index)
  ^bb9(%28: index):  // 2 preds: ^bb7, ^bb12
    %29 = arith.cmpi slt, %28, %c4 : index
    cf.cond_br %29, ^bb10(%c0 : index), ^bb13(%c0 : index)
  ^bb10(%30: index):  // 2 preds: ^bb9, ^bb11
    %31 = arith.cmpi slt, %30, %c4 : index
    cf.cond_br %31, ^bb11, ^bb12
  ^bb11:  // pred: ^bb10
    %32 = memref.load %0[%c0, %28, %c0] : memref<1x4x8xf32>
    %33 = memref.load %12[%c0, %c0, %30] : memref<1x8x4xf32>
    %34 = memref.load %20[%c0, %28, %30] : memref<1x4x4xf32>
    %35 = arith.mulf %32, %33 : f32
    %36 = arith.addf %34, %35 : f32
    %37 = memref.load %0[%c0, %28, %c1] : memref<1x4x8xf32>
    %38 = memref.load %12[%c0, %c1, %30] : memref<1x8x4xf32>
    %39 = arith.mulf %37, %38 : f32
    %40 = arith.addf %36, %39 : f32
    %41 = memref.load %0[%c0, %28, %c2] : memref<1x4x8xf32>
    %42 = memref.load %12[%c0, %c2, %30] : memref<1x8x4xf32>
    %43 = arith.mulf %41, %42 : f32
    %44 = arith.addf %40, %43 : f32
    %45 = memref.load %0[%c0, %28, %c3] : memref<1x4x8xf32>
    %46 = memref.load %12[%c0, %c3, %30] : memref<1x8x4xf32>
    %47 = arith.mulf %45, %46 : f32
    %48 = arith.addf %44, %47 : f32
    %49 = memref.load %0[%c0, %28, %c4] : memref<1x4x8xf32>
    %50 = memref.load %12[%c0, %c4, %30] : memref<1x8x4xf32>
    %51 = arith.mulf %49, %50 : f32
    %52 = arith.addf %48, %51 : f32
    %53 = memref.load %0[%c0, %28, %c5] : memref<1x4x8xf32>
    %54 = memref.load %12[%c0, %c5, %30] : memref<1x8x4xf32>
    %55 = arith.mulf %53, %54 : f32
    %56 = arith.addf %52, %55 : f32
    %57 = memref.load %0[%c0, %28, %c6] : memref<1x4x8xf32>
    %58 = memref.load %12[%c0, %c6, %30] : memref<1x8x4xf32>
    %59 = arith.mulf %57, %58 : f32
    %60 = arith.addf %56, %59 : f32
    %61 = memref.load %0[%c0, %28, %c7] : memref<1x4x8xf32>
    %62 = memref.load %12[%c0, %c7, %30] : memref<1x8x4xf32>
    %63 = arith.mulf %61, %62 : f32
    %64 = arith.addf %60, %63 : f32
    memref.store %64, %20[%c0, %28, %30] : memref<1x4x4xf32>
    %65 = arith.addi %30, %c1 : index
    cf.br ^bb10(%65 : index)
  ^bb12:  // pred: ^bb10
    %66 = arith.addi %28, %c1 : index
    cf.br ^bb9(%66 : index)
  ^bb13(%67: index):  // 2 preds: ^bb9, ^bb14
    %68 = arith.cmpi slt, %67, %c4 : index
    cf.cond_br %68, ^bb14, ^bb15
  ^bb14:  // pred: ^bb13
    %69 = memref.load %20[%c0, %67, %c0] : memref<1x4x4xf32>
    memref.store %69, %arg2[%c0, %67, %c0] : memref<1x4x4xf32>
    %70 = memref.load %20[%c0, %67, %c1] : memref<1x4x4xf32>
    memref.store %70, %arg2[%c0, %67, %c1] : memref<1x4x4xf32>
    %71 = memref.load %20[%c0, %67, %c2] : memref<1x4x4xf32>
    memref.store %71, %arg2[%c0, %67, %c2] : memref<1x4x4xf32>
    %72 = memref.load %20[%c0, %67, %c3] : memref<1x4x4xf32>
    memref.store %72, %arg2[%c0, %67, %c3] : memref<1x4x4xf32>
    %73 = arith.addi %67, %c1 : index
    cf.br ^bb13(%73 : index)
  ^bb15:  // pred: ^bb13
    return
  }
}


// -----// IR Dump After CSE //----- //
module attributes {soda.bambu.container_module, soda.container_module, tf.versions = {bad_consumers = [], min_consumer = 0 : i32, producer = 561 : i32}} {
  func @main_kernel(%arg0: memref<1x4x8xf32> {llvm.noalias}, %arg1: memref<1x8x4xf32> {llvm.noalias}, %arg2: memref<1x4x4xf32> {llvm.noalias}) {
    %c2 = arith.constant 2 : index
    %c3 = arith.constant 3 : index
    %c5 = arith.constant 5 : index
    %c6 = arith.constant 6 : index
    %c7 = arith.constant 7 : index
    %c8 = arith.constant 8 : index
    %c0 = arith.constant 0 : index
    %c4 = arith.constant 4 : index
    %c1 = arith.constant 1 : index
    %0 = memref.alloca() : memref<1x4x8xf32>
    cf.br ^bb1(%c0 : index)
  ^bb1(%1: index):  // 2 preds: ^bb0, ^bb2
    %2 = arith.cmpi slt, %1, %c4 : index
    cf.cond_br %2, ^bb2, ^bb3
  ^bb2:  // pred: ^bb1
    %3 = memref.load %arg0[%c0, %1, %c0] : memref<1x4x8xf32>
    memref.store %3, %0[%c0, %1, %c0] : memref<1x4x8xf32>
    %4 = memref.load %arg0[%c0, %1, %c1] : memref<1x4x8xf32>
    memref.store %4, %0[%c0, %1, %c1] : memref<1x4x8xf32>
    %5 = memref.load %arg0[%c0, %1, %c2] : memref<1x4x8xf32>
    memref.store %5, %0[%c0, %1, %c2] : memref<1x4x8xf32>
    %6 = memref.load %arg0[%c0, %1, %c3] : memref<1x4x8xf32>
    memref.store %6, %0[%c0, %1, %c3] : memref<1x4x8xf32>
    %7 = memref.load %arg0[%c0, %1, %c4] : memref<1x4x8xf32>
    memref.store %7, %0[%c0, %1, %c4] : memref<1x4x8xf32>
    %8 = memref.load %arg0[%c0, %1, %c5] : memref<1x4x8xf32>
    memref.store %8, %0[%c0, %1, %c5] : memref<1x4x8xf32>
    %9 = memref.load %arg0[%c0, %1, %c6] : memref<1x4x8xf32>
    memref.store %9, %0[%c0, %1, %c6] : memref<1x4x8xf32>
    %10 = memref.load %arg0[%c0, %1, %c7] : memref<1x4x8xf32>
    memref.store %10, %0[%c0, %1, %c7] : memref<1x4x8xf32>
    %11 = arith.addi %1, %c1 : index
    cf.br ^bb1(%11 : index)
  ^bb3:  // pred: ^bb1
    %12 = memref.alloca() : memref<1x8x4xf32>
    cf.br ^bb4(%c0 : index)
  ^bb4(%13: index):  // 2 preds: ^bb3, ^bb5
    %14 = arith.cmpi slt, %13, %c8 : index
    cf.cond_br %14, ^bb5, ^bb6
  ^bb5:  // pred: ^bb4
    %15 = memref.load %arg1[%c0, %13, %c0] : memref<1x8x4xf32>
    memref.store %15, %12[%c0, %13, %c0] : memref<1x8x4xf32>
    %16 = memref.load %arg1[%c0, %13, %c1] : memref<1x8x4xf32>
    memref.store %16, %12[%c0, %13, %c1] : memref<1x8x4xf32>
    %17 = memref.load %arg1[%c0, %13, %c2] : memref<1x8x4xf32>
    memref.store %17, %12[%c0, %13, %c2] : memref<1x8x4xf32>
    %18 = memref.load %arg1[%c0, %13, %c3] : memref<1x8x4xf32>
    memref.store %18, %12[%c0, %13, %c3] : memref<1x8x4xf32>
    %19 = arith.addi %13, %c1 : index
    cf.br ^bb4(%19 : index)
  ^bb6:  // pred: ^bb4
    %20 = memref.alloca() : memref<1x4x4xf32>
    cf.br ^bb7(%c0 : index)
  ^bb7(%21: index):  // 2 preds: ^bb6, ^bb8
    %22 = arith.cmpi slt, %21, %c4 : index
    cf.cond_br %22, ^bb8, ^bb9(%c0 : index)
  ^bb8:  // pred: ^bb7
    %23 = memref.load %arg2[%c0, %21, %c0] : memref<1x4x4xf32>
    memref.store %23, %20[%c0, %21, %c0] : memref<1x4x4xf32>
    %24 = memref.load %arg2[%c0, %21, %c1] : memref<1x4x4xf32>
    memref.store %24, %20[%c0, %21, %c1] : memref<1x4x4xf32>
    %25 = memref.load %arg2[%c0, %21, %c2] : memref<1x4x4xf32>
    memref.store %25, %20[%c0, %21, %c2] : memref<1x4x4xf32>
    %26 = memref.load %arg2[%c0, %21, %c3] : memref<1x4x4xf32>
    memref.store %26, %20[%c0, %21, %c3] : memref<1x4x4xf32>
    %27 = arith.addi %21, %c1 : index
    cf.br ^bb7(%27 : index)
  ^bb9(%28: index):  // 2 preds: ^bb7, ^bb12
    %29 = arith.cmpi slt, %28, %c4 : index
    cf.cond_br %29, ^bb10(%c0 : index), ^bb13(%c0 : index)
  ^bb10(%30: index):  // 2 preds: ^bb9, ^bb11
    %31 = arith.cmpi slt, %30, %c4 : index
    cf.cond_br %31, ^bb11, ^bb12
  ^bb11:  // pred: ^bb10
    %32 = memref.load %0[%c0, %28, %c0] : memref<1x4x8xf32>
    %33 = memref.load %12[%c0, %c0, %30] : memref<1x8x4xf32>
    %34 = memref.load %20[%c0, %28, %30] : memref<1x4x4xf32>
    %35 = arith.mulf %32, %33 : f32
    %36 = arith.addf %34, %35 : f32
    %37 = memref.load %0[%c0, %28, %c1] : memref<1x4x8xf32>
    %38 = memref.load %12[%c0, %c1, %30] : memref<1x8x4xf32>
    %39 = arith.mulf %37, %38 : f32
    %40 = arith.addf %36, %39 : f32
    %41 = memref.load %0[%c0, %28, %c2] : memref<1x4x8xf32>
    %42 = memref.load %12[%c0, %c2, %30] : memref<1x8x4xf32>
    %43 = arith.mulf %41, %42 : f32
    %44 = arith.addf %40, %43 : f32
    %45 = memref.load %0[%c0, %28, %c3] : memref<1x4x8xf32>
    %46 = memref.load %12[%c0, %c3, %30] : memref<1x8x4xf32>
    %47 = arith.mulf %45, %46 : f32
    %48 = arith.addf %44, %47 : f32
    %49 = memref.load %0[%c0, %28, %c4] : memref<1x4x8xf32>
    %50 = memref.load %12[%c0, %c4, %30] : memref<1x8x4xf32>
    %51 = arith.mulf %49, %50 : f32
    %52 = arith.addf %48, %51 : f32
    %53 = memref.load %0[%c0, %28, %c5] : memref<1x4x8xf32>
    %54 = memref.load %12[%c0, %c5, %30] : memref<1x8x4xf32>
    %55 = arith.mulf %53, %54 : f32
    %56 = arith.addf %52, %55 : f32
    %57 = memref.load %0[%c0, %28, %c6] : memref<1x4x8xf32>
    %58 = memref.load %12[%c0, %c6, %30] : memref<1x8x4xf32>
    %59 = arith.mulf %57, %58 : f32
    %60 = arith.addf %56, %59 : f32
    %61 = memref.load %0[%c0, %28, %c7] : memref<1x4x8xf32>
    %62 = memref.load %12[%c0, %c7, %30] : memref<1x8x4xf32>
    %63 = arith.mulf %61, %62 : f32
    %64 = arith.addf %60, %63 : f32
    memref.store %64, %20[%c0, %28, %30] : memref<1x4x4xf32>
    %65 = arith.addi %30, %c1 : index
    cf.br ^bb10(%65 : index)
  ^bb12:  // pred: ^bb10
    %66 = arith.addi %28, %c1 : index
    cf.br ^bb9(%66 : index)
  ^bb13(%67: index):  // 2 preds: ^bb9, ^bb14
    %68 = arith.cmpi slt, %67, %c4 : index
    cf.cond_br %68, ^bb14, ^bb15
  ^bb14:  // pred: ^bb13
    %69 = memref.load %20[%c0, %67, %c0] : memref<1x4x4xf32>
    memref.store %69, %arg2[%c0, %67, %c0] : memref<1x4x4xf32>
    %70 = memref.load %20[%c0, %67, %c1] : memref<1x4x4xf32>
    memref.store %70, %arg2[%c0, %67, %c1] : memref<1x4x4xf32>
    %71 = memref.load %20[%c0, %67, %c2] : memref<1x4x4xf32>
    memref.store %71, %arg2[%c0, %67, %c2] : memref<1x4x4xf32>
    %72 = memref.load %20[%c0, %67, %c3] : memref<1x4x4xf32>
    memref.store %72, %arg2[%c0, %67, %c3] : memref<1x4x4xf32>
    %73 = arith.addi %67, %c1 : index
    cf.br ^bb13(%73 : index)
  ^bb15:  // pred: ^bb13
    return
  }
}


// -----// IR Dump After ConvertMemRefToLLVM //----- //
module attributes {soda.bambu.container_module, soda.container_module, tf.versions = {bad_consumers = [], min_consumer = 0 : i32, producer = 561 : i32}} {
  func @main_kernel(%arg0: memref<1x4x8xf32> {llvm.noalias}, %arg1: memref<1x8x4xf32> {llvm.noalias}, %arg2: memref<1x4x4xf32> {llvm.noalias}) {
    %0 = builtin.unrealized_conversion_cast %arg2 : memref<1x4x4xf32> to !llvm.struct<(ptr<f32>, ptr<f32>, i64, array<3 x i64>, array<3 x i64>)>
    %1 = builtin.unrealized_conversion_cast %arg1 : memref<1x8x4xf32> to !llvm.struct<(ptr<f32>, ptr<f32>, i64, array<3 x i64>, array<3 x i64>)>
    %2 = builtin.unrealized_conversion_cast %arg0 : memref<1x4x8xf32> to !llvm.struct<(ptr<f32>, ptr<f32>, i64, array<3 x i64>, array<3 x i64>)>
    %c2 = arith.constant 2 : index
    %3 = builtin.unrealized_conversion_cast %c2 : index to i64
    %c3 = arith.constant 3 : index
    %4 = builtin.unrealized_conversion_cast %c3 : index to i64
    %c5 = arith.constant 5 : index
    %5 = builtin.unrealized_conversion_cast %c5 : index to i64
    %c6 = arith.constant 6 : index
    %6 = builtin.unrealized_conversion_cast %c6 : index to i64
    %c7 = arith.constant 7 : index
    %7 = builtin.unrealized_conversion_cast %c7 : index to i64
    %c8 = arith.constant 8 : index
    %c0 = arith.constant 0 : index
    %8 = builtin.unrealized_conversion_cast %c0 : index to i64
    %c4 = arith.constant 4 : index
    %9 = builtin.unrealized_conversion_cast %c4 : index to i64
    %c1 = arith.constant 1 : index
    %10 = builtin.unrealized_conversion_cast %c1 : index to i64
    %11 = llvm.mlir.constant(1 : index) : i64
    %12 = llvm.mlir.constant(4 : index) : i64
    %13 = llvm.mlir.constant(8 : index) : i64
    %14 = llvm.mlir.constant(1 : index) : i64
    %15 = llvm.mlir.constant(32 : index) : i64
    %16 = llvm.mlir.constant(32 : index) : i64
    %17 = llvm.mlir.null : !llvm.ptr<f32>
    %18 = llvm.getelementptr %17[%16] : (!llvm.ptr<f32>, i64) -> !llvm.ptr<f32>
    %19 = llvm.ptrtoint %18 : !llvm.ptr<f32> to i64
    %20 = llvm.alloca %19 x f32 : (i64) -> !llvm.ptr<f32>
    %21 = llvm.mlir.undef : !llvm.struct<(ptr<f32>, ptr<f32>, i64, array<3 x i64>, array<3 x i64>)>
    %22 = llvm.insertvalue %20, %21[0] : !llvm.struct<(ptr<f32>, ptr<f32>, i64, array<3 x i64>, array<3 x i64>)>
    %23 = llvm.insertvalue %20, %22[1] : !llvm.struct<(ptr<f32>, ptr<f32>, i64, array<3 x i64>, array<3 x i64>)>
    %24 = llvm.mlir.constant(0 : index) : i64
    %25 = llvm.insertvalue %24, %23[2] : !llvm.struct<(ptr<f32>, ptr<f32>, i64, array<3 x i64>, array<3 x i64>)>
    %26 = llvm.insertvalue %11, %25[3, 0] : !llvm.struct<(ptr<f32>, ptr<f32>, i64, array<3 x i64>, array<3 x i64>)>
    %27 = llvm.insertvalue %12, %26[3, 1] : !llvm.struct<(ptr<f32>, ptr<f32>, i64, array<3 x i64>, array<3 x i64>)>
    %28 = llvm.insertvalue %13, %27[3, 2] : !llvm.struct<(ptr<f32>, ptr<f32>, i64, array<3 x i64>, array<3 x i64>)>
    %29 = llvm.insertvalue %15, %28[4, 0] : !llvm.struct<(ptr<f32>, ptr<f32>, i64, array<3 x i64>, array<3 x i64>)>
    %30 = llvm.insertvalue %13, %29[4, 1] : !llvm.struct<(ptr<f32>, ptr<f32>, i64, array<3 x i64>, array<3 x i64>)>
    %31 = llvm.insertvalue %14, %30[4, 2] : !llvm.struct<(ptr<f32>, ptr<f32>, i64, array<3 x i64>, array<3 x i64>)>
    cf.br ^bb1(%c0 : index)
  ^bb1(%32: index):  // 2 preds: ^bb0, ^bb2
    %33 = builtin.unrealized_conversion_cast %32 : index to i64
    %34 = arith.cmpi slt, %32, %c4 : index
    cf.cond_br %34, ^bb2, ^bb3
  ^bb2:  // pred: ^bb1
    %35 = llvm.extractvalue %2[1] : !llvm.struct<(ptr<f32>, ptr<f32>, i64, array<3 x i64>, array<3 x i64>)>
    %36 = llvm.mlir.constant(32 : index) : i64
    %37 = llvm.mul %8, %36  : i64
    %38 = llvm.mlir.constant(8 : index) : i64
    %39 = llvm.mul %33, %38  : i64
    %40 = llvm.add %37, %39  : i64
    %41 = llvm.add %40, %8  : i64
    %42 = llvm.getelementptr %35[%41] : (!llvm.ptr<f32>, i64) -> !llvm.ptr<f32>
    %43 = llvm.load %42 : !llvm.ptr<f32>
    %44 = llvm.extractvalue %31[1] : !llvm.struct<(ptr<f32>, ptr<f32>, i64, array<3 x i64>, array<3 x i64>)>
    %45 = llvm.mlir.constant(32 : index) : i64
    %46 = llvm.mul %8, %45  : i64
    %47 = llvm.mlir.constant(8 : index) : i64
    %48 = llvm.mul %33, %47  : i64
    %49 = llvm.add %46, %48  : i64
    %50 = llvm.add %49, %8  : i64
    %51 = llvm.getelementptr %44[%50] : (!llvm.ptr<f32>, i64) -> !llvm.ptr<f32>
    llvm.store %43, %51 : !llvm.ptr<f32>
    %52 = llvm.extractvalue %2[1] : !llvm.struct<(ptr<f32>, ptr<f32>, i64, array<3 x i64>, array<3 x i64>)>
    %53 = llvm.mlir.constant(32 : index) : i64
    %54 = llvm.mul %8, %53  : i64
    %55 = llvm.mlir.constant(8 : index) : i64
    %56 = llvm.mul %33, %55  : i64
    %57 = llvm.add %54, %56  : i64
    %58 = llvm.add %57, %10  : i64
    %59 = llvm.getelementptr %52[%58] : (!llvm.ptr<f32>, i64) -> !llvm.ptr<f32>
    %60 = llvm.load %59 : !llvm.ptr<f32>
    %61 = llvm.extractvalue %31[1] : !llvm.struct<(ptr<f32>, ptr<f32>, i64, array<3 x i64>, array<3 x i64>)>
    %62 = llvm.mlir.constant(32 : index) : i64
    %63 = llvm.mul %8, %62  : i64
    %64 = llvm.mlir.constant(8 : index) : i64
    %65 = llvm.mul %33, %64  : i64
    %66 = llvm.add %63, %65  : i64
    %67 = llvm.add %66, %10  : i64
    %68 = llvm.getelementptr %61[%67] : (!llvm.ptr<f32>, i64) -> !llvm.ptr<f32>
    llvm.store %60, %68 : !llvm.ptr<f32>
    %69 = llvm.extractvalue %2[1] : !llvm.struct<(ptr<f32>, ptr<f32>, i64, array<3 x i64>, array<3 x i64>)>
    %70 = llvm.mlir.constant(32 : index) : i64
    %71 = llvm.mul %8, %70  : i64
    %72 = llvm.mlir.constant(8 : index) : i64
    %73 = llvm.mul %33, %72  : i64
    %74 = llvm.add %71, %73  : i64
    %75 = llvm.add %74, %3  : i64
    %76 = llvm.getelementptr %69[%75] : (!llvm.ptr<f32>, i64) -> !llvm.ptr<f32>
    %77 = llvm.load %76 : !llvm.ptr<f32>
    %78 = llvm.extractvalue %31[1] : !llvm.struct<(ptr<f32>, ptr<f32>, i64, array<3 x i64>, array<3 x i64>)>
    %79 = llvm.mlir.constant(32 : index) : i64
    %80 = llvm.mul %8, %79  : i64
    %81 = llvm.mlir.constant(8 : index) : i64
    %82 = llvm.mul %33, %81  : i64
    %83 = llvm.add %80, %82  : i64
    %84 = llvm.add %83, %3  : i64
    %85 = llvm.getelementptr %78[%84] : (!llvm.ptr<f32>, i64) -> !llvm.ptr<f32>
    llvm.store %77, %85 : !llvm.ptr<f32>
    %86 = llvm.extractvalue %2[1] : !llvm.struct<(ptr<f32>, ptr<f32>, i64, array<3 x i64>, array<3 x i64>)>
    %87 = llvm.mlir.constant(32 : index) : i64
    %88 = llvm.mul %8, %87  : i64
    %89 = llvm.mlir.constant(8 : index) : i64
    %90 = llvm.mul %33, %89  : i64
    %91 = llvm.add %88, %90  : i64
    %92 = llvm.add %91, %4  : i64
    %93 = llvm.getelementptr %86[%92] : (!llvm.ptr<f32>, i64) -> !llvm.ptr<f32>
    %94 = llvm.load %93 : !llvm.ptr<f32>
    %95 = llvm.extractvalue %31[1] : !llvm.struct<(ptr<f32>, ptr<f32>, i64, array<3 x i64>, array<3 x i64>)>
    %96 = llvm.mlir.constant(32 : index) : i64
    %97 = llvm.mul %8, %96  : i64
    %98 = llvm.mlir.constant(8 : index) : i64
    %99 = llvm.mul %33, %98  : i64
    %100 = llvm.add %97, %99  : i64
    %101 = llvm.add %100, %4  : i64
    %102 = llvm.getelementptr %95[%101] : (!llvm.ptr<f32>, i64) -> !llvm.ptr<f32>
    llvm.store %94, %102 : !llvm.ptr<f32>
    %103 = llvm.extractvalue %2[1] : !llvm.struct<(ptr<f32>, ptr<f32>, i64, array<3 x i64>, array<3 x i64>)>
    %104 = llvm.mlir.constant(32 : index) : i64
    %105 = llvm.mul %8, %104  : i64
    %106 = llvm.mlir.constant(8 : index) : i64
    %107 = llvm.mul %33, %106  : i64
    %108 = llvm.add %105, %107  : i64
    %109 = llvm.add %108, %9  : i64
    %110 = llvm.getelementptr %103[%109] : (!llvm.ptr<f32>, i64) -> !llvm.ptr<f32>
    %111 = llvm.load %110 : !llvm.ptr<f32>
    %112 = llvm.extractvalue %31[1] : !llvm.struct<(ptr<f32>, ptr<f32>, i64, array<3 x i64>, array<3 x i64>)>
    %113 = llvm.mlir.constant(32 : index) : i64
    %114 = llvm.mul %8, %113  : i64
    %115 = llvm.mlir.constant(8 : index) : i64
    %116 = llvm.mul %33, %115  : i64
    %117 = llvm.add %114, %116  : i64
    %118 = llvm.add %117, %9  : i64
    %119 = llvm.getelementptr %112[%118] : (!llvm.ptr<f32>, i64) -> !llvm.ptr<f32>
    llvm.store %111, %119 : !llvm.ptr<f32>
    %120 = llvm.extractvalue %2[1] : !llvm.struct<(ptr<f32>, ptr<f32>, i64, array<3 x i64>, array<3 x i64>)>
    %121 = llvm.mlir.constant(32 : index) : i64
    %122 = llvm.mul %8, %121  : i64
    %123 = llvm.mlir.constant(8 : index) : i64
    %124 = llvm.mul %33, %123  : i64
    %125 = llvm.add %122, %124  : i64
    %126 = llvm.add %125, %5  : i64
    %127 = llvm.getelementptr %120[%126] : (!llvm.ptr<f32>, i64) -> !llvm.ptr<f32>
    %128 = llvm.load %127 : !llvm.ptr<f32>
    %129 = llvm.extractvalue %31[1] : !llvm.struct<(ptr<f32>, ptr<f32>, i64, array<3 x i64>, array<3 x i64>)>
    %130 = llvm.mlir.constant(32 : index) : i64
    %131 = llvm.mul %8, %130  : i64
    %132 = llvm.mlir.constant(8 : index) : i64
    %133 = llvm.mul %33, %132  : i64
    %134 = llvm.add %131, %133  : i64
    %135 = llvm.add %134, %5  : i64
    %136 = llvm.getelementptr %129[%135] : (!llvm.ptr<f32>, i64) -> !llvm.ptr<f32>
    llvm.store %128, %136 : !llvm.ptr<f32>
    %137 = llvm.extractvalue %2[1] : !llvm.struct<(ptr<f32>, ptr<f32>, i64, array<3 x i64>, array<3 x i64>)>
    %138 = llvm.mlir.constant(32 : index) : i64
    %139 = llvm.mul %8, %138  : i64
    %140 = llvm.mlir.constant(8 : index) : i64
    %141 = llvm.mul %33, %140  : i64
    %142 = llvm.add %139, %141  : i64
    %143 = llvm.add %142, %6  : i64
    %144 = llvm.getelementptr %137[%143] : (!llvm.ptr<f32>, i64) -> !llvm.ptr<f32>
    %145 = llvm.load %144 : !llvm.ptr<f32>
    %146 = llvm.extractvalue %31[1] : !llvm.struct<(ptr<f32>, ptr<f32>, i64, array<3 x i64>, array<3 x i64>)>
    %147 = llvm.mlir.constant(32 : index) : i64
    %148 = llvm.mul %8, %147  : i64
    %149 = llvm.mlir.constant(8 : index) : i64
    %150 = llvm.mul %33, %149  : i64
    %151 = llvm.add %148, %150  : i64
    %152 = llvm.add %151, %6  : i64
    %153 = llvm.getelementptr %146[%152] : (!llvm.ptr<f32>, i64) -> !llvm.ptr<f32>
    llvm.store %145, %153 : !llvm.ptr<f32>
    %154 = llvm.extractvalue %2[1] : !llvm.struct<(ptr<f32>, ptr<f32>, i64, array<3 x i64>, array<3 x i64>)>
    %155 = llvm.mlir.constant(32 : index) : i64
    %156 = llvm.mul %8, %155  : i64
    %157 = llvm.mlir.constant(8 : index) : i64
    %158 = llvm.mul %33, %157  : i64
    %159 = llvm.add %156, %158  : i64
    %160 = llvm.add %159, %7  : i64
    %161 = llvm.getelementptr %154[%160] : (!llvm.ptr<f32>, i64) -> !llvm.ptr<f32>
    %162 = llvm.load %161 : !llvm.ptr<f32>
    %163 = llvm.extractvalue %31[1] : !llvm.struct<(ptr<f32>, ptr<f32>, i64, array<3 x i64>, array<3 x i64>)>
    %164 = llvm.mlir.constant(32 : index) : i64
    %165 = llvm.mul %8, %164  : i64
    %166 = llvm.mlir.constant(8 : index) : i64
    %167 = llvm.mul %33, %166  : i64
    %168 = llvm.add %165, %167  : i64
    %169 = llvm.add %168, %7  : i64
    %170 = llvm.getelementptr %163[%169] : (!llvm.ptr<f32>, i64) -> !llvm.ptr<f32>
    llvm.store %162, %170 : !llvm.ptr<f32>
    %171 = arith.addi %32, %c1 : index
    cf.br ^bb1(%171 : index)
  ^bb3:  // pred: ^bb1
    %172 = llvm.mlir.constant(1 : index) : i64
    %173 = llvm.mlir.constant(8 : index) : i64
    %174 = llvm.mlir.constant(4 : index) : i64
    %175 = llvm.mlir.constant(1 : index) : i64
    %176 = llvm.mlir.constant(32 : index) : i64
    %177 = llvm.mlir.constant(32 : index) : i64
    %178 = llvm.mlir.null : !llvm.ptr<f32>
    %179 = llvm.getelementptr %178[%177] : (!llvm.ptr<f32>, i64) -> !llvm.ptr<f32>
    %180 = llvm.ptrtoint %179 : !llvm.ptr<f32> to i64
    %181 = llvm.alloca %180 x f32 : (i64) -> !llvm.ptr<f32>
    %182 = llvm.mlir.undef : !llvm.struct<(ptr<f32>, ptr<f32>, i64, array<3 x i64>, array<3 x i64>)>
    %183 = llvm.insertvalue %181, %182[0] : !llvm.struct<(ptr<f32>, ptr<f32>, i64, array<3 x i64>, array<3 x i64>)>
    %184 = llvm.insertvalue %181, %183[1] : !llvm.struct<(ptr<f32>, ptr<f32>, i64, array<3 x i64>, array<3 x i64>)>
    %185 = llvm.mlir.constant(0 : index) : i64
    %186 = llvm.insertvalue %185, %184[2] : !llvm.struct<(ptr<f32>, ptr<f32>, i64, array<3 x i64>, array<3 x i64>)>
    %187 = llvm.insertvalue %172, %186[3, 0] : !llvm.struct<(ptr<f32>, ptr<f32>, i64, array<3 x i64>, array<3 x i64>)>
    %188 = llvm.insertvalue %173, %187[3, 1] : !llvm.struct<(ptr<f32>, ptr<f32>, i64, array<3 x i64>, array<3 x i64>)>
    %189 = llvm.insertvalue %174, %188[3, 2] : !llvm.struct<(ptr<f32>, ptr<f32>, i64, array<3 x i64>, array<3 x i64>)>
    %190 = llvm.insertvalue %176, %189[4, 0] : !llvm.struct<(ptr<f32>, ptr<f32>, i64, array<3 x i64>, array<3 x i64>)>
    %191 = llvm.insertvalue %174, %190[4, 1] : !llvm.struct<(ptr<f32>, ptr<f32>, i64, array<3 x i64>, array<3 x i64>)>
    %192 = llvm.insertvalue %175, %191[4, 2] : !llvm.struct<(ptr<f32>, ptr<f32>, i64, array<3 x i64>, array<3 x i64>)>
    cf.br ^bb4(%c0 : index)
  ^bb4(%193: index):  // 2 preds: ^bb3, ^bb5
    %194 = builtin.unrealized_conversion_cast %193 : index to i64
    %195 = arith.cmpi slt, %193, %c8 : index
    cf.cond_br %195, ^bb5, ^bb6
  ^bb5:  // pred: ^bb4
    %196 = llvm.extractvalue %1[1] : !llvm.struct<(ptr<f32>, ptr<f32>, i64, array<3 x i64>, array<3 x i64>)>
    %197 = llvm.mlir.constant(32 : index) : i64
    %198 = llvm.mul %8, %197  : i64
    %199 = llvm.mlir.constant(4 : index) : i64
    %200 = llvm.mul %194, %199  : i64
    %201 = llvm.add %198, %200  : i64
    %202 = llvm.add %201, %8  : i64
    %203 = llvm.getelementptr %196[%202] : (!llvm.ptr<f32>, i64) -> !llvm.ptr<f32>
    %204 = llvm.load %203 : !llvm.ptr<f32>
    %205 = llvm.extractvalue %192[1] : !llvm.struct<(ptr<f32>, ptr<f32>, i64, array<3 x i64>, array<3 x i64>)>
    %206 = llvm.mlir.constant(32 : index) : i64
    %207 = llvm.mul %8, %206  : i64
    %208 = llvm.mlir.constant(4 : index) : i64
    %209 = llvm.mul %194, %208  : i64
    %210 = llvm.add %207, %209  : i64
    %211 = llvm.add %210, %8  : i64
    %212 = llvm.getelementptr %205[%211] : (!llvm.ptr<f32>, i64) -> !llvm.ptr<f32>
    llvm.store %204, %212 : !llvm.ptr<f32>
    %213 = llvm.extractvalue %1[1] : !llvm.struct<(ptr<f32>, ptr<f32>, i64, array<3 x i64>, array<3 x i64>)>
    %214 = llvm.mlir.constant(32 : index) : i64
    %215 = llvm.mul %8, %214  : i64
    %216 = llvm.mlir.constant(4 : index) : i64
    %217 = llvm.mul %194, %216  : i64
    %218 = llvm.add %215, %217  : i64
    %219 = llvm.add %218, %10  : i64
    %220 = llvm.getelementptr %213[%219] : (!llvm.ptr<f32>, i64) -> !llvm.ptr<f32>
    %221 = llvm.load %220 : !llvm.ptr<f32>
    %222 = llvm.extractvalue %192[1] : !llvm.struct<(ptr<f32>, ptr<f32>, i64, array<3 x i64>, array<3 x i64>)>
    %223 = llvm.mlir.constant(32 : index) : i64
    %224 = llvm.mul %8, %223  : i64
    %225 = llvm.mlir.constant(4 : index) : i64
    %226 = llvm.mul %194, %225  : i64
    %227 = llvm.add %224, %226  : i64
    %228 = llvm.add %227, %10  : i64
    %229 = llvm.getelementptr %222[%228] : (!llvm.ptr<f32>, i64) -> !llvm.ptr<f32>
    llvm.store %221, %229 : !llvm.ptr<f32>
    %230 = llvm.extractvalue %1[1] : !llvm.struct<(ptr<f32>, ptr<f32>, i64, array<3 x i64>, array<3 x i64>)>
    %231 = llvm.mlir.constant(32 : index) : i64
    %232 = llvm.mul %8, %231  : i64
    %233 = llvm.mlir.constant(4 : index) : i64
    %234 = llvm.mul %194, %233  : i64
    %235 = llvm.add %232, %234  : i64
    %236 = llvm.add %235, %3  : i64
    %237 = llvm.getelementptr %230[%236] : (!llvm.ptr<f32>, i64) -> !llvm.ptr<f32>
    %238 = llvm.load %237 : !llvm.ptr<f32>
    %239 = llvm.extractvalue %192[1] : !llvm.struct<(ptr<f32>, ptr<f32>, i64, array<3 x i64>, array<3 x i64>)>
    %240 = llvm.mlir.constant(32 : index) : i64
    %241 = llvm.mul %8, %240  : i64
    %242 = llvm.mlir.constant(4 : index) : i64
    %243 = llvm.mul %194, %242  : i64
    %244 = llvm.add %241, %243  : i64
    %245 = llvm.add %244, %3  : i64
    %246 = llvm.getelementptr %239[%245] : (!llvm.ptr<f32>, i64) -> !llvm.ptr<f32>
    llvm.store %238, %246 : !llvm.ptr<f32>
    %247 = llvm.extractvalue %1[1] : !llvm.struct<(ptr<f32>, ptr<f32>, i64, array<3 x i64>, array<3 x i64>)>
    %248 = llvm.mlir.constant(32 : index) : i64
    %249 = llvm.mul %8, %248  : i64
    %250 = llvm.mlir.constant(4 : index) : i64
    %251 = llvm.mul %194, %250  : i64
    %252 = llvm.add %249, %251  : i64
    %253 = llvm.add %252, %4  : i64
    %254 = llvm.getelementptr %247[%253] : (!llvm.ptr<f32>, i64) -> !llvm.ptr<f32>
    %255 = llvm.load %254 : !llvm.ptr<f32>
    %256 = llvm.extractvalue %192[1] : !llvm.struct<(ptr<f32>, ptr<f32>, i64, array<3 x i64>, array<3 x i64>)>
    %257 = llvm.mlir.constant(32 : index) : i64
    %258 = llvm.mul %8, %257  : i64
    %259 = llvm.mlir.constant(4 : index) : i64
    %260 = llvm.mul %194, %259  : i64
    %261 = llvm.add %258, %260  : i64
    %262 = llvm.add %261, %4  : i64
    %263 = llvm.getelementptr %256[%262] : (!llvm.ptr<f32>, i64) -> !llvm.ptr<f32>
    llvm.store %255, %263 : !llvm.ptr<f32>
    %264 = arith.addi %193, %c1 : index
    cf.br ^bb4(%264 : index)
  ^bb6:  // pred: ^bb4
    %265 = llvm.mlir.constant(1 : index) : i64
    %266 = llvm.mlir.constant(4 : index) : i64
    %267 = llvm.mlir.constant(4 : index) : i64
    %268 = llvm.mlir.constant(1 : index) : i64
    %269 = llvm.mlir.constant(16 : index) : i64
    %270 = llvm.mlir.constant(16 : index) : i64
    %271 = llvm.mlir.null : !llvm.ptr<f32>
    %272 = llvm.getelementptr %271[%270] : (!llvm.ptr<f32>, i64) -> !llvm.ptr<f32>
    %273 = llvm.ptrtoint %272 : !llvm.ptr<f32> to i64
    %274 = llvm.alloca %273 x f32 : (i64) -> !llvm.ptr<f32>
    %275 = llvm.mlir.undef : !llvm.struct<(ptr<f32>, ptr<f32>, i64, array<3 x i64>, array<3 x i64>)>
    %276 = llvm.insertvalue %274, %275[0] : !llvm.struct<(ptr<f32>, ptr<f32>, i64, array<3 x i64>, array<3 x i64>)>
    %277 = llvm.insertvalue %274, %276[1] : !llvm.struct<(ptr<f32>, ptr<f32>, i64, array<3 x i64>, array<3 x i64>)>
    %278 = llvm.mlir.constant(0 : index) : i64
    %279 = llvm.insertvalue %278, %277[2] : !llvm.struct<(ptr<f32>, ptr<f32>, i64, array<3 x i64>, array<3 x i64>)>
    %280 = llvm.insertvalue %265, %279[3, 0] : !llvm.struct<(ptr<f32>, ptr<f32>, i64, array<3 x i64>, array<3 x i64>)>
    %281 = llvm.insertvalue %266, %280[3, 1] : !llvm.struct<(ptr<f32>, ptr<f32>, i64, array<3 x i64>, array<3 x i64>)>
    %282 = llvm.insertvalue %267, %281[3, 2] : !llvm.struct<(ptr<f32>, ptr<f32>, i64, array<3 x i64>, array<3 x i64>)>
    %283 = llvm.insertvalue %269, %282[4, 0] : !llvm.struct<(ptr<f32>, ptr<f32>, i64, array<3 x i64>, array<3 x i64>)>
    %284 = llvm.insertvalue %267, %283[4, 1] : !llvm.struct<(ptr<f32>, ptr<f32>, i64, array<3 x i64>, array<3 x i64>)>
    %285 = llvm.insertvalue %268, %284[4, 2] : !llvm.struct<(ptr<f32>, ptr<f32>, i64, array<3 x i64>, array<3 x i64>)>
    cf.br ^bb7(%c0 : index)
  ^bb7(%286: index):  // 2 preds: ^bb6, ^bb8
    %287 = builtin.unrealized_conversion_cast %286 : index to i64
    %288 = arith.cmpi slt, %286, %c4 : index
    cf.cond_br %288, ^bb8, ^bb9(%c0 : index)
  ^bb8:  // pred: ^bb7
    %289 = llvm.extractvalue %0[1] : !llvm.struct<(ptr<f32>, ptr<f32>, i64, array<3 x i64>, array<3 x i64>)>
    %290 = llvm.mlir.constant(16 : index) : i64
    %291 = llvm.mul %8, %290  : i64
    %292 = llvm.mlir.constant(4 : index) : i64
    %293 = llvm.mul %287, %292  : i64
    %294 = llvm.add %291, %293  : i64
    %295 = llvm.add %294, %8  : i64
    %296 = llvm.getelementptr %289[%295] : (!llvm.ptr<f32>, i64) -> !llvm.ptr<f32>
    %297 = llvm.load %296 : !llvm.ptr<f32>
    %298 = llvm.extractvalue %285[1] : !llvm.struct<(ptr<f32>, ptr<f32>, i64, array<3 x i64>, array<3 x i64>)>
    %299 = llvm.mlir.constant(16 : index) : i64
    %300 = llvm.mul %8, %299  : i64
    %301 = llvm.mlir.constant(4 : index) : i64
    %302 = llvm.mul %287, %301  : i64
    %303 = llvm.add %300, %302  : i64
    %304 = llvm.add %303, %8  : i64
    %305 = llvm.getelementptr %298[%304] : (!llvm.ptr<f32>, i64) -> !llvm.ptr<f32>
    llvm.store %297, %305 : !llvm.ptr<f32>
    %306 = llvm.extractvalue %0[1] : !llvm.struct<(ptr<f32>, ptr<f32>, i64, array<3 x i64>, array<3 x i64>)>
    %307 = llvm.mlir.constant(16 : index) : i64
    %308 = llvm.mul %8, %307  : i64
    %309 = llvm.mlir.constant(4 : index) : i64
    %310 = llvm.mul %287, %309  : i64
    %311 = llvm.add %308, %310  : i64
    %312 = llvm.add %311, %10  : i64
    %313 = llvm.getelementptr %306[%312] : (!llvm.ptr<f32>, i64) -> !llvm.ptr<f32>
    %314 = llvm.load %313 : !llvm.ptr<f32>
    %315 = llvm.extractvalue %285[1] : !llvm.struct<(ptr<f32>, ptr<f32>, i64, array<3 x i64>, array<3 x i64>)>
    %316 = llvm.mlir.constant(16 : index) : i64
    %317 = llvm.mul %8, %316  : i64
    %318 = llvm.mlir.constant(4 : index) : i64
    %319 = llvm.mul %287, %318  : i64
    %320 = llvm.add %317, %319  : i64
    %321 = llvm.add %320, %10  : i64
    %322 = llvm.getelementptr %315[%321] : (!llvm.ptr<f32>, i64) -> !llvm.ptr<f32>
    llvm.store %314, %322 : !llvm.ptr<f32>
    %323 = llvm.extractvalue %0[1] : !llvm.struct<(ptr<f32>, ptr<f32>, i64, array<3 x i64>, array<3 x i64>)>
    %324 = llvm.mlir.constant(16 : index) : i64
    %325 = llvm.mul %8, %324  : i64
    %326 = llvm.mlir.constant(4 : index) : i64
    %327 = llvm.mul %287, %326  : i64
    %328 = llvm.add %325, %327  : i64
    %329 = llvm.add %328, %3  : i64
    %330 = llvm.getelementptr %323[%329] : (!llvm.ptr<f32>, i64) -> !llvm.ptr<f32>
    %331 = llvm.load %330 : !llvm.ptr<f32>
    %332 = llvm.extractvalue %285[1] : !llvm.struct<(ptr<f32>, ptr<f32>, i64, array<3 x i64>, array<3 x i64>)>
    %333 = llvm.mlir.constant(16 : index) : i64
    %334 = llvm.mul %8, %333  : i64
    %335 = llvm.mlir.constant(4 : index) : i64
    %336 = llvm.mul %287, %335  : i64
    %337 = llvm.add %334, %336  : i64
    %338 = llvm.add %337, %3  : i64
    %339 = llvm.getelementptr %332[%338] : (!llvm.ptr<f32>, i64) -> !llvm.ptr<f32>
    llvm.store %331, %339 : !llvm.ptr<f32>
    %340 = llvm.extractvalue %0[1] : !llvm.struct<(ptr<f32>, ptr<f32>, i64, array<3 x i64>, array<3 x i64>)>
    %341 = llvm.mlir.constant(16 : index) : i64
    %342 = llvm.mul %8, %341  : i64
    %343 = llvm.mlir.constant(4 : index) : i64
    %344 = llvm.mul %287, %343  : i64
    %345 = llvm.add %342, %344  : i64
    %346 = llvm.add %345, %4  : i64
    %347 = llvm.getelementptr %340[%346] : (!llvm.ptr<f32>, i64) -> !llvm.ptr<f32>
    %348 = llvm.load %347 : !llvm.ptr<f32>
    %349 = llvm.extractvalue %285[1] : !llvm.struct<(ptr<f32>, ptr<f32>, i64, array<3 x i64>, array<3 x i64>)>
    %350 = llvm.mlir.constant(16 : index) : i64
    %351 = llvm.mul %8, %350  : i64
    %352 = llvm.mlir.constant(4 : index) : i64
    %353 = llvm.mul %287, %352  : i64
    %354 = llvm.add %351, %353  : i64
    %355 = llvm.add %354, %4  : i64
    %356 = llvm.getelementptr %349[%355] : (!llvm.ptr<f32>, i64) -> !llvm.ptr<f32>
    llvm.store %348, %356 : !llvm.ptr<f32>
    %357 = arith.addi %286, %c1 : index
    cf.br ^bb7(%357 : index)
  ^bb9(%358: index):  // 2 preds: ^bb7, ^bb12
    %359 = builtin.unrealized_conversion_cast %358 : index to i64
    %360 = arith.cmpi slt, %358, %c4 : index
    cf.cond_br %360, ^bb10(%c0 : index), ^bb13(%c0 : index)
  ^bb10(%361: index):  // 2 preds: ^bb9, ^bb11
    %362 = builtin.unrealized_conversion_cast %361 : index to i64
    %363 = arith.cmpi slt, %361, %c4 : index
    cf.cond_br %363, ^bb11, ^bb12
  ^bb11:  // pred: ^bb10
    %364 = llvm.extractvalue %31[1] : !llvm.struct<(ptr<f32>, ptr<f32>, i64, array<3 x i64>, array<3 x i64>)>
    %365 = llvm.mlir.constant(32 : index) : i64
    %366 = llvm.mul %8, %365  : i64
    %367 = llvm.mlir.constant(8 : index) : i64
    %368 = llvm.mul %359, %367  : i64
    %369 = llvm.add %366, %368  : i64
    %370 = llvm.add %369, %8  : i64
    %371 = llvm.getelementptr %364[%370] : (!llvm.ptr<f32>, i64) -> !llvm.ptr<f32>
    %372 = llvm.load %371 : !llvm.ptr<f32>
    %373 = llvm.extractvalue %192[1] : !llvm.struct<(ptr<f32>, ptr<f32>, i64, array<3 x i64>, array<3 x i64>)>
    %374 = llvm.mlir.constant(32 : index) : i64
    %375 = llvm.mul %8, %374  : i64
    %376 = llvm.mlir.constant(4 : index) : i64
    %377 = llvm.mul %8, %376  : i64
    %378 = llvm.add %375, %377  : i64
    %379 = llvm.add %378, %362  : i64
    %380 = llvm.getelementptr %373[%379] : (!llvm.ptr<f32>, i64) -> !llvm.ptr<f32>
    %381 = llvm.load %380 : !llvm.ptr<f32>
    %382 = llvm.extractvalue %285[1] : !llvm.struct<(ptr<f32>, ptr<f32>, i64, array<3 x i64>, array<3 x i64>)>
    %383 = llvm.mlir.constant(16 : index) : i64
    %384 = llvm.mul %8, %383  : i64
    %385 = llvm.mlir.constant(4 : index) : i64
    %386 = llvm.mul %359, %385  : i64
    %387 = llvm.add %384, %386  : i64
    %388 = llvm.add %387, %362  : i64
    %389 = llvm.getelementptr %382[%388] : (!llvm.ptr<f32>, i64) -> !llvm.ptr<f32>
    %390 = llvm.load %389 : !llvm.ptr<f32>
    %391 = arith.mulf %372, %381 : f32
    %392 = arith.addf %390, %391 : f32
    %393 = llvm.extractvalue %31[1] : !llvm.struct<(ptr<f32>, ptr<f32>, i64, array<3 x i64>, array<3 x i64>)>
    %394 = llvm.mlir.constant(32 : index) : i64
    %395 = llvm.mul %8, %394  : i64
    %396 = llvm.mlir.constant(8 : index) : i64
    %397 = llvm.mul %359, %396  : i64
    %398 = llvm.add %395, %397  : i64
    %399 = llvm.add %398, %10  : i64
    %400 = llvm.getelementptr %393[%399] : (!llvm.ptr<f32>, i64) -> !llvm.ptr<f32>
    %401 = llvm.load %400 : !llvm.ptr<f32>
    %402 = llvm.extractvalue %192[1] : !llvm.struct<(ptr<f32>, ptr<f32>, i64, array<3 x i64>, array<3 x i64>)>
    %403 = llvm.mlir.constant(32 : index) : i64
    %404 = llvm.mul %8, %403  : i64
    %405 = llvm.mlir.constant(4 : index) : i64
    %406 = llvm.mul %10, %405  : i64
    %407 = llvm.add %404, %406  : i64
    %408 = llvm.add %407, %362  : i64
    %409 = llvm.getelementptr %402[%408] : (!llvm.ptr<f32>, i64) -> !llvm.ptr<f32>
    %410 = llvm.load %409 : !llvm.ptr<f32>
    %411 = arith.mulf %401, %410 : f32
    %412 = arith.addf %392, %411 : f32
    %413 = llvm.extractvalue %31[1] : !llvm.struct<(ptr<f32>, ptr<f32>, i64, array<3 x i64>, array<3 x i64>)>
    %414 = llvm.mlir.constant(32 : index) : i64
    %415 = llvm.mul %8, %414  : i64
    %416 = llvm.mlir.constant(8 : index) : i64
    %417 = llvm.mul %359, %416  : i64
    %418 = llvm.add %415, %417  : i64
    %419 = llvm.add %418, %3  : i64
    %420 = llvm.getelementptr %413[%419] : (!llvm.ptr<f32>, i64) -> !llvm.ptr<f32>
    %421 = llvm.load %420 : !llvm.ptr<f32>
    %422 = llvm.extractvalue %192[1] : !llvm.struct<(ptr<f32>, ptr<f32>, i64, array<3 x i64>, array<3 x i64>)>
    %423 = llvm.mlir.constant(32 : index) : i64
    %424 = llvm.mul %8, %423  : i64
    %425 = llvm.mlir.constant(4 : index) : i64
    %426 = llvm.mul %3, %425  : i64
    %427 = llvm.add %424, %426  : i64
    %428 = llvm.add %427, %362  : i64
    %429 = llvm.getelementptr %422[%428] : (!llvm.ptr<f32>, i64) -> !llvm.ptr<f32>
    %430 = llvm.load %429 : !llvm.ptr<f32>
    %431 = arith.mulf %421, %430 : f32
    %432 = arith.addf %412, %431 : f32
    %433 = llvm.extractvalue %31[1] : !llvm.struct<(ptr<f32>, ptr<f32>, i64, array<3 x i64>, array<3 x i64>)>
    %434 = llvm.mlir.constant(32 : index) : i64
    %435 = llvm.mul %8, %434  : i64
    %436 = llvm.mlir.constant(8 : index) : i64
    %437 = llvm.mul %359, %436  : i64
    %438 = llvm.add %435, %437  : i64
    %439 = llvm.add %438, %4  : i64
    %440 = llvm.getelementptr %433[%439] : (!llvm.ptr<f32>, i64) -> !llvm.ptr<f32>
    %441 = llvm.load %440 : !llvm.ptr<f32>
    %442 = llvm.extractvalue %192[1] : !llvm.struct<(ptr<f32>, ptr<f32>, i64, array<3 x i64>, array<3 x i64>)>
    %443 = llvm.mlir.constant(32 : index) : i64
    %444 = llvm.mul %8, %443  : i64
    %445 = llvm.mlir.constant(4 : index) : i64
    %446 = llvm.mul %4, %445  : i64
    %447 = llvm.add %444, %446  : i64
    %448 = llvm.add %447, %362  : i64
    %449 = llvm.getelementptr %442[%448] : (!llvm.ptr<f32>, i64) -> !llvm.ptr<f32>
    %450 = llvm.load %449 : !llvm.ptr<f32>
    %451 = arith.mulf %441, %450 : f32
    %452 = arith.addf %432, %451 : f32
    %453 = llvm.extractvalue %31[1] : !llvm.struct<(ptr<f32>, ptr<f32>, i64, array<3 x i64>, array<3 x i64>)>
    %454 = llvm.mlir.constant(32 : index) : i64
    %455 = llvm.mul %8, %454  : i64
    %456 = llvm.mlir.constant(8 : index) : i64
    %457 = llvm.mul %359, %456  : i64
    %458 = llvm.add %455, %457  : i64
    %459 = llvm.add %458, %9  : i64
    %460 = llvm.getelementptr %453[%459] : (!llvm.ptr<f32>, i64) -> !llvm.ptr<f32>
    %461 = llvm.load %460 : !llvm.ptr<f32>
    %462 = llvm.extractvalue %192[1] : !llvm.struct<(ptr<f32>, ptr<f32>, i64, array<3 x i64>, array<3 x i64>)>
    %463 = llvm.mlir.constant(32 : index) : i64
    %464 = llvm.mul %8, %463  : i64
    %465 = llvm.mlir.constant(4 : index) : i64
    %466 = llvm.mul %9, %465  : i64
    %467 = llvm.add %464, %466  : i64
    %468 = llvm.add %467, %362  : i64
    %469 = llvm.getelementptr %462[%468] : (!llvm.ptr<f32>, i64) -> !llvm.ptr<f32>
    %470 = llvm.load %469 : !llvm.ptr<f32>
    %471 = arith.mulf %461, %470 : f32
    %472 = arith.addf %452, %471 : f32
    %473 = llvm.extractvalue %31[1] : !llvm.struct<(ptr<f32>, ptr<f32>, i64, array<3 x i64>, array<3 x i64>)>
    %474 = llvm.mlir.constant(32 : index) : i64
    %475 = llvm.mul %8, %474  : i64
    %476 = llvm.mlir.constant(8 : index) : i64
    %477 = llvm.mul %359, %476  : i64
    %478 = llvm.add %475, %477  : i64
    %479 = llvm.add %478, %5  : i64
    %480 = llvm.getelementptr %473[%479] : (!llvm.ptr<f32>, i64) -> !llvm.ptr<f32>
    %481 = llvm.load %480 : !llvm.ptr<f32>
    %482 = llvm.extractvalue %192[1] : !llvm.struct<(ptr<f32>, ptr<f32>, i64, array<3 x i64>, array<3 x i64>)>
    %483 = llvm.mlir.constant(32 : index) : i64
    %484 = llvm.mul %8, %483  : i64
    %485 = llvm.mlir.constant(4 : index) : i64
    %486 = llvm.mul %5, %485  : i64
    %487 = llvm.add %484, %486  : i64
    %488 = llvm.add %487, %362  : i64
    %489 = llvm.getelementptr %482[%488] : (!llvm.ptr<f32>, i64) -> !llvm.ptr<f32>
    %490 = llvm.load %489 : !llvm.ptr<f32>
    %491 = arith.mulf %481, %490 : f32
    %492 = arith.addf %472, %491 : f32
    %493 = llvm.extractvalue %31[1] : !llvm.struct<(ptr<f32>, ptr<f32>, i64, array<3 x i64>, array<3 x i64>)>
    %494 = llvm.mlir.constant(32 : index) : i64
    %495 = llvm.mul %8, %494  : i64
    %496 = llvm.mlir.constant(8 : index) : i64
    %497 = llvm.mul %359, %496  : i64
    %498 = llvm.add %495, %497  : i64
    %499 = llvm.add %498, %6  : i64
    %500 = llvm.getelementptr %493[%499] : (!llvm.ptr<f32>, i64) -> !llvm.ptr<f32>
    %501 = llvm.load %500 : !llvm.ptr<f32>
    %502 = llvm.extractvalue %192[1] : !llvm.struct<(ptr<f32>, ptr<f32>, i64, array<3 x i64>, array<3 x i64>)>
    %503 = llvm.mlir.constant(32 : index) : i64
    %504 = llvm.mul %8, %503  : i64
    %505 = llvm.mlir.constant(4 : index) : i64
    %506 = llvm.mul %6, %505  : i64
    %507 = llvm.add %504, %506  : i64
    %508 = llvm.add %507, %362  : i64
    %509 = llvm.getelementptr %502[%508] : (!llvm.ptr<f32>, i64) -> !llvm.ptr<f32>
    %510 = llvm.load %509 : !llvm.ptr<f32>
    %511 = arith.mulf %501, %510 : f32
    %512 = arith.addf %492, %511 : f32
    %513 = llvm.extractvalue %31[1] : !llvm.struct<(ptr<f32>, ptr<f32>, i64, array<3 x i64>, array<3 x i64>)>
    %514 = llvm.mlir.constant(32 : index) : i64
    %515 = llvm.mul %8, %514  : i64
    %516 = llvm.mlir.constant(8 : index) : i64
    %517 = llvm.mul %359, %516  : i64
    %518 = llvm.add %515, %517  : i64
    %519 = llvm.add %518, %7  : i64
    %520 = llvm.getelementptr %513[%519] : (!llvm.ptr<f32>, i64) -> !llvm.ptr<f32>
    %521 = llvm.load %520 : !llvm.ptr<f32>
    %522 = llvm.extractvalue %192[1] : !llvm.struct<(ptr<f32>, ptr<f32>, i64, array<3 x i64>, array<3 x i64>)>
    %523 = llvm.mlir.constant(32 : index) : i64
    %524 = llvm.mul %8, %523  : i64
    %525 = llvm.mlir.constant(4 : index) : i64
    %526 = llvm.mul %7, %525  : i64
    %527 = llvm.add %524, %526  : i64
    %528 = llvm.add %527, %362  : i64
    %529 = llvm.getelementptr %522[%528] : (!llvm.ptr<f32>, i64) -> !llvm.ptr<f32>
    %530 = llvm.load %529 : !llvm.ptr<f32>
    %531 = arith.mulf %521, %530 : f32
    %532 = arith.addf %512, %531 : f32
    %533 = llvm.extractvalue %285[1] : !llvm.struct<(ptr<f32>, ptr<f32>, i64, array<3 x i64>, array<3 x i64>)>
    %534 = llvm.mlir.constant(16 : index) : i64
    %535 = llvm.mul %8, %534  : i64
    %536 = llvm.mlir.constant(4 : index) : i64
    %537 = llvm.mul %359, %536  : i64
    %538 = llvm.add %535, %537  : i64
    %539 = llvm.add %538, %362  : i64
    %540 = llvm.getelementptr %533[%539] : (!llvm.ptr<f32>, i64) -> !llvm.ptr<f32>
    llvm.store %532, %540 : !llvm.ptr<f32>
    %541 = arith.addi %361, %c1 : index
    cf.br ^bb10(%541 : index)
  ^bb12:  // pred: ^bb10
    %542 = arith.addi %358, %c1 : index
    cf.br ^bb9(%542 : index)
  ^bb13(%543: index):  // 2 preds: ^bb9, ^bb14
    %544 = builtin.unrealized_conversion_cast %543 : index to i64
    %545 = arith.cmpi slt, %543, %c4 : index
    cf.cond_br %545, ^bb14, ^bb15
  ^bb14:  // pred: ^bb13
    %546 = llvm.extractvalue %285[1] : !llvm.struct<(ptr<f32>, ptr<f32>, i64, array<3 x i64>, array<3 x i64>)>
    %547 = llvm.mlir.constant(16 : index) : i64
    %548 = llvm.mul %8, %547  : i64
    %549 = llvm.mlir.constant(4 : index) : i64
    %550 = llvm.mul %544, %549  : i64
    %551 = llvm.add %548, %550  : i64
    %552 = llvm.add %551, %8  : i64
    %553 = llvm.getelementptr %546[%552] : (!llvm.ptr<f32>, i64) -> !llvm.ptr<f32>
    %554 = llvm.load %553 : !llvm.ptr<f32>
    %555 = llvm.extractvalue %0[1] : !llvm.struct<(ptr<f32>, ptr<f32>, i64, array<3 x i64>, array<3 x i64>)>
    %556 = llvm.mlir.constant(16 : index) : i64
    %557 = llvm.mul %8, %556  : i64
    %558 = llvm.mlir.constant(4 : index) : i64
    %559 = llvm.mul %544, %558  : i64
    %560 = llvm.add %557, %559  : i64
    %561 = llvm.add %560, %8  : i64
    %562 = llvm.getelementptr %555[%561] : (!llvm.ptr<f32>, i64) -> !llvm.ptr<f32>
    llvm.store %554, %562 : !llvm.ptr<f32>
    %563 = llvm.extractvalue %285[1] : !llvm.struct<(ptr<f32>, ptr<f32>, i64, array<3 x i64>, array<3 x i64>)>
    %564 = llvm.mlir.constant(16 : index) : i64
    %565 = llvm.mul %8, %564  : i64
    %566 = llvm.mlir.constant(4 : index) : i64
    %567 = llvm.mul %544, %566  : i64
    %568 = llvm.add %565, %567  : i64
    %569 = llvm.add %568, %10  : i64
    %570 = llvm.getelementptr %563[%569] : (!llvm.ptr<f32>, i64) -> !llvm.ptr<f32>
    %571 = llvm.load %570 : !llvm.ptr<f32>
    %572 = llvm.extractvalue %0[1] : !llvm.struct<(ptr<f32>, ptr<f32>, i64, array<3 x i64>, array<3 x i64>)>
    %573 = llvm.mlir.constant(16 : index) : i64
    %574 = llvm.mul %8, %573  : i64
    %575 = llvm.mlir.constant(4 : index) : i64
    %576 = llvm.mul %544, %575  : i64
    %577 = llvm.add %574, %576  : i64
    %578 = llvm.add %577, %10  : i64
    %579 = llvm.getelementptr %572[%578] : (!llvm.ptr<f32>, i64) -> !llvm.ptr<f32>
    llvm.store %571, %579 : !llvm.ptr<f32>
    %580 = llvm.extractvalue %285[1] : !llvm.struct<(ptr<f32>, ptr<f32>, i64, array<3 x i64>, array<3 x i64>)>
    %581 = llvm.mlir.constant(16 : index) : i64
    %582 = llvm.mul %8, %581  : i64
    %583 = llvm.mlir.constant(4 : index) : i64
    %584 = llvm.mul %544, %583  : i64
    %585 = llvm.add %582, %584  : i64
    %586 = llvm.add %585, %3  : i64
    %587 = llvm.getelementptr %580[%586] : (!llvm.ptr<f32>, i64) -> !llvm.ptr<f32>
    %588 = llvm.load %587 : !llvm.ptr<f32>
    %589 = llvm.extractvalue %0[1] : !llvm.struct<(ptr<f32>, ptr<f32>, i64, array<3 x i64>, array<3 x i64>)>
    %590 = llvm.mlir.constant(16 : index) : i64
    %591 = llvm.mul %8, %590  : i64
    %592 = llvm.mlir.constant(4 : index) : i64
    %593 = llvm.mul %544, %592  : i64
    %594 = llvm.add %591, %593  : i64
    %595 = llvm.add %594, %3  : i64
    %596 = llvm.getelementptr %589[%595] : (!llvm.ptr<f32>, i64) -> !llvm.ptr<f32>
    llvm.store %588, %596 : !llvm.ptr<f32>
    %597 = llvm.extractvalue %285[1] : !llvm.struct<(ptr<f32>, ptr<f32>, i64, array<3 x i64>, array<3 x i64>)>
    %598 = llvm.mlir.constant(16 : index) : i64
    %599 = llvm.mul %8, %598  : i64
    %600 = llvm.mlir.constant(4 : index) : i64
    %601 = llvm.mul %544, %600  : i64
    %602 = llvm.add %599, %601  : i64
    %603 = llvm.add %602, %4  : i64
    %604 = llvm.getelementptr %597[%603] : (!llvm.ptr<f32>, i64) -> !llvm.ptr<f32>
    %605 = llvm.load %604 : !llvm.ptr<f32>
    %606 = llvm.extractvalue %0[1] : !llvm.struct<(ptr<f32>, ptr<f32>, i64, array<3 x i64>, array<3 x i64>)>
    %607 = llvm.mlir.constant(16 : index) : i64
    %608 = llvm.mul %8, %607  : i64
    %609 = llvm.mlir.constant(4 : index) : i64
    %610 = llvm.mul %544, %609  : i64
    %611 = llvm.add %608, %610  : i64
    %612 = llvm.add %611, %4  : i64
    %613 = llvm.getelementptr %606[%612] : (!llvm.ptr<f32>, i64) -> !llvm.ptr<f32>
    llvm.store %605, %613 : !llvm.ptr<f32>
    %614 = arith.addi %543, %c1 : index
    cf.br ^bb13(%614 : index)
  ^bb15:  // pred: ^bb13
    return
  }
}


// -----// IR Dump After ConvertMathToLLVM //----- //
func @main_kernel(%arg0: memref<1x4x8xf32> {llvm.noalias}, %arg1: memref<1x8x4xf32> {llvm.noalias}, %arg2: memref<1x4x4xf32> {llvm.noalias}) {
  %0 = builtin.unrealized_conversion_cast %arg2 : memref<1x4x4xf32> to !llvm.struct<(ptr<f32>, ptr<f32>, i64, array<3 x i64>, array<3 x i64>)>
  %1 = builtin.unrealized_conversion_cast %arg1 : memref<1x8x4xf32> to !llvm.struct<(ptr<f32>, ptr<f32>, i64, array<3 x i64>, array<3 x i64>)>
  %2 = builtin.unrealized_conversion_cast %arg0 : memref<1x4x8xf32> to !llvm.struct<(ptr<f32>, ptr<f32>, i64, array<3 x i64>, array<3 x i64>)>
  %c2 = arith.constant 2 : index
  %3 = builtin.unrealized_conversion_cast %c2 : index to i64
  %c3 = arith.constant 3 : index
  %4 = builtin.unrealized_conversion_cast %c3 : index to i64
  %c5 = arith.constant 5 : index
  %5 = builtin.unrealized_conversion_cast %c5 : index to i64
  %c6 = arith.constant 6 : index
  %6 = builtin.unrealized_conversion_cast %c6 : index to i64
  %c7 = arith.constant 7 : index
  %7 = builtin.unrealized_conversion_cast %c7 : index to i64
  %c8 = arith.constant 8 : index
  %c0 = arith.constant 0 : index
  %8 = builtin.unrealized_conversion_cast %c0 : index to i64
  %c4 = arith.constant 4 : index
  %9 = builtin.unrealized_conversion_cast %c4 : index to i64
  %c1 = arith.constant 1 : index
  %10 = builtin.unrealized_conversion_cast %c1 : index to i64
  %11 = llvm.mlir.constant(1 : index) : i64
  %12 = llvm.mlir.constant(4 : index) : i64
  %13 = llvm.mlir.constant(8 : index) : i64
  %14 = llvm.mlir.constant(1 : index) : i64
  %15 = llvm.mlir.constant(32 : index) : i64
  %16 = llvm.mlir.constant(32 : index) : i64
  %17 = llvm.mlir.null : !llvm.ptr<f32>
  %18 = llvm.getelementptr %17[%16] : (!llvm.ptr<f32>, i64) -> !llvm.ptr<f32>
  %19 = llvm.ptrtoint %18 : !llvm.ptr<f32> to i64
  %20 = llvm.alloca %19 x f32 : (i64) -> !llvm.ptr<f32>
  %21 = llvm.mlir.undef : !llvm.struct<(ptr<f32>, ptr<f32>, i64, array<3 x i64>, array<3 x i64>)>
  %22 = llvm.insertvalue %20, %21[0] : !llvm.struct<(ptr<f32>, ptr<f32>, i64, array<3 x i64>, array<3 x i64>)>
  %23 = llvm.insertvalue %20, %22[1] : !llvm.struct<(ptr<f32>, ptr<f32>, i64, array<3 x i64>, array<3 x i64>)>
  %24 = llvm.mlir.constant(0 : index) : i64
  %25 = llvm.insertvalue %24, %23[2] : !llvm.struct<(ptr<f32>, ptr<f32>, i64, array<3 x i64>, array<3 x i64>)>
  %26 = llvm.insertvalue %11, %25[3, 0] : !llvm.struct<(ptr<f32>, ptr<f32>, i64, array<3 x i64>, array<3 x i64>)>
  %27 = llvm.insertvalue %12, %26[3, 1] : !llvm.struct<(ptr<f32>, ptr<f32>, i64, array<3 x i64>, array<3 x i64>)>
  %28 = llvm.insertvalue %13, %27[3, 2] : !llvm.struct<(ptr<f32>, ptr<f32>, i64, array<3 x i64>, array<3 x i64>)>
  %29 = llvm.insertvalue %15, %28[4, 0] : !llvm.struct<(ptr<f32>, ptr<f32>, i64, array<3 x i64>, array<3 x i64>)>
  %30 = llvm.insertvalue %13, %29[4, 1] : !llvm.struct<(ptr<f32>, ptr<f32>, i64, array<3 x i64>, array<3 x i64>)>
  %31 = llvm.insertvalue %14, %30[4, 2] : !llvm.struct<(ptr<f32>, ptr<f32>, i64, array<3 x i64>, array<3 x i64>)>
  cf.br ^bb1(%c0 : index)
^bb1(%32: index):  // 2 preds: ^bb0, ^bb2
  %33 = builtin.unrealized_conversion_cast %32 : index to i64
  %34 = arith.cmpi slt, %32, %c4 : index
  cf.cond_br %34, ^bb2, ^bb3
^bb2:  // pred: ^bb1
  %35 = llvm.extractvalue %2[1] : !llvm.struct<(ptr<f32>, ptr<f32>, i64, array<3 x i64>, array<3 x i64>)>
  %36 = llvm.mlir.constant(32 : index) : i64
  %37 = llvm.mul %8, %36  : i64
  %38 = llvm.mlir.constant(8 : index) : i64
  %39 = llvm.mul %33, %38  : i64
  %40 = llvm.add %37, %39  : i64
  %41 = llvm.add %40, %8  : i64
  %42 = llvm.getelementptr %35[%41] : (!llvm.ptr<f32>, i64) -> !llvm.ptr<f32>
  %43 = llvm.load %42 : !llvm.ptr<f32>
  %44 = llvm.extractvalue %31[1] : !llvm.struct<(ptr<f32>, ptr<f32>, i64, array<3 x i64>, array<3 x i64>)>
  %45 = llvm.mlir.constant(32 : index) : i64
  %46 = llvm.mul %8, %45  : i64
  %47 = llvm.mlir.constant(8 : index) : i64
  %48 = llvm.mul %33, %47  : i64
  %49 = llvm.add %46, %48  : i64
  %50 = llvm.add %49, %8  : i64
  %51 = llvm.getelementptr %44[%50] : (!llvm.ptr<f32>, i64) -> !llvm.ptr<f32>
  llvm.store %43, %51 : !llvm.ptr<f32>
  %52 = llvm.extractvalue %2[1] : !llvm.struct<(ptr<f32>, ptr<f32>, i64, array<3 x i64>, array<3 x i64>)>
  %53 = llvm.mlir.constant(32 : index) : i64
  %54 = llvm.mul %8, %53  : i64
  %55 = llvm.mlir.constant(8 : index) : i64
  %56 = llvm.mul %33, %55  : i64
  %57 = llvm.add %54, %56  : i64
  %58 = llvm.add %57, %10  : i64
  %59 = llvm.getelementptr %52[%58] : (!llvm.ptr<f32>, i64) -> !llvm.ptr<f32>
  %60 = llvm.load %59 : !llvm.ptr<f32>
  %61 = llvm.extractvalue %31[1] : !llvm.struct<(ptr<f32>, ptr<f32>, i64, array<3 x i64>, array<3 x i64>)>
  %62 = llvm.mlir.constant(32 : index) : i64
  %63 = llvm.mul %8, %62  : i64
  %64 = llvm.mlir.constant(8 : index) : i64
  %65 = llvm.mul %33, %64  : i64
  %66 = llvm.add %63, %65  : i64
  %67 = llvm.add %66, %10  : i64
  %68 = llvm.getelementptr %61[%67] : (!llvm.ptr<f32>, i64) -> !llvm.ptr<f32>
  llvm.store %60, %68 : !llvm.ptr<f32>
  %69 = llvm.extractvalue %2[1] : !llvm.struct<(ptr<f32>, ptr<f32>, i64, array<3 x i64>, array<3 x i64>)>
  %70 = llvm.mlir.constant(32 : index) : i64
  %71 = llvm.mul %8, %70  : i64
  %72 = llvm.mlir.constant(8 : index) : i64
  %73 = llvm.mul %33, %72  : i64
  %74 = llvm.add %71, %73  : i64
  %75 = llvm.add %74, %3  : i64
  %76 = llvm.getelementptr %69[%75] : (!llvm.ptr<f32>, i64) -> !llvm.ptr<f32>
  %77 = llvm.load %76 : !llvm.ptr<f32>
  %78 = llvm.extractvalue %31[1] : !llvm.struct<(ptr<f32>, ptr<f32>, i64, array<3 x i64>, array<3 x i64>)>
  %79 = llvm.mlir.constant(32 : index) : i64
  %80 = llvm.mul %8, %79  : i64
  %81 = llvm.mlir.constant(8 : index) : i64
  %82 = llvm.mul %33, %81  : i64
  %83 = llvm.add %80, %82  : i64
  %84 = llvm.add %83, %3  : i64
  %85 = llvm.getelementptr %78[%84] : (!llvm.ptr<f32>, i64) -> !llvm.ptr<f32>
  llvm.store %77, %85 : !llvm.ptr<f32>
  %86 = llvm.extractvalue %2[1] : !llvm.struct<(ptr<f32>, ptr<f32>, i64, array<3 x i64>, array<3 x i64>)>
  %87 = llvm.mlir.constant(32 : index) : i64
  %88 = llvm.mul %8, %87  : i64
  %89 = llvm.mlir.constant(8 : index) : i64
  %90 = llvm.mul %33, %89  : i64
  %91 = llvm.add %88, %90  : i64
  %92 = llvm.add %91, %4  : i64
  %93 = llvm.getelementptr %86[%92] : (!llvm.ptr<f32>, i64) -> !llvm.ptr<f32>
  %94 = llvm.load %93 : !llvm.ptr<f32>
  %95 = llvm.extractvalue %31[1] : !llvm.struct<(ptr<f32>, ptr<f32>, i64, array<3 x i64>, array<3 x i64>)>
  %96 = llvm.mlir.constant(32 : index) : i64
  %97 = llvm.mul %8, %96  : i64
  %98 = llvm.mlir.constant(8 : index) : i64
  %99 = llvm.mul %33, %98  : i64
  %100 = llvm.add %97, %99  : i64
  %101 = llvm.add %100, %4  : i64
  %102 = llvm.getelementptr %95[%101] : (!llvm.ptr<f32>, i64) -> !llvm.ptr<f32>
  llvm.store %94, %102 : !llvm.ptr<f32>
  %103 = llvm.extractvalue %2[1] : !llvm.struct<(ptr<f32>, ptr<f32>, i64, array<3 x i64>, array<3 x i64>)>
  %104 = llvm.mlir.constant(32 : index) : i64
  %105 = llvm.mul %8, %104  : i64
  %106 = llvm.mlir.constant(8 : index) : i64
  %107 = llvm.mul %33, %106  : i64
  %108 = llvm.add %105, %107  : i64
  %109 = llvm.add %108, %9  : i64
  %110 = llvm.getelementptr %103[%109] : (!llvm.ptr<f32>, i64) -> !llvm.ptr<f32>
  %111 = llvm.load %110 : !llvm.ptr<f32>
  %112 = llvm.extractvalue %31[1] : !llvm.struct<(ptr<f32>, ptr<f32>, i64, array<3 x i64>, array<3 x i64>)>
  %113 = llvm.mlir.constant(32 : index) : i64
  %114 = llvm.mul %8, %113  : i64
  %115 = llvm.mlir.constant(8 : index) : i64
  %116 = llvm.mul %33, %115  : i64
  %117 = llvm.add %114, %116  : i64
  %118 = llvm.add %117, %9  : i64
  %119 = llvm.getelementptr %112[%118] : (!llvm.ptr<f32>, i64) -> !llvm.ptr<f32>
  llvm.store %111, %119 : !llvm.ptr<f32>
  %120 = llvm.extractvalue %2[1] : !llvm.struct<(ptr<f32>, ptr<f32>, i64, array<3 x i64>, array<3 x i64>)>
  %121 = llvm.mlir.constant(32 : index) : i64
  %122 = llvm.mul %8, %121  : i64
  %123 = llvm.mlir.constant(8 : index) : i64
  %124 = llvm.mul %33, %123  : i64
  %125 = llvm.add %122, %124  : i64
  %126 = llvm.add %125, %5  : i64
  %127 = llvm.getelementptr %120[%126] : (!llvm.ptr<f32>, i64) -> !llvm.ptr<f32>
  %128 = llvm.load %127 : !llvm.ptr<f32>
  %129 = llvm.extractvalue %31[1] : !llvm.struct<(ptr<f32>, ptr<f32>, i64, array<3 x i64>, array<3 x i64>)>
  %130 = llvm.mlir.constant(32 : index) : i64
  %131 = llvm.mul %8, %130  : i64
  %132 = llvm.mlir.constant(8 : index) : i64
  %133 = llvm.mul %33, %132  : i64
  %134 = llvm.add %131, %133  : i64
  %135 = llvm.add %134, %5  : i64
  %136 = llvm.getelementptr %129[%135] : (!llvm.ptr<f32>, i64) -> !llvm.ptr<f32>
  llvm.store %128, %136 : !llvm.ptr<f32>
  %137 = llvm.extractvalue %2[1] : !llvm.struct<(ptr<f32>, ptr<f32>, i64, array<3 x i64>, array<3 x i64>)>
  %138 = llvm.mlir.constant(32 : index) : i64
  %139 = llvm.mul %8, %138  : i64
  %140 = llvm.mlir.constant(8 : index) : i64
  %141 = llvm.mul %33, %140  : i64
  %142 = llvm.add %139, %141  : i64
  %143 = llvm.add %142, %6  : i64
  %144 = llvm.getelementptr %137[%143] : (!llvm.ptr<f32>, i64) -> !llvm.ptr<f32>
  %145 = llvm.load %144 : !llvm.ptr<f32>
  %146 = llvm.extractvalue %31[1] : !llvm.struct<(ptr<f32>, ptr<f32>, i64, array<3 x i64>, array<3 x i64>)>
  %147 = llvm.mlir.constant(32 : index) : i64
  %148 = llvm.mul %8, %147  : i64
  %149 = llvm.mlir.constant(8 : index) : i64
  %150 = llvm.mul %33, %149  : i64
  %151 = llvm.add %148, %150  : i64
  %152 = llvm.add %151, %6  : i64
  %153 = llvm.getelementptr %146[%152] : (!llvm.ptr<f32>, i64) -> !llvm.ptr<f32>
  llvm.store %145, %153 : !llvm.ptr<f32>
  %154 = llvm.extractvalue %2[1] : !llvm.struct<(ptr<f32>, ptr<f32>, i64, array<3 x i64>, array<3 x i64>)>
  %155 = llvm.mlir.constant(32 : index) : i64
  %156 = llvm.mul %8, %155  : i64
  %157 = llvm.mlir.constant(8 : index) : i64
  %158 = llvm.mul %33, %157  : i64
  %159 = llvm.add %156, %158  : i64
  %160 = llvm.add %159, %7  : i64
  %161 = llvm.getelementptr %154[%160] : (!llvm.ptr<f32>, i64) -> !llvm.ptr<f32>
  %162 = llvm.load %161 : !llvm.ptr<f32>
  %163 = llvm.extractvalue %31[1] : !llvm.struct<(ptr<f32>, ptr<f32>, i64, array<3 x i64>, array<3 x i64>)>
  %164 = llvm.mlir.constant(32 : index) : i64
  %165 = llvm.mul %8, %164  : i64
  %166 = llvm.mlir.constant(8 : index) : i64
  %167 = llvm.mul %33, %166  : i64
  %168 = llvm.add %165, %167  : i64
  %169 = llvm.add %168, %7  : i64
  %170 = llvm.getelementptr %163[%169] : (!llvm.ptr<f32>, i64) -> !llvm.ptr<f32>
  llvm.store %162, %170 : !llvm.ptr<f32>
  %171 = arith.addi %32, %c1 : index
  cf.br ^bb1(%171 : index)
^bb3:  // pred: ^bb1
  %172 = llvm.mlir.constant(1 : index) : i64
  %173 = llvm.mlir.constant(8 : index) : i64
  %174 = llvm.mlir.constant(4 : index) : i64
  %175 = llvm.mlir.constant(1 : index) : i64
  %176 = llvm.mlir.constant(32 : index) : i64
  %177 = llvm.mlir.constant(32 : index) : i64
  %178 = llvm.mlir.null : !llvm.ptr<f32>
  %179 = llvm.getelementptr %178[%177] : (!llvm.ptr<f32>, i64) -> !llvm.ptr<f32>
  %180 = llvm.ptrtoint %179 : !llvm.ptr<f32> to i64
  %181 = llvm.alloca %180 x f32 : (i64) -> !llvm.ptr<f32>
  %182 = llvm.mlir.undef : !llvm.struct<(ptr<f32>, ptr<f32>, i64, array<3 x i64>, array<3 x i64>)>
  %183 = llvm.insertvalue %181, %182[0] : !llvm.struct<(ptr<f32>, ptr<f32>, i64, array<3 x i64>, array<3 x i64>)>
  %184 = llvm.insertvalue %181, %183[1] : !llvm.struct<(ptr<f32>, ptr<f32>, i64, array<3 x i64>, array<3 x i64>)>
  %185 = llvm.mlir.constant(0 : index) : i64
  %186 = llvm.insertvalue %185, %184[2] : !llvm.struct<(ptr<f32>, ptr<f32>, i64, array<3 x i64>, array<3 x i64>)>
  %187 = llvm.insertvalue %172, %186[3, 0] : !llvm.struct<(ptr<f32>, ptr<f32>, i64, array<3 x i64>, array<3 x i64>)>
  %188 = llvm.insertvalue %173, %187[3, 1] : !llvm.struct<(ptr<f32>, ptr<f32>, i64, array<3 x i64>, array<3 x i64>)>
  %189 = llvm.insertvalue %174, %188[3, 2] : !llvm.struct<(ptr<f32>, ptr<f32>, i64, array<3 x i64>, array<3 x i64>)>
  %190 = llvm.insertvalue %176, %189[4, 0] : !llvm.struct<(ptr<f32>, ptr<f32>, i64, array<3 x i64>, array<3 x i64>)>
  %191 = llvm.insertvalue %174, %190[4, 1] : !llvm.struct<(ptr<f32>, ptr<f32>, i64, array<3 x i64>, array<3 x i64>)>
  %192 = llvm.insertvalue %175, %191[4, 2] : !llvm.struct<(ptr<f32>, ptr<f32>, i64, array<3 x i64>, array<3 x i64>)>
  cf.br ^bb4(%c0 : index)
^bb4(%193: index):  // 2 preds: ^bb3, ^bb5
  %194 = builtin.unrealized_conversion_cast %193 : index to i64
  %195 = arith.cmpi slt, %193, %c8 : index
  cf.cond_br %195, ^bb5, ^bb6
^bb5:  // pred: ^bb4
  %196 = llvm.extractvalue %1[1] : !llvm.struct<(ptr<f32>, ptr<f32>, i64, array<3 x i64>, array<3 x i64>)>
  %197 = llvm.mlir.constant(32 : index) : i64
  %198 = llvm.mul %8, %197  : i64
  %199 = llvm.mlir.constant(4 : index) : i64
  %200 = llvm.mul %194, %199  : i64
  %201 = llvm.add %198, %200  : i64
  %202 = llvm.add %201, %8  : i64
  %203 = llvm.getelementptr %196[%202] : (!llvm.ptr<f32>, i64) -> !llvm.ptr<f32>
  %204 = llvm.load %203 : !llvm.ptr<f32>
  %205 = llvm.extractvalue %192[1] : !llvm.struct<(ptr<f32>, ptr<f32>, i64, array<3 x i64>, array<3 x i64>)>
  %206 = llvm.mlir.constant(32 : index) : i64
  %207 = llvm.mul %8, %206  : i64
  %208 = llvm.mlir.constant(4 : index) : i64
  %209 = llvm.mul %194, %208  : i64
  %210 = llvm.add %207, %209  : i64
  %211 = llvm.add %210, %8  : i64
  %212 = llvm.getelementptr %205[%211] : (!llvm.ptr<f32>, i64) -> !llvm.ptr<f32>
  llvm.store %204, %212 : !llvm.ptr<f32>
  %213 = llvm.extractvalue %1[1] : !llvm.struct<(ptr<f32>, ptr<f32>, i64, array<3 x i64>, array<3 x i64>)>
  %214 = llvm.mlir.constant(32 : index) : i64
  %215 = llvm.mul %8, %214  : i64
  %216 = llvm.mlir.constant(4 : index) : i64
  %217 = llvm.mul %194, %216  : i64
  %218 = llvm.add %215, %217  : i64
  %219 = llvm.add %218, %10  : i64
  %220 = llvm.getelementptr %213[%219] : (!llvm.ptr<f32>, i64) -> !llvm.ptr<f32>
  %221 = llvm.load %220 : !llvm.ptr<f32>
  %222 = llvm.extractvalue %192[1] : !llvm.struct<(ptr<f32>, ptr<f32>, i64, array<3 x i64>, array<3 x i64>)>
  %223 = llvm.mlir.constant(32 : index) : i64
  %224 = llvm.mul %8, %223  : i64
  %225 = llvm.mlir.constant(4 : index) : i64
  %226 = llvm.mul %194, %225  : i64
  %227 = llvm.add %224, %226  : i64
  %228 = llvm.add %227, %10  : i64
  %229 = llvm.getelementptr %222[%228] : (!llvm.ptr<f32>, i64) -> !llvm.ptr<f32>
  llvm.store %221, %229 : !llvm.ptr<f32>
  %230 = llvm.extractvalue %1[1] : !llvm.struct<(ptr<f32>, ptr<f32>, i64, array<3 x i64>, array<3 x i64>)>
  %231 = llvm.mlir.constant(32 : index) : i64
  %232 = llvm.mul %8, %231  : i64
  %233 = llvm.mlir.constant(4 : index) : i64
  %234 = llvm.mul %194, %233  : i64
  %235 = llvm.add %232, %234  : i64
  %236 = llvm.add %235, %3  : i64
  %237 = llvm.getelementptr %230[%236] : (!llvm.ptr<f32>, i64) -> !llvm.ptr<f32>
  %238 = llvm.load %237 : !llvm.ptr<f32>
  %239 = llvm.extractvalue %192[1] : !llvm.struct<(ptr<f32>, ptr<f32>, i64, array<3 x i64>, array<3 x i64>)>
  %240 = llvm.mlir.constant(32 : index) : i64
  %241 = llvm.mul %8, %240  : i64
  %242 = llvm.mlir.constant(4 : index) : i64
  %243 = llvm.mul %194, %242  : i64
  %244 = llvm.add %241, %243  : i64
  %245 = llvm.add %244, %3  : i64
  %246 = llvm.getelementptr %239[%245] : (!llvm.ptr<f32>, i64) -> !llvm.ptr<f32>
  llvm.store %238, %246 : !llvm.ptr<f32>
  %247 = llvm.extractvalue %1[1] : !llvm.struct<(ptr<f32>, ptr<f32>, i64, array<3 x i64>, array<3 x i64>)>
  %248 = llvm.mlir.constant(32 : index) : i64
  %249 = llvm.mul %8, %248  : i64
  %250 = llvm.mlir.constant(4 : index) : i64
  %251 = llvm.mul %194, %250  : i64
  %252 = llvm.add %249, %251  : i64
  %253 = llvm.add %252, %4  : i64
  %254 = llvm.getelementptr %247[%253] : (!llvm.ptr<f32>, i64) -> !llvm.ptr<f32>
  %255 = llvm.load %254 : !llvm.ptr<f32>
  %256 = llvm.extractvalue %192[1] : !llvm.struct<(ptr<f32>, ptr<f32>, i64, array<3 x i64>, array<3 x i64>)>
  %257 = llvm.mlir.constant(32 : index) : i64
  %258 = llvm.mul %8, %257  : i64
  %259 = llvm.mlir.constant(4 : index) : i64
  %260 = llvm.mul %194, %259  : i64
  %261 = llvm.add %258, %260  : i64
  %262 = llvm.add %261, %4  : i64
  %263 = llvm.getelementptr %256[%262] : (!llvm.ptr<f32>, i64) -> !llvm.ptr<f32>
  llvm.store %255, %263 : !llvm.ptr<f32>
  %264 = arith.addi %193, %c1 : index
  cf.br ^bb4(%264 : index)
^bb6:  // pred: ^bb4
  %265 = llvm.mlir.constant(1 : index) : i64
  %266 = llvm.mlir.constant(4 : index) : i64
  %267 = llvm.mlir.constant(4 : index) : i64
  %268 = llvm.mlir.constant(1 : index) : i64
  %269 = llvm.mlir.constant(16 : index) : i64
  %270 = llvm.mlir.constant(16 : index) : i64
  %271 = llvm.mlir.null : !llvm.ptr<f32>
  %272 = llvm.getelementptr %271[%270] : (!llvm.ptr<f32>, i64) -> !llvm.ptr<f32>
  %273 = llvm.ptrtoint %272 : !llvm.ptr<f32> to i64
  %274 = llvm.alloca %273 x f32 : (i64) -> !llvm.ptr<f32>
  %275 = llvm.mlir.undef : !llvm.struct<(ptr<f32>, ptr<f32>, i64, array<3 x i64>, array<3 x i64>)>
  %276 = llvm.insertvalue %274, %275[0] : !llvm.struct<(ptr<f32>, ptr<f32>, i64, array<3 x i64>, array<3 x i64>)>
  %277 = llvm.insertvalue %274, %276[1] : !llvm.struct<(ptr<f32>, ptr<f32>, i64, array<3 x i64>, array<3 x i64>)>
  %278 = llvm.mlir.constant(0 : index) : i64
  %279 = llvm.insertvalue %278, %277[2] : !llvm.struct<(ptr<f32>, ptr<f32>, i64, array<3 x i64>, array<3 x i64>)>
  %280 = llvm.insertvalue %265, %279[3, 0] : !llvm.struct<(ptr<f32>, ptr<f32>, i64, array<3 x i64>, array<3 x i64>)>
  %281 = llvm.insertvalue %266, %280[3, 1] : !llvm.struct<(ptr<f32>, ptr<f32>, i64, array<3 x i64>, array<3 x i64>)>
  %282 = llvm.insertvalue %267, %281[3, 2] : !llvm.struct<(ptr<f32>, ptr<f32>, i64, array<3 x i64>, array<3 x i64>)>
  %283 = llvm.insertvalue %269, %282[4, 0] : !llvm.struct<(ptr<f32>, ptr<f32>, i64, array<3 x i64>, array<3 x i64>)>
  %284 = llvm.insertvalue %267, %283[4, 1] : !llvm.struct<(ptr<f32>, ptr<f32>, i64, array<3 x i64>, array<3 x i64>)>
  %285 = llvm.insertvalue %268, %284[4, 2] : !llvm.struct<(ptr<f32>, ptr<f32>, i64, array<3 x i64>, array<3 x i64>)>
  cf.br ^bb7(%c0 : index)
^bb7(%286: index):  // 2 preds: ^bb6, ^bb8
  %287 = builtin.unrealized_conversion_cast %286 : index to i64
  %288 = arith.cmpi slt, %286, %c4 : index
  cf.cond_br %288, ^bb8, ^bb9(%c0 : index)
^bb8:  // pred: ^bb7
  %289 = llvm.extractvalue %0[1] : !llvm.struct<(ptr<f32>, ptr<f32>, i64, array<3 x i64>, array<3 x i64>)>
  %290 = llvm.mlir.constant(16 : index) : i64
  %291 = llvm.mul %8, %290  : i64
  %292 = llvm.mlir.constant(4 : index) : i64
  %293 = llvm.mul %287, %292  : i64
  %294 = llvm.add %291, %293  : i64
  %295 = llvm.add %294, %8  : i64
  %296 = llvm.getelementptr %289[%295] : (!llvm.ptr<f32>, i64) -> !llvm.ptr<f32>
  %297 = llvm.load %296 : !llvm.ptr<f32>
  %298 = llvm.extractvalue %285[1] : !llvm.struct<(ptr<f32>, ptr<f32>, i64, array<3 x i64>, array<3 x i64>)>
  %299 = llvm.mlir.constant(16 : index) : i64
  %300 = llvm.mul %8, %299  : i64
  %301 = llvm.mlir.constant(4 : index) : i64
  %302 = llvm.mul %287, %301  : i64
  %303 = llvm.add %300, %302  : i64
  %304 = llvm.add %303, %8  : i64
  %305 = llvm.getelementptr %298[%304] : (!llvm.ptr<f32>, i64) -> !llvm.ptr<f32>
  llvm.store %297, %305 : !llvm.ptr<f32>
  %306 = llvm.extractvalue %0[1] : !llvm.struct<(ptr<f32>, ptr<f32>, i64, array<3 x i64>, array<3 x i64>)>
  %307 = llvm.mlir.constant(16 : index) : i64
  %308 = llvm.mul %8, %307  : i64
  %309 = llvm.mlir.constant(4 : index) : i64
  %310 = llvm.mul %287, %309  : i64
  %311 = llvm.add %308, %310  : i64
  %312 = llvm.add %311, %10  : i64
  %313 = llvm.getelementptr %306[%312] : (!llvm.ptr<f32>, i64) -> !llvm.ptr<f32>
  %314 = llvm.load %313 : !llvm.ptr<f32>
  %315 = llvm.extractvalue %285[1] : !llvm.struct<(ptr<f32>, ptr<f32>, i64, array<3 x i64>, array<3 x i64>)>
  %316 = llvm.mlir.constant(16 : index) : i64
  %317 = llvm.mul %8, %316  : i64
  %318 = llvm.mlir.constant(4 : index) : i64
  %319 = llvm.mul %287, %318  : i64
  %320 = llvm.add %317, %319  : i64
  %321 = llvm.add %320, %10  : i64
  %322 = llvm.getelementptr %315[%321] : (!llvm.ptr<f32>, i64) -> !llvm.ptr<f32>
  llvm.store %314, %322 : !llvm.ptr<f32>
  %323 = llvm.extractvalue %0[1] : !llvm.struct<(ptr<f32>, ptr<f32>, i64, array<3 x i64>, array<3 x i64>)>
  %324 = llvm.mlir.constant(16 : index) : i64
  %325 = llvm.mul %8, %324  : i64
  %326 = llvm.mlir.constant(4 : index) : i64
  %327 = llvm.mul %287, %326  : i64
  %328 = llvm.add %325, %327  : i64
  %329 = llvm.add %328, %3  : i64
  %330 = llvm.getelementptr %323[%329] : (!llvm.ptr<f32>, i64) -> !llvm.ptr<f32>
  %331 = llvm.load %330 : !llvm.ptr<f32>
  %332 = llvm.extractvalue %285[1] : !llvm.struct<(ptr<f32>, ptr<f32>, i64, array<3 x i64>, array<3 x i64>)>
  %333 = llvm.mlir.constant(16 : index) : i64
  %334 = llvm.mul %8, %333  : i64
  %335 = llvm.mlir.constant(4 : index) : i64
  %336 = llvm.mul %287, %335  : i64
  %337 = llvm.add %334, %336  : i64
  %338 = llvm.add %337, %3  : i64
  %339 = llvm.getelementptr %332[%338] : (!llvm.ptr<f32>, i64) -> !llvm.ptr<f32>
  llvm.store %331, %339 : !llvm.ptr<f32>
  %340 = llvm.extractvalue %0[1] : !llvm.struct<(ptr<f32>, ptr<f32>, i64, array<3 x i64>, array<3 x i64>)>
  %341 = llvm.mlir.constant(16 : index) : i64
  %342 = llvm.mul %8, %341  : i64
  %343 = llvm.mlir.constant(4 : index) : i64
  %344 = llvm.mul %287, %343  : i64
  %345 = llvm.add %342, %344  : i64
  %346 = llvm.add %345, %4  : i64
  %347 = llvm.getelementptr %340[%346] : (!llvm.ptr<f32>, i64) -> !llvm.ptr<f32>
  %348 = llvm.load %347 : !llvm.ptr<f32>
  %349 = llvm.extractvalue %285[1] : !llvm.struct<(ptr<f32>, ptr<f32>, i64, array<3 x i64>, array<3 x i64>)>
  %350 = llvm.mlir.constant(16 : index) : i64
  %351 = llvm.mul %8, %350  : i64
  %352 = llvm.mlir.constant(4 : index) : i64
  %353 = llvm.mul %287, %352  : i64
  %354 = llvm.add %351, %353  : i64
  %355 = llvm.add %354, %4  : i64
  %356 = llvm.getelementptr %349[%355] : (!llvm.ptr<f32>, i64) -> !llvm.ptr<f32>
  llvm.store %348, %356 : !llvm.ptr<f32>
  %357 = arith.addi %286, %c1 : index
  cf.br ^bb7(%357 : index)
^bb9(%358: index):  // 2 preds: ^bb7, ^bb12
  %359 = builtin.unrealized_conversion_cast %358 : index to i64
  %360 = arith.cmpi slt, %358, %c4 : index
  cf.cond_br %360, ^bb10(%c0 : index), ^bb13(%c0 : index)
^bb10(%361: index):  // 2 preds: ^bb9, ^bb11
  %362 = builtin.unrealized_conversion_cast %361 : index to i64
  %363 = arith.cmpi slt, %361, %c4 : index
  cf.cond_br %363, ^bb11, ^bb12
^bb11:  // pred: ^bb10
  %364 = llvm.extractvalue %31[1] : !llvm.struct<(ptr<f32>, ptr<f32>, i64, array<3 x i64>, array<3 x i64>)>
  %365 = llvm.mlir.constant(32 : index) : i64
  %366 = llvm.mul %8, %365  : i64
  %367 = llvm.mlir.constant(8 : index) : i64
  %368 = llvm.mul %359, %367  : i64
  %369 = llvm.add %366, %368  : i64
  %370 = llvm.add %369, %8  : i64
  %371 = llvm.getelementptr %364[%370] : (!llvm.ptr<f32>, i64) -> !llvm.ptr<f32>
  %372 = llvm.load %371 : !llvm.ptr<f32>
  %373 = llvm.extractvalue %192[1] : !llvm.struct<(ptr<f32>, ptr<f32>, i64, array<3 x i64>, array<3 x i64>)>
  %374 = llvm.mlir.constant(32 : index) : i64
  %375 = llvm.mul %8, %374  : i64
  %376 = llvm.mlir.constant(4 : index) : i64
  %377 = llvm.mul %8, %376  : i64
  %378 = llvm.add %375, %377  : i64
  %379 = llvm.add %378, %362  : i64
  %380 = llvm.getelementptr %373[%379] : (!llvm.ptr<f32>, i64) -> !llvm.ptr<f32>
  %381 = llvm.load %380 : !llvm.ptr<f32>
  %382 = llvm.extractvalue %285[1] : !llvm.struct<(ptr<f32>, ptr<f32>, i64, array<3 x i64>, array<3 x i64>)>
  %383 = llvm.mlir.constant(16 : index) : i64
  %384 = llvm.mul %8, %383  : i64
  %385 = llvm.mlir.constant(4 : index) : i64
  %386 = llvm.mul %359, %385  : i64
  %387 = llvm.add %384, %386  : i64
  %388 = llvm.add %387, %362  : i64
  %389 = llvm.getelementptr %382[%388] : (!llvm.ptr<f32>, i64) -> !llvm.ptr<f32>
  %390 = llvm.load %389 : !llvm.ptr<f32>
  %391 = arith.mulf %372, %381 : f32
  %392 = arith.addf %390, %391 : f32
  %393 = llvm.extractvalue %31[1] : !llvm.struct<(ptr<f32>, ptr<f32>, i64, array<3 x i64>, array<3 x i64>)>
  %394 = llvm.mlir.constant(32 : index) : i64
  %395 = llvm.mul %8, %394  : i64
  %396 = llvm.mlir.constant(8 : index) : i64
  %397 = llvm.mul %359, %396  : i64
  %398 = llvm.add %395, %397  : i64
  %399 = llvm.add %398, %10  : i64
…
    %159 = llvm.mul %81, %158  : i64
    %160 = llvm.add %157, %159  : i64
    %161 = llvm.add %160, %58  : i64
    %162 = llvm.getelementptr %69[%161] : (!llvm.ptr<f32>, i64) -> !llvm.ptr<f32>
    llvm.store %155, %162 : !llvm.ptr<f32>
    %163 = llvm.extractvalue %16[1] : !llvm.struct<(ptr<f32>, ptr<f32>, i64, array<3 x i64>, array<3 x i64>)>
    %164 = llvm.mlir.constant(32 : index) : i64
    %165 = llvm.mul %57, %164  : i64
    %166 = llvm.mlir.constant(8 : index) : i64
    %167 = llvm.mul %81, %166  : i64
    %168 = llvm.add %165, %167  : i64
    %169 = llvm.add %168, %53  : i64
    %170 = llvm.getelementptr %163[%169] : (!llvm.ptr<f32>, i64) -> !llvm.ptr<f32>
    %171 = llvm.load %170 : !llvm.ptr<f32>
    %172 = llvm.mlir.constant(32 : index) : i64
    %173 = llvm.mul %57, %172  : i64
    %174 = llvm.mlir.constant(8 : index) : i64
    %175 = llvm.mul %81, %174  : i64
    %176 = llvm.add %173, %175  : i64
    %177 = llvm.add %176, %53  : i64
    %178 = llvm.getelementptr %69[%177] : (!llvm.ptr<f32>, i64) -> !llvm.ptr<f32>
    llvm.store %171, %178 : !llvm.ptr<f32>
    %179 = llvm.extractvalue %16[1] : !llvm.struct<(ptr<f32>, ptr<f32>, i64, array<3 x i64>, array<3 x i64>)>
    %180 = llvm.mlir.constant(32 : index) : i64
    %181 = llvm.mul %57, %180  : i64
    %182 = llvm.mlir.constant(8 : index) : i64
    %183 = llvm.mul %81, %182  : i64
    %184 = llvm.add %181, %183  : i64
    %185 = llvm.add %184, %54  : i64
    %186 = llvm.getelementptr %179[%185] : (!llvm.ptr<f32>, i64) -> !llvm.ptr<f32>
    %187 = llvm.load %186 : !llvm.ptr<f32>
    %188 = llvm.mlir.constant(32 : index) : i64
    %189 = llvm.mul %57, %188  : i64
    %190 = llvm.mlir.constant(8 : index) : i64
    %191 = llvm.mul %81, %190  : i64
    %192 = llvm.add %189, %191  : i64
    %193 = llvm.add %192, %54  : i64
    %194 = llvm.getelementptr %69[%193] : (!llvm.ptr<f32>, i64) -> !llvm.ptr<f32>
    llvm.store %187, %194 : !llvm.ptr<f32>
    %195 = llvm.extractvalue %16[1] : !llvm.struct<(ptr<f32>, ptr<f32>, i64, array<3 x i64>, array<3 x i64>)>
    %196 = llvm.mlir.constant(32 : index) : i64
    %197 = llvm.mul %57, %196  : i64
    %198 = llvm.mlir.constant(8 : index) : i64
    %199 = llvm.mul %81, %198  : i64
    %200 = llvm.add %197, %199  : i64
    %201 = llvm.add %200, %55  : i64
    %202 = llvm.getelementptr %195[%201] : (!llvm.ptr<f32>, i64) -> !llvm.ptr<f32>
    %203 = llvm.load %202 : !llvm.ptr<f32>
    %204 = llvm.mlir.constant(32 : index) : i64
    %205 = llvm.mul %57, %204  : i64
    %206 = llvm.mlir.constant(8 : index) : i64
    %207 = llvm.mul %81, %206  : i64
    %208 = llvm.add %205, %207  : i64
    %209 = llvm.add %208, %55  : i64
    %210 = llvm.getelementptr %69[%209] : (!llvm.ptr<f32>, i64) -> !llvm.ptr<f32>
    llvm.store %203, %210 : !llvm.ptr<f32>
    %211 = llvm.add %81, %59  : i64
    llvm.br ^bb1(%211 : i64)
  ^bb3:  // pred: ^bb1
    %212 = llvm.mlir.constant(1 : index) : i64
    %213 = llvm.mlir.constant(8 : index) : i64
    %214 = llvm.mlir.constant(4 : index) : i64
    %215 = llvm.mlir.constant(1 : index) : i64
    %216 = llvm.mlir.constant(32 : index) : i64
    %217 = llvm.mlir.constant(32 : index) : i64
    %218 = llvm.mlir.null : !llvm.ptr<f32>
    %219 = llvm.getelementptr %218[%217] : (!llvm.ptr<f32>, i64) -> !llvm.ptr<f32>
    %220 = llvm.ptrtoint %219 : !llvm.ptr<f32> to i64
    %221 = llvm.alloca %220 x f32 : (i64) -> !llvm.ptr<f32>
    %222 = llvm.mlir.undef : !llvm.struct<(ptr<f32>, ptr<f32>, i64, array<3 x i64>, array<3 x i64>)>
    %223 = llvm.insertvalue %221, %222[0] : !llvm.struct<(ptr<f32>, ptr<f32>, i64, array<3 x i64>, array<3 x i64>)>
    %224 = llvm.insertvalue %221, %223[1] : !llvm.struct<(ptr<f32>, ptr<f32>, i64, array<3 x i64>, array<3 x i64>)>
    %225 = llvm.mlir.constant(0 : index) : i64
    %226 = llvm.insertvalue %225, %224[2] : !llvm.struct<(ptr<f32>, ptr<f32>, i64, array<3 x i64>, array<3 x i64>)>
    %227 = llvm.insertvalue %212, %226[3, 0] : !llvm.struct<(ptr<f32>, ptr<f32>, i64, array<3 x i64>, array<3 x i64>)>
    %228 = llvm.insertvalue %213, %227[3, 1] : !llvm.struct<(ptr<f32>, ptr<f32>, i64, array<3 x i64>, array<3 x i64>)>
    %229 = llvm.insertvalue %214, %228[3, 2] : !llvm.struct<(ptr<f32>, ptr<f32>, i64, array<3 x i64>, array<3 x i64>)>
    %230 = llvm.insertvalue %216, %229[4, 0] : !llvm.struct<(ptr<f32>, ptr<f32>, i64, array<3 x i64>, array<3 x i64>)>
    %231 = llvm.insertvalue %214, %230[4, 1] : !llvm.struct<(ptr<f32>, ptr<f32>, i64, array<3 x i64>, array<3 x i64>)>
    %232 = llvm.insertvalue %215, %231[4, 2] : !llvm.struct<(ptr<f32>, ptr<f32>, i64, array<3 x i64>, array<3 x i64>)>
    llvm.br ^bb4(%57 : i64)
  ^bb4(%233: i64):  // 2 preds: ^bb3, ^bb5
    %234 = llvm.icmp "slt" %233, %56 : i64
    llvm.cond_br %234, ^bb5, ^bb6
  ^bb5:  // pred: ^bb4
    %235 = llvm.extractvalue %33[1] : !llvm.struct<(ptr<f32>, ptr<f32>, i64, array<3 x i64>, array<3 x i64>)>
    %236 = llvm.mlir.constant(32 : index) : i64
    %237 = llvm.mul %57, %236  : i64
    %238 = llvm.mlir.constant(4 : index) : i64
    %239 = llvm.mul %233, %238  : i64
    %240 = llvm.add %237, %239  : i64
    %241 = llvm.add %240, %57  : i64
    %242 = llvm.getelementptr %235[%241] : (!llvm.ptr<f32>, i64) -> !llvm.ptr<f32>
    %243 = llvm.load %242 : !llvm.ptr<f32>
    %244 = llvm.mlir.constant(32 : index) : i64
    %245 = llvm.mul %57, %244  : i64
    %246 = llvm.mlir.constant(4 : index) : i64
    %247 = llvm.mul %233, %246  : i64
    %248 = llvm.add %245, %247  : i64
    %249 = llvm.add %248, %57  : i64
    %250 = llvm.getelementptr %221[%249] : (!llvm.ptr<f32>, i64) -> !llvm.ptr<f32>
    llvm.store %243, %250 : !llvm.ptr<f32>
    %251 = llvm.extractvalue %33[1] : !llvm.struct<(ptr<f32>, ptr<f32>, i64, array<3 x i64>, array<3 x i64>)>
    %252 = llvm.mlir.constant(32 : index) : i64
    %253 = llvm.mul %57, %252  : i64
    %254 = llvm.mlir.constant(4 : index) : i64
    %255 = llvm.mul %233, %254  : i64
    %256 = llvm.add %253, %255  : i64
    %257 = llvm.add %256, %59  : i64
    %258 = llvm.getelementptr %251[%257] : (!llvm.ptr<f32>, i64) -> !llvm.ptr<f32>
    %259 = llvm.load %258 : !llvm.ptr<f32>
    %260 = llvm.mlir.constant(32 : index) : i64
    %261 = llvm.mul %57, %260  : i64
    %262 = llvm.mlir.constant(4 : index) : i64
    %263 = llvm.mul %233, %262  : i64
    %264 = llvm.add %261, %263  : i64
    %265 = llvm.add %264, %59  : i64
    %266 = llvm.getelementptr %221[%265] : (!llvm.ptr<f32>, i64) -> !llvm.ptr<f32>
    llvm.store %259, %266 : !llvm.ptr<f32>
    %267 = llvm.extractvalue %33[1] : !llvm.struct<(ptr<f32>, ptr<f32>, i64, array<3 x i64>, array<3 x i64>)>
    %268 = llvm.mlir.constant(32 : index) : i64
    %269 = llvm.mul %57, %268  : i64
    %270 = llvm.mlir.constant(4 : index) : i64
    %271 = llvm.mul %233, %270  : i64
    %272 = llvm.add %269, %271  : i64
    %273 = llvm.add %272, %51  : i64
    %274 = llvm.getelementptr %267[%273] : (!llvm.ptr<f32>, i64) -> !llvm.ptr<f32>
    %275 = llvm.load %274 : !llvm.ptr<f32>
    %276 = llvm.mlir.constant(32 : index) : i64
    %277 = llvm.mul %57, %276  : i64
    %278 = llvm.mlir.constant(4 : index) : i64
    %279 = llvm.mul %233, %278  : i64
    %280 = llvm.add %277, %279  : i64
    %281 = llvm.add %280, %51  : i64
    %282 = llvm.getelementptr %221[%281] : (!llvm.ptr<f32>, i64) -> !llvm.ptr<f32>
    llvm.store %275, %282 : !llvm.ptr<f32>
    %283 = llvm.extractvalue %33[1] : !llvm.struct<(ptr<f32>, ptr<f32>, i64, array<3 x i64>, array<3 x i64>)>
    %284 = llvm.mlir.constant(32 : index) : i64
    %285 = llvm.mul %57, %284  : i64
    %286 = llvm.mlir.constant(4 : index) : i64
    %287 = llvm.mul %233, %286  : i64
    %288 = llvm.add %285, %287  : i64
    %289 = llvm.add %288, %52  : i64
    %290 = llvm.getelementptr %283[%289] : (!llvm.ptr<f32>, i64) -> !llvm.ptr<f32>
    %291 = llvm.load %290 : !llvm.ptr<f32>
    %292 = llvm.mlir.constant(32 : index) : i64
    %293 = llvm.mul %57, %292  : i64
    %294 = llvm.mlir.constant(4 : index) : i64
    %295 = llvm.mul %233, %294  : i64
    %296 = llvm.add %293, %295  : i64
    %297 = llvm.add %296, %52  : i64
    %298 = llvm.getelementptr %221[%297] : (!llvm.ptr<f32>, i64) -> !llvm.ptr<f32>
    llvm.store %291, %298 : !llvm.ptr<f32>
    %299 = llvm.add %233, %59  : i64
    llvm.br ^bb4(%299 : i64)
  ^bb6:  // pred: ^bb4
    %300 = llvm.mlir.constant(1 : index) : i64
    %301 = llvm.mlir.constant(4 : index) : i64
    %302 = llvm.mlir.constant(4 : index) : i64
    %303 = llvm.mlir.constant(1 : index) : i64
    %304 = llvm.mlir.constant(16 : index) : i64
    %305 = llvm.mlir.constant(16 : index) : i64
    %306 = llvm.mlir.null : !llvm.ptr<f32>
    %307 = llvm.getelementptr %306[%305] : (!llvm.ptr<f32>, i64) -> !llvm.ptr<f32>
    %308 = llvm.ptrtoint %307 : !llvm.ptr<f32> to i64
    %309 = llvm.alloca %308 x f32 : (i64) -> !llvm.ptr<f32>
    %310 = llvm.mlir.undef : !llvm.struct<(ptr<f32>, ptr<f32>, i64, array<3 x i64>, array<3 x i64>)>
    %311 = llvm.insertvalue %309, %310[0] : !llvm.struct<(ptr<f32>, ptr<f32>, i64, array<3 x i64>, array<3 x i64>)>
    %312 = llvm.insertvalue %309, %311[1] : !llvm.struct<(ptr<f32>, ptr<f32>, i64, array<3 x i64>, array<3 x i64>)>
    %313 = llvm.mlir.constant(0 : index) : i64
    %314 = llvm.insertvalue %313, %312[2] : !llvm.struct<(ptr<f32>, ptr<f32>, i64, array<3 x i64>, array<3 x i64>)>
    %315 = llvm.insertvalue %300, %314[3, 0] : !llvm.struct<(ptr<f32>, ptr<f32>, i64, array<3 x i64>, array<3 x i64>)>
    %316 = llvm.insertvalue %301, %315[3, 1] : !llvm.struct<(ptr<f32>, ptr<f32>, i64, array<3 x i64>, array<3 x i64>)>
    %317 = llvm.insertvalue %302, %316[3, 2] : !llvm.struct<(ptr<f32>, ptr<f32>, i64, array<3 x i64>, array<3 x i64>)>
    %318 = llvm.insertvalue %304, %317[4, 0] : !llvm.struct<(ptr<f32>, ptr<f32>, i64, array<3 x i64>, array<3 x i64>)>
    %319 = llvm.insertvalue %302, %318[4, 1] : !llvm.struct<(ptr<f32>, ptr<f32>, i64, array<3 x i64>, array<3 x i64>)>
    %320 = llvm.insertvalue %303, %319[4, 2] : !llvm.struct<(ptr<f32>, ptr<f32>, i64, array<3 x i64>, array<3 x i64>)>
    llvm.br ^bb7(%57 : i64)
  ^bb7(%321: i64):  // 2 preds: ^bb6, ^bb8
    %322 = llvm.icmp "slt" %321, %58 : i64
    llvm.cond_br %322, ^bb8, ^bb9(%57 : i64)
  ^bb8:  // pred: ^bb7
    %323 = llvm.extractvalue %50[1] : !llvm.struct<(ptr<f32>, ptr<f32>, i64, array<3 x i64>, array<3 x i64>)>
    %324 = llvm.mlir.constant(16 : index) : i64
    %325 = llvm.mul %57, %324  : i64
    %326 = llvm.mlir.constant(4 : index) : i64
    %327 = llvm.mul %321, %326  : i64
    %328 = llvm.add %325, %327  : i64
    %329 = llvm.add %328, %57  : i64
    %330 = llvm.getelementptr %323[%329] : (!llvm.ptr<f32>, i64) -> !llvm.ptr<f32>
    %331 = llvm.load %330 : !llvm.ptr<f32>
    %332 = llvm.mlir.constant(16 : index) : i64
    %333 = llvm.mul %57, %332  : i64
    %334 = llvm.mlir.constant(4 : index) : i64
    %335 = llvm.mul %321, %334  : i64
    %336 = llvm.add %333, %335  : i64
    %337 = llvm.add %336, %57  : i64
    %338 = llvm.getelementptr %309[%337] : (!llvm.ptr<f32>, i64) -> !llvm.ptr<f32>
    llvm.store %331, %338 : !llvm.ptr<f32>
    %339 = llvm.extractvalue %50[1] : !llvm.struct<(ptr<f32>, ptr<f32>, i64, array<3 x i64>, array<3 x i64>)>
    %340 = llvm.mlir.constant(16 : index) : i64
    %341 = llvm.mul %57, %340  : i64
    %342 = llvm.mlir.constant(4 : index) : i64
    %343 = llvm.mul %321, %342  : i64
    %344 = llvm.add %341, %343  : i64
    %345 = llvm.add %344, %59  : i64
    %346 = llvm.getelementptr %339[%345] : (!llvm.ptr<f32>, i64) -> !llvm.ptr<f32>
    %347 = llvm.load %346 : !llvm.ptr<f32>
    %348 = llvm.mlir.constant(16 : index) : i64
    %349 = llvm.mul %57, %348  : i64
    %350 = llvm.mlir.constant(4 : index) : i64
    %351 = llvm.mul %321, %350  : i64
    %352 = llvm.add %349, %351  : i64
    %353 = llvm.add %352, %59  : i64
    %354 = llvm.getelementptr %309[%353] : (!llvm.ptr<f32>, i64) -> !llvm.ptr<f32>
    llvm.store %347, %354 : !llvm.ptr<f32>
    %355 = llvm.extractvalue %50[1] : !llvm.struct<(ptr<f32>, ptr<f32>, i64, array<3 x i64>, array<3 x i64>)>
    %356 = llvm.mlir.constant(16 : index) : i64
    %357 = llvm.mul %57, %356  : i64
    %358 = llvm.mlir.constant(4 : index) : i64
    %359 = llvm.mul %321, %358  : i64
    %360 = llvm.add %357, %359  : i64
    %361 = llvm.add %360, %51  : i64
    %362 = llvm.getelementptr %355[%361] : (!llvm.ptr<f32>, i64) -> !llvm.ptr<f32>
    %363 = llvm.load %362 : !llvm.ptr<f32>
    %364 = llvm.mlir.constant(16 : index) : i64
    %365 = llvm.mul %57, %364  : i64
    %366 = llvm.mlir.constant(4 : index) : i64
    %367 = llvm.mul %321, %366  : i64
    %368 = llvm.add %365, %367  : i64
    %369 = llvm.add %368, %51  : i64
    %370 = llvm.getelementptr %309[%369] : (!llvm.ptr<f32>, i64) -> !llvm.ptr<f32>
    llvm.store %363, %370 : !llvm.ptr<f32>
    %371 = llvm.extractvalue %50[1] : !llvm.struct<(ptr<f32>, ptr<f32>, i64, array<3 x i64>, array<3 x i64>)>
    %372 = llvm.mlir.constant(16 : index) : i64
    %373 = llvm.mul %57, %372  : i64
    %374 = llvm.mlir.constant(4 : index) : i64
    %375 = llvm.mul %321, %374  : i64
    %376 = llvm.add %373, %375  : i64
    %377 = llvm.add %376, %52  : i64
    %378 = llvm.getelementptr %371[%377] : (!llvm.ptr<f32>, i64) -> !llvm.ptr<f32>
    %379 = llvm.load %378 : !llvm.ptr<f32>
    %380 = llvm.mlir.constant(16 : index) : i64
    %381 = llvm.mul %57, %380  : i64
    %382 = llvm.mlir.constant(4 : index) : i64
    %383 = llvm.mul %321, %382  : i64
    %384 = llvm.add %381, %383  : i64
    %385 = llvm.add %384, %52  : i64
    %386 = llvm.getelementptr %309[%385] : (!llvm.ptr<f32>, i64) -> !llvm.ptr<f32>
    llvm.store %379, %386 : !llvm.ptr<f32>
    %387 = llvm.add %321, %59  : i64
    llvm.br ^bb7(%387 : i64)
  ^bb9(%388: i64):  // 2 preds: ^bb7, ^bb12
    %389 = llvm.icmp "slt" %388, %58 : i64
    llvm.cond_br %389, ^bb10(%57 : i64), ^bb13(%57 : i64)
  ^bb10(%390: i64):  // 2 preds: ^bb9, ^bb11
    %391 = llvm.icmp "slt" %390, %58 : i64
    llvm.cond_br %391, ^bb11, ^bb12
  ^bb11:  // pred: ^bb10
    %392 = llvm.mlir.constant(32 : index) : i64
    %393 = llvm.mul %57, %392  : i64
    %394 = llvm.mlir.constant(8 : index) : i64
    %395 = llvm.mul %388, %394  : i64
    %396 = llvm.add %393, %395  : i64
    %397 = llvm.add %396, %57  : i64
    %398 = llvm.getelementptr %69[%397] : (!llvm.ptr<f32>, i64) -> !llvm.ptr<f32>
    %399 = llvm.load %398 : !llvm.ptr<f32>
    %400 = llvm.mlir.constant(32 : index) : i64
    %401 = llvm.mul %57, %400  : i64
    %402 = llvm.mlir.constant(4 : index) : i64
    %403 = llvm.mul %57, %402  : i64
    %404 = llvm.add %401, %403  : i64
    %405 = llvm.add %404, %390  : i64
    %406 = llvm.getelementptr %221[%405] : (!llvm.ptr<f32>, i64) -> !llvm.ptr<f32>
    %407 = llvm.load %406 : !llvm.ptr<f32>
    %408 = llvm.mlir.constant(16 : index) : i64
    %409 = llvm.mul %57, %408  : i64
    %410 = llvm.mlir.constant(4 : index) : i64
    %411 = llvm.mul %388, %410  : i64
    %412 = llvm.add %409, %411  : i64
    %413 = llvm.add %412, %390  : i64
    %414 = llvm.getelementptr %309[%413] : (!llvm.ptr<f32>, i64) -> !llvm.ptr<f32>
    %415 = llvm.load %414 : !llvm.ptr<f32>
    %416 = llvm.fmul %399, %407  : f32
    %417 = llvm.fadd %415, %416  : f32
    %418 = llvm.mlir.constant(32 : index) : i64
    %419 = llvm.mul %57, %418  : i64
    %420 = llvm.mlir.constant(8 : index) : i64
    %421 = llvm.mul %388, %420  : i64
    %422 = llvm.add %419, %421  : i64
    %423 = llvm.add %422, %59  : i64
    %424 = llvm.getelementptr %69[%423] : (!llvm.ptr<f32>, i64) -> !llvm.ptr<f32>
    %425 = llvm.load %424 : !llvm.ptr<f32>
    %426 = llvm.mlir.constant(32 : index) : i64
    %427 = llvm.mul %57, %426  : i64
    %428 = llvm.mlir.constant(4 : index) : i64
    %429 = llvm.mul %59, %428  : i64
    %430 = llvm.add %427, %429  : i64
    %431 = llvm.add %430, %390  : i64
    %432 = llvm.getelementptr %221[%431] : (!llvm.ptr<f32>, i64) -> !llvm.ptr<f32>
    %433 = llvm.load %432 : !llvm.ptr<f32>
    %434 = llvm.fmul %425, %433  : f32
    %435 = llvm.fadd %417, %434  : f32
    %436 = llvm.mlir.constant(32 : index) : i64
    %437 = llvm.mul %57, %436  : i64
    %438 = llvm.mlir.constant(8 : index) : i64
    %439 = llvm.mul %388, %438  : i64
    %440 = llvm.add %437, %439  : i64
    %441 = llvm.add %440, %51  : i64
    %442 = llvm.getelementptr %69[%441] : (!llvm.ptr<f32>, i64) -> !llvm.ptr<f32>
    %443 = llvm.load %442 : !llvm.ptr<f32>
    %444 = llvm.mlir.constant(32 : index) : i64
    %445 = llvm.mul %57, %444  : i64
    %446 = llvm.mlir.constant(4 : index) : i64
    %447 = llvm.mul %51, %446  : i64
    %448 = llvm.add %445, %447  : i64
    %449 = llvm.add %448, %390  : i64
    %450 = llvm.getelementptr %221[%449] : (!llvm.ptr<f32>, i64) -> !llvm.ptr<f32>
    %451 = llvm.load %450 : !llvm.ptr<f32>
    %452 = llvm.fmul %443, %451  : f32
    %453 = llvm.fadd %435, %452  : f32
    %454 = llvm.mlir.constant(32 : index) : i64
    %455 = llvm.mul %57, %454  : i64
    %456 = llvm.mlir.constant(8 : index) : i64
    %457 = llvm.mul %388, %456  : i64
    %458 = llvm.add %455, %457  : i64
    %459 = llvm.add %458, %52  : i64
    %460 = llvm.getelementptr %69[%459] : (!llvm.ptr<f32>, i64) -> !llvm.ptr<f32>
    %461 = llvm.load %460 : !llvm.ptr<f32>
    %462 = llvm.mlir.constant(32 : index) : i64
    %463 = llvm.mul %57, %462  : i64
    %464 = llvm.mlir.constant(4 : index) : i64
    %465 = llvm.mul %52, %464  : i64
    %466 = llvm.add %463, %465  : i64
    %467 = llvm.add %466, %390  : i64
    %468 = llvm.getelementptr %221[%467] : (!llvm.ptr<f32>, i64) -> !llvm.ptr<f32>
    %469 = llvm.load %468 : !llvm.ptr<f32>
    %470 = llvm.fmul %461, %469  : f32
    %471 = llvm.fadd %453, %470  : f32
    %472 = llvm.mlir.constant(32 : index) : i64
    %473 = llvm.mul %57, %472  : i64
    %474 = llvm.mlir.constant(8 : index) : i64
    %475 = llvm.mul %388, %474  : i64
    %476 = llvm.add %473, %475  : i64
    %477 = llvm.add %476, %58  : i64
    %478 = llvm.getelementptr %69[%477] : (!llvm.ptr<f32>, i64) -> !llvm.ptr<f32>
    %479 = llvm.load %478 : !llvm.ptr<f32>
    %480 = llvm.mlir.constant(32 : index) : i64
    %481 = llvm.mul %57, %480  : i64
    %482 = llvm.mlir.constant(4 : index) : i64
    %483 = llvm.mul %58, %482  : i64
    %484 = llvm.add %481, %483  : i64
    %485 = llvm.add %484, %390  : i64
    %486 = llvm.getelementptr %221[%485] : (!llvm.ptr<f32>, i64) -> !llvm.ptr<f32>
    %487 = llvm.load %486 : !llvm.ptr<f32>
    %488 = llvm.fmul %479, %487  : f32
    %489 = llvm.fadd %471, %488  : f32
    %490 = llvm.mlir.constant(32 : index) : i64
    %491 = llvm.mul %57, %490  : i64
    %492 = llvm.mlir.constant(8 : index) : i64
    %493 = llvm.mul %388, %492  : i64
    %494 = llvm.add %491, %493  : i64
    %495 = llvm.add %494, %53  : i64
    %496 = llvm.getelementptr %69[%495] : (!llvm.ptr<f32>, i64) -> !llvm.ptr<f32>
    %497 = llvm.load %496 : !llvm.ptr<f32>
    %498 = llvm.mlir.constant(32 : index) : i64
    %499 = llvm.mul %57, %498  : i64
    %500 = llvm.mlir.constant(4 : index) : i64
    %501 = llvm.mul %53, %500  : i64
    %502 = llvm.add %499, %501  : i64
    %503 = llvm.add %502, %390  : i64
    %504 = llvm.getelementptr %221[%503] : (!llvm.ptr<f32>, i64) -> !llvm.ptr<f32>
    %505 = llvm.load %504 : !llvm.ptr<f32>
    %506 = llvm.fmul %497, %505  : f32
    %507 = llvm.fadd %489, %506  : f32
    %508 = llvm.mlir.constant(32 : index) : i64
    %509 = llvm.mul %57, %508  : i64
    %510 = llvm.mlir.constant(8 : index) : i64
    %511 = llvm.mul %388, %510  : i64
    %512 = llvm.add %509, %511  : i64
    %513 = llvm.add %512, %54  : i64
    %514 = llvm.getelementptr %69[%513] : (!llvm.ptr<f32>, i64) -> !llvm.ptr<f32>
    %515 = llvm.load %514 : !llvm.ptr<f32>
    %516 = llvm.mlir.constant(32 : index) : i64
    %517 = llvm.mul %57, %516  : i64
    %518 = llvm.mlir.constant(4 : index) : i64
    %519 = llvm.mul %54, %518  : i64
    %520 = llvm.add %517, %519  : i64
    %521 = llvm.add %520, %390  : i64
    %522 = llvm.getelementptr %221[%521] : (!llvm.ptr<f32>, i64) -> !llvm.ptr<f32>
    %523 = llvm.load %522 : !llvm.ptr<f32>
    %524 = llvm.fmul %515, %523  : f32
    %525 = llvm.fadd %507, %524  : f32
    %526 = llvm.mlir.constant(32 : index) : i64
    %527 = llvm.mul %57, %526  : i64
    %528 = llvm.mlir.constant(8 : index) : i64
    %529 = llvm.mul %388, %528  : i64
    %530 = llvm.add %527, %529  : i64
    %531 = llvm.add %530, %55  : i64
    %532 = llvm.getelementptr %69[%531] : (!llvm.ptr<f32>, i64) -> !llvm.ptr<f32>
    %533 = llvm.load %532 : !llvm.ptr<f32>
    %534 = llvm.mlir.constant(32 : index) : i64
    %535 = llvm.mul %57, %534  : i64
    %536 = llvm.mlir.constant(4 : index) : i64
    %537 = llvm.mul %55, %536  : i64
    %538 = llvm.add %535, %537  : i64
    %539 = llvm.add %538, %390  : i64
    %540 = llvm.getelementptr %221[%539] : (!llvm.ptr<f32>, i64) -> !llvm.ptr<f32>
    %541 = llvm.load %540 : !llvm.ptr<f32>
    %542 = llvm.fmul %533, %541  : f32
    %543 = llvm.fadd %525, %542  : f32
    %544 = llvm.mlir.constant(16 : index) : i64
    %545 = llvm.mul %57, %544  : i64
    %546 = llvm.mlir.constant(4 : index) : i64
    %547 = llvm.mul %388, %546  : i64
    %548 = llvm.add %545, %547  : i64
    %549 = llvm.add %548, %390  : i64
    %550 = llvm.getelementptr %309[%549] : (!llvm.ptr<f32>, i64) -> !llvm.ptr<f32>
    llvm.store %543, %550 : !llvm.ptr<f32>
    %551 = llvm.add %390, %59  : i64
    llvm.br ^bb10(%551 : i64)
  ^bb12:  // pred: ^bb10
    %552 = llvm.add %388, %59  : i64
    llvm.br ^bb9(%552 : i64)
  ^bb13(%553: i64):  // 2 preds: ^bb9, ^bb14
    %554 = llvm.icmp "slt" %553, %58 : i64
    llvm.cond_br %554, ^bb14, ^bb15
  ^bb14:  // pred: ^bb13
    %555 = llvm.mlir.constant(16 : index) : i64
    %556 = llvm.mul %57, %555  : i64
    %557 = llvm.mlir.constant(4 : index) : i64
    %558 = llvm.mul %553, %557  : i64
    %559 = llvm.add %556, %558  : i64
    %560 = llvm.add %559, %57  : i64
    %561 = llvm.getelementptr %309[%560] : (!llvm.ptr<f32>, i64) -> !llvm.ptr<f32>
    %562 = llvm.load %561 : !llvm.ptr<f32>
    %563 = llvm.extractvalue %50[1] : !llvm.struct<(ptr<f32>, ptr<f32>, i64, array<3 x i64>, array<3 x i64>)>
    %564 = llvm.mlir.constant(16 : index) : i64
    %565 = llvm.mul %57, %564  : i64
    %566 = llvm.mlir.constant(4 : index) : i64
    %567 = llvm.mul %553, %566  : i64
    %568 = llvm.add %565, %567  : i64
    %569 = llvm.add %568, %57  : i64
    %570 = llvm.getelementptr %563[%569] : (!llvm.ptr<f32>, i64) -> !llvm.ptr<f32>
    llvm.store %562, %570 : !llvm.ptr<f32>
    %571 = llvm.mlir.constant(16 : index) : i64
    %572 = llvm.mul %57, %571  : i64
    %573 = llvm.mlir.constant(4 : index) : i64
    %574 = llvm.mul %553, %573  : i64
    %575 = llvm.add %572, %574  : i64
    %576 = llvm.add %575, %59  : i64
    %577 = llvm.getelementptr %309[%576] : (!llvm.ptr<f32>, i64) -> !llvm.ptr<f32>
    %578 = llvm.load %577 : !llvm.ptr<f32>
    %579 = llvm.extractvalue %50[1] : !llvm.struct<(ptr<f32>, ptr<f32>, i64, array<3 x i64>, array<3 x i64>)>
    %580 = llvm.mlir.constant(16 : index) : i64
    %581 = llvm.mul %57, %580  : i64
    %582 = llvm.mlir.constant(4 : index) : i64
    %583 = llvm.mul %553, %582  : i64
    %584 = llvm.add %581, %583  : i64
    %585 = llvm.add %584, %59  : i64
    %586 = llvm.getelementptr %579[%585] : (!llvm.ptr<f32>, i64) -> !llvm.ptr<f32>
    llvm.store %578, %586 : !llvm.ptr<f32>
    %587 = llvm.mlir.constant(16 : index) : i64
    %588 = llvm.mul %57, %587  : i64
    %589 = llvm.mlir.constant(4 : index) : i64
    %590 = llvm.mul %553, %589  : i64
    %591 = llvm.add %588, %590  : i64
    %592 = llvm.add %591, %51  : i64
    %593 = llvm.getelementptr %309[%592] : (!llvm.ptr<f32>, i64) -> !llvm.ptr<f32>
    %594 = llvm.load %593 : !llvm.ptr<f32>
    %595 = llvm.extractvalue %50[1] : !llvm.struct<(ptr<f32>, ptr<f32>, i64, array<3 x i64>, array<3 x i64>)>
    %596 = llvm.mlir.constant(16 : index) : i64
    %597 = llvm.mul %57, %596  : i64
    %598 = llvm.mlir.constant(4 : index) : i64
    %599 = llvm.mul %553, %598  : i64
    %600 = llvm.add %597, %599  : i64
    %601 = llvm.add %600, %51  : i64
    %602 = llvm.getelementptr %595[%601] : (!llvm.ptr<f32>, i64) -> !llvm.ptr<f32>
    llvm.store %594, %602 : !llvm.ptr<f32>
    %603 = llvm.mlir.constant(16 : index) : i64
    %604 = llvm.mul %57, %603  : i64
    %605 = llvm.mlir.constant(4 : index) : i64
    %606 = llvm.mul %553, %605  : i64
    %607 = llvm.add %604, %606  : i64
    %608 = llvm.add %607, %52  : i64
    %609 = llvm.getelementptr %309[%608] : (!llvm.ptr<f32>, i64) -> !llvm.ptr<f32>
    %610 = llvm.load %609 : !llvm.ptr<f32>
    %611 = llvm.extractvalue %50[1] : !llvm.struct<(ptr<f32>, ptr<f32>, i64, array<3 x i64>, array<3 x i64>)>
    %612 = llvm.mlir.constant(16 : index) : i64
    %613 = llvm.mul %57, %612  : i64
    %614 = llvm.mlir.constant(4 : index) : i64
    %615 = llvm.mul %553, %614  : i64
    %616 = llvm.add %613, %615  : i64
    %617 = llvm.add %616, %52  : i64
    %618 = llvm.getelementptr %611[%617] : (!llvm.ptr<f32>, i64) -> !llvm.ptr<f32>
    llvm.store %610, %618 : !llvm.ptr<f32>
    %619 = llvm.add %553, %59  : i64
    llvm.br ^bb13(%619 : i64)
  ^bb15:  // pred: ^bb13
    llvm.return
  }
}


// -----// IR Dump After Canonicalizer //----- //
module attributes {llvm.data_layout = "", soda.bambu.container_module, soda.container_module, tf.versions = {bad_consumers = [], min_consumer = 0 : i32, producer = 561 : i32}} {
  llvm.func @main_kernel(%arg0: !llvm.ptr<f32> {llvm.noalias}, %arg1: !llvm.ptr<f32> {llvm.noalias}, %arg2: !llvm.ptr<f32> {llvm.noalias}) {
    %0 = llvm.mlir.constant(2 : index) : i64
    %1 = llvm.mlir.constant(3 : index) : i64
    %2 = llvm.mlir.constant(5 : index) : i64
    %3 = llvm.mlir.constant(6 : index) : i64
    %4 = llvm.mlir.constant(7 : index) : i64
    %5 = llvm.mlir.constant(8 : index) : i64
    %6 = llvm.mlir.constant(0 : index) : i64
    %7 = llvm.mlir.constant(4 : index) : i64
    %8 = llvm.mlir.constant(1 : index) : i64
    %9 = llvm.mlir.constant(32 : index) : i64
    %10 = llvm.mlir.null : !llvm.ptr<f32>
    %11 = llvm.getelementptr %10[%9] : (!llvm.ptr<f32>, i64) -> !llvm.ptr<f32>
    %12 = llvm.ptrtoint %11 : !llvm.ptr<f32> to i64
    %13 = llvm.alloca %12 x f32 : (i64) -> !llvm.ptr<f32>
    llvm.br ^bb1(%6 : i64)
  ^bb1(%14: i64):  // 2 preds: ^bb0, ^bb2
    %15 = llvm.icmp "slt" %14, %7 : i64
    llvm.cond_br %15, ^bb2, ^bb3
  ^bb2:  // pred: ^bb1
    %16 = llvm.mlir.constant(32 : index) : i64
    %17 = llvm.mul %6, %16  : i64
    %18 = llvm.mlir.constant(8 : index) : i64
    %19 = llvm.mul %14, %18  : i64
    %20 = llvm.add %17, %19  : i64
    %21 = llvm.add %20, %6  : i64
    %22 = llvm.getelementptr %arg0[%21] : (!llvm.ptr<f32>, i64) -> !llvm.ptr<f32>
    %23 = llvm.load %22 : !llvm.ptr<f32>
    %24 = llvm.mlir.constant(32 : index) : i64
    %25 = llvm.mul %6, %24  : i64
    %26 = llvm.mlir.constant(8 : index) : i64
    %27 = llvm.mul %14, %26  : i64
    %28 = llvm.add %25, %27  : i64
    %29 = llvm.add %28, %6  : i64
    %30 = llvm.getelementptr %13[%29] : (!llvm.ptr<f32>, i64) -> !llvm.ptr<f32>
    llvm.store %23, %30 : !llvm.ptr<f32>
    %31 = llvm.mlir.constant(32 : index) : i64
    %32 = llvm.mul %6, %31  : i64
    %33 = llvm.mlir.constant(8 : index) : i64
    %34 = llvm.mul %14, %33  : i64
    %35 = llvm.add %32, %34  : i64
    %36 = llvm.add %35, %8  : i64
    %37 = llvm.getelementptr %arg0[%36] : (!llvm.ptr<f32>, i64) -> !llvm.ptr<f32>
    %38 = llvm.load %37 : !llvm.ptr<f32>
    %39 = llvm.mlir.constant(32 : index) : i64
    %40 = llvm.mul %6, %39  : i64
    %41 = llvm.mlir.constant(8 : index) : i64
    %42 = llvm.mul %14, %41  : i64
    %43 = llvm.add %40, %42  : i64
    %44 = llvm.add %43, %8  : i64
    %45 = llvm.getelementptr %13[%44] : (!llvm.ptr<f32>, i64) -> !llvm.ptr<f32>
    llvm.store %38, %45 : !llvm.ptr<f32>
    %46 = llvm.mlir.constant(32 : index) : i64
    %47 = llvm.mul %6, %46  : i64
    %48 = llvm.mlir.constant(8 : index) : i64
    %49 = llvm.mul %14, %48  : i64
    %50 = llvm.add %47, %49  : i64
    %51 = llvm.add %50, %0  : i64
    %52 = llvm.getelementptr %arg0[%51] : (!llvm.ptr<f32>, i64) -> !llvm.ptr<f32>
    %53 = llvm.load %52 : !llvm.ptr<f32>
    %54 = llvm.mlir.constant(32 : index) : i64
    %55 = llvm.mul %6, %54  : i64
    %56 = llvm.mlir.constant(8 : index) : i64
    %57 = llvm.mul %14, %56  : i64
    %58 = llvm.add %55, %57  : i64
    %59 = llvm.add %58, %0  : i64
    %60 = llvm.getelementptr %13[%59] : (!llvm.ptr<f32>, i64) -> !llvm.ptr<f32>
    llvm.store %53, %60 : !llvm.ptr<f32>
    %61 = llvm.mlir.constant(32 : index) : i64
    %62 = llvm.mul %6, %61  : i64
    %63 = llvm.mlir.constant(8 : index) : i64
    %64 = llvm.mul %14, %63  : i64
    %65 = llvm.add %62, %64  : i64
    %66 = llvm.add %65, %1  : i64
    %67 = llvm.getelementptr %arg0[%66] : (!llvm.ptr<f32>, i64) -> !llvm.ptr<f32>
    %68 = llvm.load %67 : !llvm.ptr<f32>
    %69 = llvm.mlir.constant(32 : index) : i64
    %70 = llvm.mul %6, %69  : i64
    %71 = llvm.mlir.constant(8 : index) : i64
    %72 = llvm.mul %14, %71  : i64
    %73 = llvm.add %70, %72  : i64
    %74 = llvm.add %73, %1  : i64
    %75 = llvm.getelementptr %13[%74] : (!llvm.ptr<f32>, i64) -> !llvm.ptr<f32>
    llvm.store %68, %75 : !llvm.ptr<f32>
    %76 = llvm.mlir.constant(32 : index) : i64
    %77 = llvm.mul %6, %76  : i64
    %78 = llvm.mlir.constant(8 : index) : i64
    %79 = llvm.mul %14, %78  : i64
    %80 = llvm.add %77, %79  : i64
    %81 = llvm.add %80, %7  : i64
    %82 = llvm.getelementptr %arg0[%81] : (!llvm.ptr<f32>, i64) -> !llvm.ptr<f32>
    %83 = llvm.load %82 : !llvm.ptr<f32>
    %84 = llvm.mlir.constant(32 : index) : i64
    %85 = llvm.mul %6, %84  : i64
    %86 = llvm.mlir.constant(8 : index) : i64
    %87 = llvm.mul %14, %86  : i64
    %88 = llvm.add %85, %87  : i64
    %89 = llvm.add %88, %7  : i64
    %90 = llvm.getelementptr %13[%89] : (!llvm.ptr<f32>, i64) -> !llvm.ptr<f32>
    llvm.store %83, %90 : !llvm.ptr<f32>
    %91 = llvm.mlir.constant(32 : index) : i64
    %92 = llvm.mul %6, %91  : i64
    %93 = llvm.mlir.constant(8 : index) : i64
    %94 = llvm.mul %14, %93  : i64
    %95 = llvm.add %92, %94  : i64
    %96 = llvm.add %95, %2  : i64
    %97 = llvm.getelementptr %arg0[%96] : (!llvm.ptr<f32>, i64) -> !llvm.ptr<f32>
    %98 = llvm.load %97 : !llvm.ptr<f32>
    %99 = llvm.mlir.constant(32 : index) : i64
    %100 = llvm.mul %6, %99  : i64
    %101 = llvm.mlir.constant(8 : index) : i64
    %102 = llvm.mul %14, %101  : i64
    %103 = llvm.add %100, %102  : i64
    %104 = llvm.add %103, %2  : i64
    %105 = llvm.getelementptr %13[%104] : (!llvm.ptr<f32>, i64) -> !llvm.ptr<f32>
    llvm.store %98, %105 : !llvm.ptr<f32>
    %106 = llvm.mlir.constant(32 : index) : i64
    %107 = llvm.mul %6, %106  : i64
    %108 = llvm.mlir.constant(8 : index) : i64
    %109 = llvm.mul %14, %108  : i64
    %110 = llvm.add %107, %109  : i64
    %111 = llvm.add %110, %3  : i64
    %112 = llvm.getelementptr %arg0[%111] : (!llvm.ptr<f32>, i64) -> !llvm.ptr<f32>
    %113 = llvm.load %112 : !llvm.ptr<f32>
    %114 = llvm.mlir.constant(32 : index) : i64
    %115 = llvm.mul %6, %114  : i64
    %116 = llvm.mlir.constant(8 : index) : i64
    %117 = llvm.mul %14, %116  : i64
    %118 = llvm.add %115, %117  : i64
    %119 = llvm.add %118, %3  : i64
    %120 = llvm.getelementptr %13[%119] : (!llvm.ptr<f32>, i64) -> !llvm.ptr<f32>
    llvm.store %113, %120 : !llvm.ptr<f32>
    %121 = llvm.mlir.constant(32 : index) : i64
    %122 = llvm.mul %6, %121  : i64
    %123 = llvm.mlir.constant(8 : index) : i64
    %124 = llvm.mul %14, %123  : i64
    %125 = llvm.add %122, %124  : i64
    %126 = llvm.add %125, %4  : i64
    %127 = llvm.getelementptr %arg0[%126] : (!llvm.ptr<f32>, i64) -> !llvm.ptr<f32>
    %128 = llvm.load %127 : !llvm.ptr<f32>
    %129 = llvm.mlir.constant(32 : index) : i64
    %130 = llvm.mul %6, %129  : i64
    %131 = llvm.mlir.constant(8 : index) : i64
    %132 = llvm.mul %14, %131  : i64
    %133 = llvm.add %130, %132  : i64
    %134 = llvm.add %133, %4  : i64
    %135 = llvm.getelementptr %13[%134] : (!llvm.ptr<f32>, i64) -> !llvm.ptr<f32>
    llvm.store %128, %135 : !llvm.ptr<f32>
    %136 = llvm.add %14, %8  : i64
    llvm.br ^bb1(%136 : i64)
  ^bb3:  // pred: ^bb1
    %137 = llvm.mlir.constant(32 : index) : i64
    %138 = llvm.mlir.null : !llvm.ptr<f32>
    %139 = llvm.getelementptr %138[%137] : (!llvm.ptr<f32>, i64) -> !llvm.ptr<f32>
    %140 = llvm.ptrtoint %139 : !llvm.ptr<f32> to i64
    %141 = llvm.alloca %140 x f32 : (i64) -> !llvm.ptr<f32>
    llvm.br ^bb4(%6 : i64)
  ^bb4(%142: i64):  // 2 preds: ^bb3, ^bb5
    %143 = llvm.icmp "slt" %142, %5 : i64
    llvm.cond_br %143, ^bb5, ^bb6
  ^bb5:  // pred: ^bb4
    %144 = llvm.mlir.constant(32 : index) : i64
    %145 = llvm.mul %6, %144  : i64
    %146 = llvm.mlir.constant(4 : index) : i64
    %147 = llvm.mul %142, %146  : i64
    %148 = llvm.add %145, %147  : i64
    %149 = llvm.add %148, %6  : i64
    %150 = llvm.getelementptr %arg1[%149] : (!llvm.ptr<f32>, i64) -> !llvm.ptr<f32>
    %151 = llvm.load %150 : !llvm.ptr<f32>
    %152 = llvm.mlir.constant(32 : index) : i64
    %153 = llvm.mul %6, %152  : i64
    %154 = llvm.mlir.constant(4 : index) : i64
    %155 = llvm.mul %142, %154  : i64
    %156 = llvm.add %153, %155  : i64
    %157 = llvm.add %156, %6  : i64
    %158 = llvm.getelementptr %141[%157] : (!llvm.ptr<f32>, i64) -> !llvm.ptr<f32>
    llvm.store %151, %158 : !llvm.ptr<f32>
    %159 = llvm.mlir.constant(32 : index) : i64
    %160 = llvm.mul %6, %159  : i64
    %161 = llvm.mlir.constant(4 : index) : i64
    %162 = llvm.mul %142, %161  : i64
    %163 = llvm.add %160, %162  : i64
    %164 = llvm.add %163, %8  : i64
    %165 = llvm.getelementptr %arg1[%164] : (!llvm.ptr<f32>, i64) -> !llvm.ptr<f32>
    %166 = llvm.load %165 : !llvm.ptr<f32>
    %167 = llvm.mlir.constant(32 : index) : i64
    %168 = llvm.mul %6, %167  : i64
    %169 = llvm.mlir.constant(4 : index) : i64
    %170 = llvm.mul %142, %169  : i64
    %171 = llvm.add %168, %170  : i64
    %172 = llvm.add %171, %8  : i64
    %173 = llvm.getelementptr %141[%172] : (!llvm.ptr<f32>, i64) -> !llvm.ptr<f32>
    llvm.store %166, %173 : !llvm.ptr<f32>
    %174 = llvm.mlir.constant(32 : index) : i64
    %175 = llvm.mul %6, %174  : i64
    %176 = llvm.mlir.constant(4 : index) : i64
    %177 = llvm.mul %142, %176  : i64
    %178 = llvm.add %175, %177  : i64
    %179 = llvm.add %178, %0  : i64
    %180 = llvm.getelementptr %arg1[%179] : (!llvm.ptr<f32>, i64) -> !llvm.ptr<f32>
    %181 = llvm.load %180 : !llvm.ptr<f32>
    %182 = llvm.mlir.constant(32 : index) : i64
    %183 = llvm.mul %6, %182  : i64
    %184 = llvm.mlir.constant(4 : index) : i64
    %185 = llvm.mul %142, %184  : i64
    %186 = llvm.add %183, %185  : i64
    %187 = llvm.add %186, %0  : i64
    %188 = llvm.getelementptr %141[%187] : (!llvm.ptr<f32>, i64) -> !llvm.ptr<f32>
    llvm.store %181, %188 : !llvm.ptr<f32>
    %189 = llvm.mlir.constant(32 : index) : i64
    %190 = llvm.mul %6, %189  : i64
    %191 = llvm.mlir.constant(4 : index) : i64
    %192 = llvm.mul %142, %191  : i64
    %193 = llvm.add %190, %192  : i64
    %194 = llvm.add %193, %1  : i64
    %195 = llvm.getelementptr %arg1[%194] : (!llvm.ptr<f32>, i64) -> !llvm.ptr<f32>
    %196 = llvm.load %195 : !llvm.ptr<f32>
    %197 = llvm.mlir.constant(32 : index) : i64
    %198 = llvm.mul %6, %197  : i64
    %199 = llvm.mlir.constant(4 : index) : i64
    %200 = llvm.mul %142, %199  : i64
    %201 = llvm.add %198, %200  : i64
    %202 = llvm.add %201, %1  : i64
    %203 = llvm.getelementptr %141[%202] : (!llvm.ptr<f32>, i64) -> !llvm.ptr<f32>
    llvm.store %196, %203 : !llvm.ptr<f32>
    %204 = llvm.add %142, %8  : i64
    llvm.br ^bb4(%204 : i64)
  ^bb6:  // pred: ^bb4
    %205 = llvm.mlir.constant(16 : index) : i64
    %206 = llvm.mlir.null : !llvm.ptr<f32>
    %207 = llvm.getelementptr %206[%205] : (!llvm.ptr<f32>, i64) -> !llvm.ptr<f32>
    %208 = llvm.ptrtoint %207 : !llvm.ptr<f32> to i64
    %209 = llvm.alloca %208 x f32 : (i64) -> !llvm.ptr<f32>
    llvm.br ^bb7(%6 : i64)
  ^bb7(%210: i64):  // 2 preds: ^bb6, ^bb8
    %211 = llvm.icmp "slt" %210, %7 : i64
    llvm.cond_br %211, ^bb8, ^bb9(%6 : i64)
  ^bb8:  // pred: ^bb7
    %212 = llvm.mlir.constant(16 : index) : i64
    %213 = llvm.mul %6, %212  : i64
    %214 = llvm.mlir.constant(4 : index) : i64
    %215 = llvm.mul %210, %214  : i64
    %216 = llvm.add %213, %215  : i64
    %217 = llvm.add %216, %6  : i64
    %218 = llvm.getelementptr %arg2[%217] : (!llvm.ptr<f32>, i64) -> !llvm.ptr<f32>
    %219 = llvm.load %218 : !llvm.ptr<f32>
    %220 = llvm.mlir.constant(16 : index) : i64
    %221 = llvm.mul %6, %220  : i64
    %222 = llvm.mlir.constant(4 : index) : i64
    %223 = llvm.mul %210, %222  : i64
    %224 = llvm.add %221, %223  : i64
    %225 = llvm.add %224, %6  : i64
    %226 = llvm.getelementptr %209[%225] : (!llvm.ptr<f32>, i64) -> !llvm.ptr<f32>
    llvm.store %219, %226 : !llvm.ptr<f32>
    %227 = llvm.mlir.constant(16 : index) : i64
    %228 = llvm.mul %6, %227  : i64
    %229 = llvm.mlir.constant(4 : index) : i64
    %230 = llvm.mul %210, %229  : i64
    %231 = llvm.add %228, %230  : i64
    %232 = llvm.add %231, %8  : i64
    %233 = llvm.getelementptr %arg2[%232] : (!llvm.ptr<f32>, i64) -> !llvm.ptr<f32>
    %234 = llvm.load %233 : !llvm.ptr<f32>
    %235 = llvm.mlir.constant(16 : index) : i64
    %236 = llvm.mul %6, %235  : i64
    %237 = llvm.mlir.constant(4 : index) : i64
    %238 = llvm.mul %210, %237  : i64
    %239 = llvm.add %236, %238  : i64
    %240 = llvm.add %239, %8  : i64
    %241 = llvm.getelementptr %209[%240] : (!llvm.ptr<f32>, i64) -> !llvm.ptr<f32>
    llvm.store %234, %241 : !llvm.ptr<f32>
    %242 = llvm.mlir.constant(16 : index) : i64
    %243 = llvm.mul %6, %242  : i64
    %244 = llvm.mlir.constant(4 : index) : i64
    %245 = llvm.mul %210, %244  : i64
    %246 = llvm.add %243, %245  : i64
    %247 = llvm.add %246, %0  : i64
    %248 = llvm.getelementptr %arg2[%247] : (!llvm.ptr<f32>, i64) -> !llvm.ptr<f32>
    %249 = llvm.load %248 : !llvm.ptr<f32>
    %250 = llvm.mlir.constant(16 : index) : i64
    %251 = llvm.mul %6, %250  : i64
    %252 = llvm.mlir.constant(4 : index) : i64
    %253 = llvm.mul %210, %252  : i64
    %254 = llvm.add %251, %253  : i64
    %255 = llvm.add %254, %0  : i64
    %256 = llvm.getelementptr %209[%255] : (!llvm.ptr<f32>, i64) -> !llvm.ptr<f32>
    llvm.store %249, %256 : !llvm.ptr<f32>
    %257 = llvm.mlir.constant(16 : index) : i64
    %258 = llvm.mul %6, %257  : i64
    %259 = llvm.mlir.constant(4 : index) : i64
    %260 = llvm.mul %210, %259  : i64
    %261 = llvm.add %258, %260  : i64
    %262 = llvm.add %261, %1  : i64
    %263 = llvm.getelementptr %arg2[%262] : (!llvm.ptr<f32>, i64) -> !llvm.ptr<f32>
    %264 = llvm.load %263 : !llvm.ptr<f32>
    %265 = llvm.mlir.constant(16 : index) : i64
    %266 = llvm.mul %6, %265  : i64
    %267 = llvm.mlir.constant(4 : index) : i64
    %268 = llvm.mul %210, %267  : i64
    %269 = llvm.add %266, %268  : i64
    %270 = llvm.add %269, %1  : i64
    %271 = llvm.getelementptr %209[%270] : (!llvm.ptr<f32>, i64) -> !llvm.ptr<f32>
    llvm.store %264, %271 : !llvm.ptr<f32>
    %272 = llvm.add %210, %8  : i64
    llvm.br ^bb7(%272 : i64)
  ^bb9(%273: i64):  // 2 preds: ^bb7, ^bb12
    %274 = llvm.icmp "slt" %273, %7 : i64
    llvm.cond_br %274, ^bb10(%6 : i64), ^bb13(%6 : i64)
  ^bb10(%275: i64):  // 2 preds: ^bb9, ^bb11
    %276 = llvm.icmp "slt" %275, %7 : i64
    llvm.cond_br %276, ^bb11, ^bb12
  ^bb11:  // pred: ^bb10
    %277 = llvm.mlir.constant(32 : index) : i64
    %278 = llvm.mul %6, %277  : i64
    %279 = llvm.mlir.constant(8 : index) : i64
    %280 = llvm.mul %273, %279  : i64
    %281 = llvm.add %278, %280  : i64
    %282 = llvm.add %281, %6  : i64
    %283 = llvm.getelementptr %13[%282] : (!llvm.ptr<f32>, i64) -> !llvm.ptr<f32>
    %284 = llvm.load %283 : !llvm.ptr<f32>
    %285 = llvm.mlir.constant(32 : index) : i64
    %286 = llvm.mul %6, %285  : i64
    %287 = llvm.mlir.constant(4 : index) : i64
    %288 = llvm.mul %6, %287  : i64
    %289 = llvm.add %286, %288  : i64
    %290 = llvm.add %289, %275  : i64
    %291 = llvm.getelementptr %141[%290] : (!llvm.ptr<f32>, i64) -> !llvm.ptr<f32>
    %292 = llvm.load %291 : !llvm.ptr<f32>
    %293 = llvm.mlir.constant(16 : index) : i64
    %294 = llvm.mul %6, %293  : i64
    %295 = llvm.mlir.constant(4 : index) : i64
    %296 = llvm.mul %273, %295  : i64
    %297 = llvm.add %294, %296  : i64
    %298 = llvm.add %297, %275  : i64
    %299 = llvm.getelementptr %209[%298] : (!llvm.ptr<f32>, i64) -> !llvm.ptr<f32>
    %300 = llvm.load %299 : !llvm.ptr<f32>
    %301 = llvm.fmul %284, %292  : f32
    %302 = llvm.fadd %300, %301  : f32
    %303 = llvm.mlir.constant(32 : index) : i64
    %304 = llvm.mul %6, %303  : i64
    %305 = llvm.mlir.constant(8 : index) : i64
    %306 = llvm.mul %273, %305  : i64
    %307 = llvm.add %304, %306  : i64
    %308 = llvm.add %307, %8  : i64
    %309 = llvm.getelementptr %13[%308] : (!llvm.ptr<f32>, i64) -> !llvm.ptr<f32>
    %310 = llvm.load %309 : !llvm.ptr<f32>
    %311 = llvm.mlir.constant(32 : index) : i64
    %312 = llvm.mul %6, %311  : i64
    %313 = llvm.mlir.constant(4 : index) : i64
    %314 = llvm.mul %8, %313  : i64
    %315 = llvm.add %312, %314  : i64
    %316 = llvm.add %315, %275  : i64
    %317 = llvm.getelementptr %141[%316] : (!llvm.ptr<f32>, i64) -> !llvm.ptr<f32>
    %318 = llvm.load %317 : !llvm.ptr<f32>
    %319 = llvm.fmul %310, %318  : f32
    %320 = llvm.fadd %302, %319  : f32
    %321 = llvm.mlir.constant(32 : index) : i64
    %322 = llvm.mul %6, %321  : i64
    %323 = llvm.mlir.constant(8 : index) : i64
    %324 = llvm.mul %273, %323  : i64
    %325 = llvm.add %322, %324  : i64
    %326 = llvm.add %325, %0  : i64
    %327 = llvm.getelementptr %13[%326] : (!llvm.ptr<f32>, i64) -> !llvm.ptr<f32>
    %328 = llvm.load %327 : !llvm.ptr<f32>
    %329 = llvm.mlir.constant(32 : index) : i64
    %330 = llvm.mul %6, %329  : i64
    %331 = llvm.mlir.constant(4 : index) : i64
    %332 = llvm.mul %0, %331  : i64
    %333 = llvm.add %330, %332  : i64
    %334 = llvm.add %333, %275  : i64
    %335 = llvm.getelementptr %141[%334] : (!llvm.ptr<f32>, i64) -> !llvm.ptr<f32>
    %336 = llvm.load %335 : !llvm.ptr<f32>
    %337 = llvm.fmul %328, %336  : f32
    %338 = llvm.fadd %320, %337  : f32
    %339 = llvm.mlir.constant(32 : index) : i64
    %340 = llvm.mul %6, %339  : i64
    %341 = llvm.mlir.constant(8 : index) : i64
    %342 = llvm.mul %273, %341  : i64
    %343 = llvm.add %340, %342  : i64
    %344 = llvm.add %343, %1  : i64
    %345 = llvm.getelementptr %13[%344] : (!llvm.ptr<f32>, i64) -> !llvm.ptr<f32>
    %346 = llvm.load %345 : !llvm.ptr<f32>
    %347 = llvm.mlir.constant(32 : index) : i64
    %348 = llvm.mul %6, %347  : i64
    %349 = llvm.mlir.constant(4 : index) : i64
    %350 = llvm.mul %1, %349  : i64
    %351 = llvm.add %348, %350  : i64
    %352 = llvm.add %351, %275  : i64
    %353 = llvm.getelementptr %141[%352] : (!llvm.ptr<f32>, i64) -> !llvm.ptr<f32>
    %354 = llvm.load %353 : !llvm.ptr<f32>
    %355 = llvm.fmul %346, %354  : f32
    %356 = llvm.fadd %338, %355  : f32
    %357 = llvm.mlir.constant(32 : index) : i64
    %358 = llvm.mul %6, %357  : i64
    %359 = llvm.mlir.constant(8 : index) : i64
    %360 = llvm.mul %273, %359  : i64
    %361 = llvm.add %358, %360  : i64
    %362 = llvm.add %361, %7  : i64
    %363 = llvm.getelementptr %13[%362] : (!llvm.ptr<f32>, i64) -> !llvm.ptr<f32>
    %364 = llvm.load %363 : !llvm.ptr<f32>
    %365 = llvm.mlir.constant(32 : index) : i64
    %366 = llvm.mul %6, %365  : i64
    %367 = llvm.mlir.constant(4 : index) : i64
    %368 = llvm.mul %7, %367  : i64
    %369 = llvm.add %366, %368  : i64
    %370 = llvm.add %369, %275  : i64
    %371 = llvm.getelementptr %141[%370] : (!llvm.ptr<f32>, i64) -> !llvm.ptr<f32>
    %372 = llvm.load %371 : !llvm.ptr<f32>
    %373 = llvm.fmul %364, %372  : f32
    %374 = llvm.fadd %356, %373  : f32
    %375 = llvm.mlir.constant(32 : index) : i64
    %376 = llvm.mul %6, %375  : i64
    %377 = llvm.mlir.constant(8 : index) : i64
    %378 = llvm.mul %273, %377  : i64
    %379 = llvm.add %376, %378  : i64
    %380 = llvm.add %379, %2  : i64
    %381 = llvm.getelementptr %13[%380] : (!llvm.ptr<f32>, i64) -> !llvm.ptr<f32>
    %382 = llvm.load %381 : !llvm.ptr<f32>
    %383 = llvm.mlir.constant(32 : index) : i64
    %384 = llvm.mul %6, %383  : i64
    %385 = llvm.mlir.constant(4 : index) : i64
    %386 = llvm.mul %2, %385  : i64
    %387 = llvm.add %384, %386  : i64
    %388 = llvm.add %387, %275  : i64
    %389 = llvm.getelementptr %141[%388] : (!llvm.ptr<f32>, i64) -> !llvm.ptr<f32>
    %390 = llvm.load %389 : !llvm.ptr<f32>
    %391 = llvm.fmul %382, %390  : f32
    %392 = llvm.fadd %374, %391  : f32
    %393 = llvm.mlir.constant(32 : index) : i64
    %394 = llvm.mul %6, %393  : i64
    %395 = llvm.mlir.constant(8 : index) : i64
    %396 = llvm.mul %273, %395  : i64
    %397 = llvm.add %394, %396  : i64
    %398 = llvm.add %397, %3  : i64
    %399 = llvm.getelementptr %13[%398] : (!llvm.ptr<f32>, i64) -> !llvm.ptr<f32>
    %400 = llvm.load %399 : !llvm.ptr<f32>
    %401 = llvm.mlir.constant(32 : index) : i64
    %402 = llvm.mul %6, %401  : i64
    %403 = llvm.mlir.constant(4 : index) : i64
    %404 = llvm.mul %3, %403  : i64
    %405 = llvm.add %402, %404  : i64
    %406 = llvm.add %405, %275  : i64
    %407 = llvm.getelementptr %141[%406] : (!llvm.ptr<f32>, i64) -> !llvm.ptr<f32>
    %408 = llvm.load %407 : !llvm.ptr<f32>
    %409 = llvm.fmul %400, %408  : f32
    %410 = llvm.fadd %392, %409  : f32
    %411 = llvm.mlir.constant(32 : index) : i64
    %412 = llvm.mul %6, %411  : i64
    %413 = llvm.mlir.constant(8 : index) : i64
    %414 = llvm.mul %273, %413  : i64
    %415 = llvm.add %412, %414  : i64
    %416 = llvm.add %415, %4  : i64
    %417 = llvm.getelementptr %13[%416] : (!llvm.ptr<f32>, i64) -> !llvm.ptr<f32>
    %418 = llvm.load %417 : !llvm.ptr<f32>
    %419 = llvm.mlir.constant(32 : index) : i64
    %420 = llvm.mul %6, %419  : i64
    %421 = llvm.mlir.constant(4 : index) : i64
    %422 = llvm.mul %4, %421  : i64
    %423 = llvm.add %420, %422  : i64
    %424 = llvm.add %423, %275  : i64
    %425 = llvm.getelementptr %141[%424] : (!llvm.ptr<f32>, i64) -> !llvm.ptr<f32>
    %426 = llvm.load %425 : !llvm.ptr<f32>
    %427 = llvm.fmul %418, %426  : f32
    %428 = llvm.fadd %410, %427  : f32
    %429 = llvm.mlir.constant(16 : index) : i64
    %430 = llvm.mul %6, %429  : i64
    %431 = llvm.mlir.constant(4 : index) : i64
    %432 = llvm.mul %273, %431  : i64
    %433 = llvm.add %430, %432  : i64
    %434 = llvm.add %433, %275  : i64
    %435 = llvm.getelementptr %209[%434] : (!llvm.ptr<f32>, i64) -> !llvm.ptr<f32>
    llvm.store %428, %435 : !llvm.ptr<f32>
    %436 = llvm.add %275, %8  : i64
    llvm.br ^bb10(%436 : i64)
  ^bb12:  // pred: ^bb10
    %437 = llvm.add %273, %8  : i64
    llvm.br ^bb9(%437 : i64)
  ^bb13(%438: i64):  // 2 preds: ^bb9, ^bb14
    %439 = llvm.icmp "slt" %438, %7 : i64
    llvm.cond_br %439, ^bb14, ^bb15
  ^bb14:  // pred: ^bb13
    %440 = llvm.mlir.constant(16 : index) : i64
    %441 = llvm.mul %6, %440  : i64
    %442 = llvm.mlir.constant(4 : index) : i64
    %443 = llvm.mul %438, %442  : i64
    %444 = llvm.add %441, %443  : i64
    %445 = llvm.add %444, %6  : i64
    %446 = llvm.getelementptr %209[%445] : (!llvm.ptr<f32>, i64) -> !llvm.ptr<f32>
    %447 = llvm.load %446 : !llvm.ptr<f32>
    %448 = llvm.mlir.constant(16 : index) : i64
    %449 = llvm.mul %6, %448  : i64
    %450 = llvm.mlir.constant(4 : index) : i64
    %451 = llvm.mul %438, %450  : i64
    %452 = llvm.add %449, %451  : i64
    %453 = llvm.add %452, %6  : i64
    %454 = llvm.getelementptr %arg2[%453] : (!llvm.ptr<f32>, i64) -> !llvm.ptr<f32>
    llvm.store %447, %454 : !llvm.ptr<f32>
    %455 = llvm.mlir.constant(16 : index) : i64
    %456 = llvm.mul %6, %455  : i64
    %457 = llvm.mlir.constant(4 : index) : i64
    %458 = llvm.mul %438, %457  : i64
    %459 = llvm.add %456, %458  : i64
    %460 = llvm.add %459, %8  : i64
    %461 = llvm.getelementptr %209[%460] : (!llvm.ptr<f32>, i64) -> !llvm.ptr<f32>
    %462 = llvm.load %461 : !llvm.ptr<f32>
    %463 = llvm.mlir.constant(16 : index) : i64
    %464 = llvm.mul %6, %463  : i64
    %465 = llvm.mlir.constant(4 : index) : i64
    %466 = llvm.mul %438, %465  : i64
    %467 = llvm.add %464, %466  : i64
    %468 = llvm.add %467, %8  : i64
    %469 = llvm.getelementptr %arg2[%468] : (!llvm.ptr<f32>, i64) -> !llvm.ptr<f32>
    llvm.store %462, %469 : !llvm.ptr<f32>
    %470 = llvm.mlir.constant(16 : index) : i64
    %471 = llvm.mul %6, %470  : i64
    %472 = llvm.mlir.constant(4 : index) : i64
    %473 = llvm.mul %438, %472  : i64
    %474 = llvm.add %471, %473  : i64
    %475 = llvm.add %474, %0  : i64
    %476 = llvm.getelementptr %209[%475] : (!llvm.ptr<f32>, i64) -> !llvm.ptr<f32>
    %477 = llvm.load %476 : !llvm.ptr<f32>
    %478 = llvm.mlir.constant(16 : index) : i64
    %479 = llvm.mul %6, %478  : i64
    %480 = llvm.mlir.constant(4 : index) : i64
    %481 = llvm.mul %438, %480  : i64
    %482 = llvm.add %479, %481  : i64
    %483 = llvm.add %482, %0  : i64
    %484 = llvm.getelementptr %arg2[%483] : (!llvm.ptr<f32>, i64) -> !llvm.ptr<f32>
    llvm.store %477, %484 : !llvm.ptr<f32>
    %485 = llvm.mlir.constant(16 : index) : i64
    %486 = llvm.mul %6, %485  : i64
    %487 = llvm.mlir.constant(4 : index) : i64
    %488 = llvm.mul %438, %487  : i64
    %489 = llvm.add %486, %488  : i64
    %490 = llvm.add %489, %1  : i64
    %491 = llvm.getelementptr %209[%490] : (!llvm.ptr<f32>, i64) -> !llvm.ptr<f32>
    %492 = llvm.load %491 : !llvm.ptr<f32>
    %493 = llvm.mlir.constant(16 : index) : i64
    %494 = llvm.mul %6, %493  : i64
    %495 = llvm.mlir.constant(4 : index) : i64
    %496 = llvm.mul %438, %495  : i64
    %497 = llvm.add %494, %496  : i64
    %498 = llvm.add %497, %1  : i64
    %499 = llvm.getelementptr %arg2[%498] : (!llvm.ptr<f32>, i64) -> !llvm.ptr<f32>
    llvm.store %492, %499 : !llvm.ptr<f32>
    %500 = llvm.add %438, %8  : i64
    llvm.br ^bb13(%500 : i64)
  ^bb15:  // pred: ^bb13
    llvm.return
  }
}


