// -----// IR Dump After SodaKernelOutlining //----- //
#map0 = affine_map<(d0, d1, d2, d3) -> (d1, d2, d3, d0)>
#map1 = affine_map<(d0, d1, d2, d3) -> (d0, d1, d2, d3)>
#map2 = affine_map<(d0, d1, d2, d3) -> (d0 * 1225 + d1 * 35 + d2 + d3 + 36)>
#map3 = affine_map<(d0, d1, d2, d3) -> (d3, d0, d1, d2)>
#map4 = affine_map<(d0, d1, d2, d3) -> (d3)>
#map5 = affine_map<(d0, d1) -> (d0, d1)>
#map6 = affine_map<(d0, d1) -> (d1)>
#map7 = affine_map<(d0, d1) -> (d0)>
module attributes {soda.container_module, tf.versions = {bad_consumers = [], min_consumer = 0 : i32, producer = 1087 : i32}} {
  memref.global "private" constant @__constant_5x5x1x1xf32 : memref<5x5x1x1xf32> = dense<[[[[… >
  memref.global "private" constant @__constant_1xf32 : memref<1xf32> = dense<0.000000e+00>
  memref.global "private" constant @__constant_1x256x8xf32 : memref<1x256x8xf32> = dense<"…">
  memref.global "private" constant @__constant_1x8x4xf32 : memref<1x8x4xf32> = dense<[[[… >
  memref.global "private" constant @__constant_1x4x2xf32 : memref<1x4x2xf32> = dense<[[[-0.649729251, -0.36405158], [0.711094856, -0.165482044], [-0.528160095, -0.548771381], [0.198056698, 0.657765388]]]>
  memref.global "private" constant @__constant_8xf32 : memref<8xf32> = dense<0.000000e+00>
  memref.global "private" constant @__constant_4xf32 : memref<4xf32> = dense<0.000000e+00>
  memref.global "private" constant @__constant_2xf32 : memref<2xf32> = dense<0.000000e+00>
  func.func @main(%arg0: memref<4x32x32x1xf32>, %arg1: memref<4x2xf32>) attributes {tf.entry_function = {control_outputs = "", inputs = "x1", outputs = "Identity"}} {
    %cst = arith.constant 0.000000e+00 : f32
    %cst_0 = arith.constant 3.40282347E+38 : f32
    %cst_1 = arith.constant 1.000000e+00 : f32
    %0 = memref.get_global @__constant_2xf32 : memref<2xf32>
    %1 = memref.get_global @__constant_4xf32 : memref<4xf32>
    %2 = memref.get_global @__constant_8xf32 : memref<8xf32>
    %3 = memref.get_global @__constant_1x4x2xf32 : memref<1x4x2xf32>
    %4 = memref.get_global @__constant_1x8x4xf32 : memref<1x8x4xf32>
    %5 = memref.get_global @__constant_1x256x8xf32 : memref<1x256x8xf32>
    %6 = memref.get_global @__constant_1xf32 : memref<1xf32>
    %7 = memref.get_global @__constant_5x5x1x1xf32 : memref<5x5x1x1xf32>
    %8 = memref.alloc() {alignment = 128 : i64} : memref<1x5x5x1xf32>
    linalg.generic {indexing_maps = [#map0, #map1], iterator_types = ["parallel", "parallel", "parallel", "parallel"]} ins(%7 : memref<5x5x1x1xf32>) outs(%8 : memref<1x5x5x1xf32>) {
    ^bb0(%arg2: f32, %arg3: f32):
      linalg.yield %arg2 : f32
    }
    %9 = memref.alloc() {alignment = 128 : i64} : memref<4x35x35x1xf32>
    linalg.fill ins(%cst : f32) outs(%9 : memref<4x35x35x1xf32>)
    %10 = memref.alloc() {alignment = 128 : i64} : memref<4x35x35x1xf32>
    memref.copy %9, %10 : memref<4x35x35x1xf32> to memref<4x35x35x1xf32>
    memref.dealloc %9 : memref<4x35x35x1xf32>
    %11 = memref.subview %10[0, 1, 1, 0] [4, 32, 32, 1] [1, 1, 1, 1] : memref<4x35x35x1xf32> to memref<4x32x32x1xf32, #map2>
    memref.copy %arg0, %11 : memref<4x32x32x1xf32> to memref<4x32x32x1xf32, #map2>
    %12 = memref.alloc() {alignment = 128 : i64} : memref<5x5x1x1xf32>
    linalg.generic {indexing_maps = [#map3, #map1], iterator_types = ["parallel", "parallel", "parallel", "parallel"]} ins(%8 : memref<1x5x5x1xf32>) outs(%12 : memref<5x5x1x1xf32>) {
    ^bb0(%arg2: f32, %arg3: f32):
      linalg.yield %arg2 : f32
    }
    memref.dealloc %8 : memref<1x5x5x1xf32>
    %13 = memref.alloc() {alignment = 128 : i64} : memref<4x16x16x1xf32>
    linalg.fill ins(%cst : f32) outs(%13 : memref<4x16x16x1xf32>)
    %14 = memref.alloc() {alignment = 128 : i64} : memref<4x16x16x1xf32>
    memref.copy %13, %14 : memref<4x16x16x1xf32> to memref<4x16x16x1xf32>
    memref.dealloc %13 : memref<4x16x16x1xf32>
    linalg.conv_2d_nhwc_hwcf {dilations = dense<1> : tensor<2xi64>, strides = dense<2> : tensor<2xi64>} ins(%10, %12 : memref<4x35x35x1xf32>, memref<5x5x1x1xf32>) outs(%14 : memref<4x16x16x1xf32>)
    memref.dealloc %12 : memref<5x5x1x1xf32>
    memref.dealloc %10 : memref<4x35x35x1xf32>
    %15 = memref.alloc() {alignment = 128 : i64} : memref<4x16x16x1xf32>
    linalg.generic {indexing_maps = [#map4, #map1, #map1], iterator_types = ["parallel", "parallel", "parallel", "parallel"]} ins(%6, %14 : memref<1xf32>, memref<4x16x16x1xf32>) outs(%15 : memref<4x16x16x1xf32>) {
    ^bb0(%arg2: f32, %arg3: f32, %arg4: f32):
      %42 = arith.addf %arg2, %arg3 : f32
      linalg.yield %42 : f32
    }
    memref.dealloc %14 : memref<4x16x16x1xf32>
    %16 = memref.alloc() {alignment = 128 : i64} : memref<4x16x16x1xf32>
    linalg.generic {indexing_maps = [#map1, #map1], iterator_types = ["parallel", "parallel", "parallel", "parallel"]} ins(%15 : memref<4x16x16x1xf32>) outs(%16 : memref<4x16x16x1xf32>) {
    ^bb0(%arg2: f32, %arg3: f32):
      %42 = arith.cmpf olt, %arg2, %cst : f32
      %43 = arith.select %42, %cst, %arg2 : f32
      %44 = arith.cmpf olt, %cst_0, %arg2 : f32
      %45 = arith.select %44, %cst_0, %43 : f32
      linalg.yield %45 : f32
    }
    memref.dealloc %15 : memref<4x16x16x1xf32>
    %17 = memref.collapse_shape %16 [[0], [1, 2, 3]] : memref<4x16x16x1xf32> into memref<4x256xf32>
    %18 = memref.expand_shape %17 [[0, 1], [2]] : memref<4x256xf32> into memref<1x4x256xf32>
    %19 = memref.alloc() {alignment = 128 : i64} : memref<1x4x8xf32>
    linalg.fill ins(%cst : f32) outs(%19 : memref<1x4x8xf32>)
    %20 = memref.alloc() {alignment = 128 : i64} : memref<1x4x8xf32>
    memref.copy %19, %20 : memref<1x4x8xf32> to memref<1x4x8xf32>
    memref.dealloc %19 : memref<1x4x8xf32>
    linalg.batch_matmul ins(%18, %5 : memref<1x4x256xf32>, memref<1x256x8xf32>) outs(%20 : memref<1x4x8xf32>)
    memref.dealloc %16 : memref<4x16x16x1xf32>
    %21 = memref.collapse_shape %20 [[0, 1], [2]] : memref<1x4x8xf32> into memref<4x8xf32>
    %22 = memref.alloc() {alignment = 128 : i64} : memref<4x8xf32>
    linalg.generic {indexing_maps = [#map5, #map6, #map5], iterator_types = ["parallel", "parallel"]} ins(%21, %2 : memref<4x8xf32>, memref<8xf32>) outs(%22 : memref<4x8xf32>) {
    ^bb0(%arg2: f32, %arg3: f32, %arg4: f32):
      %42 = arith.addf %arg2, %arg3 : f32
      linalg.yield %42 : f32
    }
    memref.dealloc %20 : memref<1x4x8xf32>
    %23 = memref.alloc() {alignment = 128 : i64} : memref<4x8xf32>
    linalg.generic {indexing_maps = [#map5, #map5], iterator_types = ["parallel", "parallel"]} ins(%22 : memref<4x8xf32>) outs(%23 : memref<4x8xf32>) {
    ^bb0(%arg2: f32, %arg3: f32):
      %42 = arith.cmpf olt, %arg2, %cst : f32
      %43 = arith.select %42, %cst, %arg2 : f32
      %44 = arith.cmpf olt, %cst_0, %arg2 : f32
      %45 = arith.select %44, %cst_0, %43 : f32
      linalg.yield %45 : f32
    }
    memref.dealloc %22 : memref<4x8xf32>
    %24 = memref.expand_shape %23 [[0, 1], [2]] : memref<4x8xf32> into memref<1x4x8xf32>
    %25 = memref.alloc() {alignment = 128 : i64} : memref<1x4x4xf32>
    linalg.fill ins(%cst : f32) outs(%25 : memref<1x4x4xf32>)
    %26 = memref.alloc() {alignment = 128 : i64} : memref<1x4x4xf32>
    memref.copy %25, %26 : memref<1x4x4xf32> to memref<1x4x4xf32>
    memref.dealloc %25 : memref<1x4x4xf32>
    soda.launch_func  @main_kernel::@main_kernel args(%24 : memref<1x4x8xf32>, %4 : memref<1x8x4xf32>, %26 : memref<1x4x4xf32>)
    memref.dealloc %23 : memref<4x8xf32>
    %27 = memref.collapse_shape %26 [[0, 1], [2]] : memref<1x4x4xf32> into memref<4x4xf32>
    %28 = memref.alloc() {alignment = 128 : i64} : memref<4x4xf32>
    linalg.generic {indexing_maps = [#map5, #map6, #map5], iterator_types = ["parallel", "parallel"]} ins(%27, %1 : memref<4x4xf32>, memref<4xf32>) outs(%28 : memref<4x4xf32>) {
    ^bb0(%arg2: f32, %arg3: f32, %arg4: f32):
      %42 = arith.addf %arg2, %arg3 : f32
      linalg.yield %42 : f32
    }
    memref.dealloc %26 : memref<1x4x4xf32>
    %29 = memref.alloc() {alignment = 128 : i64} : memref<4x4xf32>
    linalg.generic {indexing_maps = [#map5, #map5], iterator_types = ["parallel", "parallel"]} ins(%28 : memref<4x4xf32>) outs(%29 : memref<4x4xf32>) {
    ^bb0(%arg2: f32, %arg3: f32):
      %42 = arith.cmpf olt, %arg2, %cst : f32
      %43 = arith.select %42, %cst, %arg2 : f32
      %44 = arith.cmpf olt, %cst_0, %arg2 : f32
      %45 = arith.select %44, %cst_0, %43 : f32
      linalg.yield %45 : f32
    }
    memref.dealloc %28 : memref<4x4xf32>
    %30 = memref.expand_shape %29 [[0, 1], [2]] : memref<4x4xf32> into memref<1x4x4xf32>
    %31 = memref.alloc() {alignment = 128 : i64} : memref<1x4x2xf32>
    linalg.fill ins(%cst : f32) outs(%31 : memref<1x4x2xf32>)
    %32 = memref.alloc() {alignment = 128 : i64} : memref<1x4x2xf32>
    memref.copy %31, %32 : memref<1x4x2xf32> to memref<1x4x2xf32>
    memref.dealloc %31 : memref<1x4x2xf32>
    linalg.batch_matmul ins(%30, %3 : memref<1x4x4xf32>, memref<1x4x2xf32>) outs(%32 : memref<1x4x2xf32>)
    memref.dealloc %29 : memref<4x4xf32>
    %33 = memref.collapse_shape %32 [[0, 1], [2]] : memref<1x4x2xf32> into memref<4x2xf32>
    %34 = memref.alloc() {alignment = 128 : i64} : memref<4x2xf32>
    linalg.generic {indexing_maps = [#map5, #map6, #map5], iterator_types = ["parallel", "parallel"]} ins(%33, %0 : memref<4x2xf32>, memref<2xf32>) outs(%34 : memref<4x2xf32>) {
    ^bb0(%arg2: f32, %arg3: f32, %arg4: f32):
      %42 = arith.addf %arg2, %arg3 : f32
      linalg.yield %42 : f32
    }
    memref.dealloc %32 : memref<1x4x2xf32>
    %35 = memref.alloc() {alignment = 128 : i64} : memref<4x2xf32>
    linalg.generic {indexing_maps = [#map5, #map5], iterator_types = ["parallel", "parallel"]} ins(%34 : memref<4x2xf32>) outs(%35 : memref<4x2xf32>) {
    ^bb0(%arg2: f32, %arg3: f32):
      %42 = math.exp %arg2 : f32
      linalg.yield %42 : f32
    }
    memref.dealloc %34 : memref<4x2xf32>
    %36 = memref.alloc() {alignment = 128 : i64} : memref<4xf32>
    linalg.fill ins(%cst : f32) outs(%36 : memref<4xf32>)
    %37 = memref.alloc() {alignment = 128 : i64} : memref<4xf32>
    memref.copy %36, %37 : memref<4xf32> to memref<4xf32>
    memref.dealloc %36 : memref<4xf32>
    linalg.generic {indexing_maps = [#map5, #map7], iterator_types = ["parallel", "reduction"]} ins(%35 : memref<4x2xf32>) outs(%37 : memref<4xf32>) {
    ^bb0(%arg2: f32, %arg3: f32):
      %42 = arith.addf %arg2, %arg3 : f32
      linalg.yield %42 : f32
    }
    %38 = memref.expand_shape %37 [[0, 1]] : memref<4xf32> into memref<4x1xf32>
    %39 = memref.alloc() {alignment = 128 : i64} : memref<4x1xf32>
    linalg.generic {indexing_maps = [#map5, #map5], iterator_types = ["parallel", "parallel"]} ins(%38 : memref<4x1xf32>) outs(%39 : memref<4x1xf32>) {
    ^bb0(%arg2: f32, %arg3: f32):
      %42 = arith.divf %cst_1, %arg2 : f32
      linalg.yield %42 : f32
    }
    memref.dealloc %37 : memref<4xf32>
    %40 = memref.collapse_shape %39 [[0, 1]] : memref<4x1xf32> into memref<4xf32>
    %41 = memref.alloc() {alignment = 128 : i64} : memref<4x2xf32>
    linalg.generic {indexing_maps = [#map5, #map7, #map5], iterator_types = ["parallel", "parallel"]} ins(%35, %40 : memref<4x2xf32>, memref<4xf32>) outs(%41 : memref<4x2xf32>) {
    ^bb0(%arg2: f32, %arg3: f32, %arg4: f32):
      %42 = arith.mulf %arg2, %arg3 : f32
      linalg.yield %42 : f32
    }
    memref.dealloc %39 : memref<4x1xf32>
    memref.dealloc %35 : memref<4x2xf32>
    memref.copy %41, %arg1 : memref<4x2xf32> to memref<4x2xf32>
    return
  }
  soda.module @main_kernel {
    soda.func @main_kernel(%arg0: memref<1x4x8xf32>, %arg1: memref<1x8x4xf32>, %arg2: memref<1x4x4xf32>) kernel{
      cf.br ^bb1
    ^bb1:  // pred: ^bb0
      linalg.batch_matmul ins(%arg0, %arg1 : memref<1x4x8xf32>, memref<1x8x4xf32>) outs(%arg2 : memref<1x4x4xf32>)
      soda.return
    }
  }
}


// -----// IR Dump After TestArgumentsToXML //----- //
#map0 = affine_map<(d0, d1, d2, d3) -> (d1, d2, d3, d0)>
#map1 = affine_map<(d0, d1, d2, d3) -> (d0, d1, d2, d3)>
#map2 = affine_map<(d0, d1, d2, d3) -> (d0 * 1225 + d1 * 35 + d2 + d3 + 36)>
#map3 = affine_map<(d0, d1, d2, d3) -> (d3, d0, d1, d2)>
#map4 = affine_map<(d0, d1, d2, d3) -> (d3)>
#map5 = affine_map<(d0, d1) -> (d0, d1)>
#map6 = affine_map<(d0, d1) -> (d1)>
#map7 = affine_map<(d0, d1) -> (d0)>
module attributes {soda.container_module, tf.versions = {bad_consumers = [], min_consumer = 0 : i32, producer = 1087 : i32}} {
  memref.global "private" constant @__constant_5x5x1x1xf32 : memref<5x5x1x1xf32> = dense<[[[[… >
  memref.global "private" constant @__constant_1xf32 : memref<1xf32> = dense<0.000000e+00>
  memref.global "private" constant @__constant_1x256x8xf32 : memref<1x256x8xf32> = dense<"…">
  memref.global "private" constant @__constant_1x8x4xf32 : memref<1x8x4xf32> = dense<[[[… >
  memref.global "private" constant @__constant_1x4x2xf32 : memref<1x4x2xf32> = dense<[[[-0.649729251, -0.36405158], [0.711094856, -0.165482044], [-0.528160095, -0.548771381], [0.198056698, 0.657765388]]]>
  memref.global "private" constant @__constant_8xf32 : memref<8xf32> = dense<0.000000e+00>
  memref.global "private" constant @__constant_4xf32 : memref<4xf32> = dense<0.000000e+00>
  memref.global "private" constant @__constant_2xf32 : memref<2xf32> = dense<0.000000e+00>
  func.func @main(%arg0: memref<4x32x32x1xf32>, %arg1: memref<4x2xf32>) attributes {tf.entry_function = {control_outputs = "", inputs = "x1", outputs = "Identity"}} {
    %cst = arith.constant 0.000000e+00 : f32
    %cst_0 = arith.constant 3.40282347E+38 : f32
    %cst_1 = arith.constant 1.000000e+00 : f32
    %0 = memref.get_global @__constant_2xf32 : memref<2xf32>
    %1 = memref.get_global @__constant_4xf32 : memref<4xf32>
    %2 = memref.get_global @__constant_8xf32 : memref<8xf32>
    %3 = memref.get_global @__constant_1x4x2xf32 : memref<1x4x2xf32>
    %4 = memref.get_global @__constant_1x8x4xf32 : memref<1x8x4xf32>
    %5 = memref.get_global @__constant_1x256x8xf32 : memref<1x256x8xf32>
    %6 = memref.get_global @__constant_1xf32 : memref<1xf32>
    %7 = memref.get_global @__constant_5x5x1x1xf32 : memref<5x5x1x1xf32>
    %8 = memref.alloc() {alignment = 128 : i64} : memref<1x5x5x1xf32>
    linalg.generic {indexing_maps = [#map0, #map1], iterator_types = ["parallel", "parallel", "parallel", "parallel"]} ins(%7 : memref<5x5x1x1xf32>) outs(%8 : memref<1x5x5x1xf32>) {
    ^bb0(%arg2: f32, %arg3: f32):
      linalg.yield %arg2 : f32
    }
    %9 = memref.alloc() {alignment = 128 : i64} : memref<4x35x35x1xf32>
    linalg.fill ins(%cst : f32) outs(%9 : memref<4x35x35x1xf32>)
    %10 = memref.alloc() {alignment = 128 : i64} : memref<4x35x35x1xf32>
    memref.copy %9, %10 : memref<4x35x35x1xf32> to memref<4x35x35x1xf32>
    memref.dealloc %9 : memref<4x35x35x1xf32>
    %11 = memref.subview %10[0, 1, 1, 0] [4, 32, 32, 1] [1, 1, 1, 1] : memref<4x35x35x1xf32> to memref<4x32x32x1xf32, #map2>
    memref.copy %arg0, %11 : memref<4x32x32x1xf32> to memref<4x32x32x1xf32, #map2>
    %12 = memref.alloc() {alignment = 128 : i64} : memref<5x5x1x1xf32>
    linalg.generic {indexing_maps = [#map3, #map1], iterator_types = ["parallel", "parallel", "parallel", "parallel"]} ins(%8 : memref<1x5x5x1xf32>) outs(%12 : memref<5x5x1x1xf32>) {
    ^bb0(%arg2: f32, %arg3: f32):
      linalg.yield %arg2 : f32
    }
    memref.dealloc %8 : memref<1x5x5x1xf32>
    %13 = memref.alloc() {alignment = 128 : i64} : memref<4x16x16x1xf32>
    linalg.fill ins(%cst : f32) outs(%13 : memref<4x16x16x1xf32>)
    %14 = memref.alloc() {alignment = 128 : i64} : memref<4x16x16x1xf32>
    memref.copy %13, %14 : memref<4x16x16x1xf32> to memref<4x16x16x1xf32>
    memref.dealloc %13 : memref<4x16x16x1xf32>
    linalg.conv_2d_nhwc_hwcf {dilations = dense<1> : tensor<2xi64>, strides = dense<2> : tensor<2xi64>} ins(%10, %12 : memref<4x35x35x1xf32>, memref<5x5x1x1xf32>) outs(%14 : memref<4x16x16x1xf32>)
    memref.dealloc %12 : memref<5x5x1x1xf32>
    memref.dealloc %10 : memref<4x35x35x1xf32>
    %15 = memref.alloc() {alignment = 128 : i64} : memref<4x16x16x1xf32>
    linalg.generic {indexing_maps = [#map4, #map1, #map1], iterator_types = ["parallel", "parallel", "parallel", "parallel"]} ins(%6, %14 : memref<1xf32>, memref<4x16x16x1xf32>) outs(%15 : memref<4x16x16x1xf32>) {
    ^bb0(%arg2: f32, %arg3: f32, %arg4: f32):
      %42 = arith.addf %arg2, %arg3 : f32
      linalg.yield %42 : f32
    }
    memref.dealloc %14 : memref<4x16x16x1xf32>
    %16 = memref.alloc() {alignment = 128 : i64} : memref<4x16x16x1xf32>
    linalg.generic {indexing_maps = [#map1, #map1], iterator_types = ["parallel", "parallel", "parallel", "parallel"]} ins(%15 : memref<4x16x16x1xf32>) outs(%16 : memref<4x16x16x1xf32>) {
    ^bb0(%arg2: f32, %arg3: f32):
      %42 = arith.cmpf olt, %arg2, %cst : f32
      %43 = arith.select %42, %cst, %arg2 : f32
      %44 = arith.cmpf olt, %cst_0, %arg2 : f32
      %45 = arith.select %44, %cst_0, %43 : f32
      linalg.yield %45 : f32
    }
    memref.dealloc %15 : memref<4x16x16x1xf32>
    %17 = memref.collapse_shape %16 [[0], [1, 2, 3]] : memref<4x16x16x1xf32> into memref<4x256xf32>
    %18 = memref.expand_shape %17 [[0, 1], [2]] : memref<4x256xf32> into memref<1x4x256xf32>
    %19 = memref.alloc() {alignment = 128 : i64} : memref<1x4x8xf32>
    linalg.fill ins(%cst : f32) outs(%19 : memref<1x4x8xf32>)
    %20 = memref.alloc() {alignment = 128 : i64} : memref<1x4x8xf32>
    memref.copy %19, %20 : memref<1x4x8xf32> to memref<1x4x8xf32>
    memref.dealloc %19 : memref<1x4x8xf32>
    linalg.batch_matmul ins(%18, %5 : memref<1x4x256xf32>, memref<1x256x8xf32>) outs(%20 : memref<1x4x8xf32>)
    memref.dealloc %16 : memref<4x16x16x1xf32>
    %21 = memref.collapse_shape %20 [[0, 1], [2]] : memref<1x4x8xf32> into memref<4x8xf32>
    %22 = memref.alloc() {alignment = 128 : i64} : memref<4x8xf32>
    linalg.generic {indexing_maps = [#map5, #map6, #map5], iterator_types = ["parallel", "parallel"]} ins(%21, %2 : memref<4x8xf32>, memref<8xf32>) outs(%22 : memref<4x8xf32>) {
    ^bb0(%arg2: f32, %arg3: f32, %arg4: f32):
      %42 = arith.addf %arg2, %arg3 : f32
      linalg.yield %42 : f32
    }
    memref.dealloc %20 : memref<1x4x8xf32>
    %23 = memref.alloc() {alignment = 128 : i64} : memref<4x8xf32>
    linalg.generic {indexing_maps = [#map5, #map5], iterator_types = ["parallel", "parallel"]} ins(%22 : memref<4x8xf32>) outs(%23 : memref<4x8xf32>) {
    ^bb0(%arg2: f32, %arg3: f32):
      %42 = arith.cmpf olt, %arg2, %cst : f32
      %43 = arith.select %42, %cst, %arg2 : f32
      %44 = arith.cmpf olt, %cst_0, %arg2 : f32
      %45 = arith.select %44, %cst_0, %43 : f32
      linalg.yield %45 : f32
    }
    memref.dealloc %22 : memref<4x8xf32>
    %24 = memref.expand_shape %23 [[0, 1], [2]] : memref<4x8xf32> into memref<1x4x8xf32>
    %25 = memref.alloc() {alignment = 128 : i64} : memref<1x4x4xf32>
    linalg.fill ins(%cst : f32) outs(%25 : memref<1x4x4xf32>)
    %26 = memref.alloc() {alignment = 128 : i64} : memref<1x4x4xf32>
    memref.copy %25, %26 : memref<1x4x4xf32> to memref<1x4x4xf32>
    memref.dealloc %25 : memref<1x4x4xf32>
    soda.launch_func  @main_kernel::@main_kernel args(%24 : memref<1x4x8xf32>, %4 : memref<1x8x4xf32>, %26 : memref<1x4x4xf32>)
    memref.dealloc %23 : memref<4x8xf32>
    %27 = memref.collapse_shape %26 [[0, 1], [2]] : memref<1x4x4xf32> into memref<4x4xf32>
    %28 = memref.alloc() {alignment = 128 : i64} : memref<4x4xf32>
    linalg.generic {indexing_maps = [#map5, #map6, #map5], iterator_types = ["parallel", "parallel"]} ins(%27, %1 : memref<4x4xf32>, memref<4xf32>) outs(%28 : memref<4x4xf32>) {
    ^bb0(%arg2: f32, %arg3: f32, %arg4: f32):
      %42 = arith.addf %arg2, %arg3 : f32
      linalg.yield %42 : f32
    }
    memref.dealloc %26 : memref<1x4x4xf32>
    %29 = memref.alloc() {alignment = 128 : i64} : memref<4x4xf32>
    linalg.generic {indexing_maps = [#map5, #map5], iterator_types = ["parallel", "parallel"]} ins(%28 : memref<4x4xf32>) outs(%29 : memref<4x4xf32>) {
    ^bb0(%arg2: f32, %arg3: f32):
      %42 = arith.cmpf olt, %arg2, %cst : f32
      %43 = arith.select %42, %cst, %arg2 : f32
      %44 = arith.cmpf olt, %cst_0, %arg2 : f32
      %45 = arith.select %44, %cst_0, %43 : f32
      linalg.yield %45 : f32
    }
    memref.dealloc %28 : memref<4x4xf32>
    %30 = memref.expand_shape %29 [[0, 1], [2]] : memref<4x4xf32> into memref<1x4x4xf32>
    %31 = memref.alloc() {alignment = 128 : i64} : memref<1x4x2xf32>
    linalg.fill ins(%cst : f32) outs(%31 : memref<1x4x2xf32>)
    %32 = memref.alloc() {alignment = 128 : i64} : memref<1x4x2xf32>
    memref.copy %31, %32 : memref<1x4x2xf32> to memref<1x4x2xf32>
    memref.dealloc %31 : memref<1x4x2xf32>
    linalg.batch_matmul ins(%30, %3 : memref<1x4x4xf32>, memref<1x4x2xf32>) outs(%32 : memref<1x4x2xf32>)
    memref.dealloc %29 : memref<4x4xf32>
    %33 = memref.collapse_shape %32 [[0, 1], [2]] : memref<1x4x2xf32> into memref<4x2xf32>
    %34 = memref.alloc() {alignment = 128 : i64} : memref<4x2xf32>
    linalg.generic {indexing_maps = [#map5, #map6, #map5], iterator_types = ["parallel", "parallel"]} ins(%33, %0 : memref<4x2xf32>, memref<2xf32>) outs(%34 : memref<4x2xf32>) {
    ^bb0(%arg2: f32, %arg3: f32, %arg4: f32):
      %42 = arith.addf %arg2, %arg3 : f32
      linalg.yield %42 : f32
    }
    memref.dealloc %32 : memref<1x4x2xf32>
    %35 = memref.alloc() {alignment = 128 : i64} : memref<4x2xf32>
    linalg.generic {indexing_maps = [#map5, #map5], iterator_types = ["parallel", "parallel"]} ins(%34 : memref<4x2xf32>) outs(%35 : memref<4x2xf32>) {
    ^bb0(%arg2: f32, %arg3: f32):
      %42 = math.exp %arg2 : f32
      linalg.yield %42 : f32
    }
    memref.dealloc %34 : memref<4x2xf32>
    %36 = memref.alloc() {alignment = 128 : i64} : memref<4xf32>
    linalg.fill ins(%cst : f32) outs(%36 : memref<4xf32>)
    %37 = memref.alloc() {alignment = 128 : i64} : memref<4xf32>
    memref.copy %36, %37 : memref<4xf32> to memref<4xf32>
    memref.dealloc %36 : memref<4xf32>
    linalg.generic {indexing_maps = [#map5, #map7], iterator_types = ["parallel", "reduction"]} ins(%35 : memref<4x2xf32>) outs(%37 : memref<4xf32>) {
    ^bb0(%arg2: f32, %arg3: f32):
      %42 = arith.addf %arg2, %arg3 : f32
      linalg.yield %42 : f32
    }
    %38 = memref.expand_shape %37 [[0, 1]] : memref<4xf32> into memref<4x1xf32>
    %39 = memref.alloc() {alignment = 128 : i64} : memref<4x1xf32>
    linalg.generic {indexing_maps = [#map5, #map5], iterator_types = ["parallel", "parallel"]} ins(%38 : memref<4x1xf32>) outs(%39 : memref<4x1xf32>) {
    ^bb0(%arg2: f32, %arg3: f32):
      %42 = arith.divf %cst_1, %arg2 : f32
      linalg.yield %42 : f32
    }
    memref.dealloc %37 : memref<4xf32>
    %40 = memref.collapse_shape %39 [[0, 1]] : memref<4x1xf32> into memref<4xf32>
    %41 = memref.alloc() {alignment = 128 : i64} : memref<4x2xf32>
    linalg.generic {indexing_maps = [#map5, #map7, #map5], iterator_types = ["parallel", "parallel"]} ins(%35, %40 : memref<4x2xf32>, memref<4xf32>) outs(%41 : memref<4x2xf32>) {
    ^bb0(%arg2: f32, %arg3: f32, %arg4: f32):
      %42 = arith.mulf %arg2, %arg3 : f32
      linalg.yield %42 : f32
    }
    memref.dealloc %39 : memref<4x1xf32>
    memref.dealloc %35 : memref<4x2xf32>
    memref.copy %41, %arg1 : memref<4x2xf32> to memref<4x2xf32>
    return
  }
  soda.module @main_kernel {
    soda.func @main_kernel(%arg0: memref<1x4x8xf32>, %arg1: memref<1x8x4xf32>, %arg2: memref<1x4x4xf32>) kernel{
      cf.br ^bb1
    ^bb1:  // pred: ^bb0
      linalg.batch_matmul ins(%arg0, %arg1 : memref<1x4x8xf32>, memref<1x8x4xf32>) outs(%arg2 : memref<1x4x4xf32>)
      soda.return
    }
  }
}


// -----// IR Dump After SodaKernelGeneration //----- //
module attributes {soda.bambu.container_module, soda.container_module, tf.versions = {bad_consumers = [], min_consumer = 0 : i32, producer = 1087 : i32}} {
  func.func @main_kernel(%arg0: memref<1x4x8xf32> {llvm.noalias}, %arg1: memref<1x8x4xf32> {llvm.noalias}, %arg2: memref<1x4x4xf32> {llvm.noalias}) {
    cf.br ^bb1
  ^bb1:  // pred: ^bb0
    linalg.batch_matmul ins(%arg0, %arg1 : memref<1x4x8xf32>, memref<1x8x4xf32>) outs(%arg2 : memref<1x4x4xf32>)
    return
  }
}


// -----// IR Dump After LinalgLowerToAffineLoops //----- //
func.func @main_kernel(%arg0: memref<1x4x8xf32> {llvm.noalias}, %arg1: memref<1x8x4xf32> {llvm.noalias}, %arg2: memref<1x4x4xf32> {llvm.noalias}) {
  cf.br ^bb1
^bb1:  // pred: ^bb0
  affine.for %arg3 = 0 to 1 {
    affine.for %arg4 = 0 to 4 {
      affine.for %arg5 = 0 to 4 {
        affine.for %arg6 = 0 to 8 {
          %0 = affine.load %arg0[%arg3, %arg4, %arg6] : memref<1x4x8xf32>
          %1 = affine.load %arg1[%arg3, %arg6, %arg5] : memref<1x8x4xf32>
          %2 = affine.load %arg2[%arg3, %arg4, %arg5] : memref<1x4x4xf32>
          %3 = arith.mulf %0, %1 : f32
          %4 = arith.addf %2, %3 : f32
          affine.store %4, %arg2[%arg3, %arg4, %arg5] : memref<1x4x4xf32>
        }
      }
    }
  }
  return
}

// -----// IR Dump After AffineDataCopyGeneration //----- //
func.func @main_kernel(%arg0: memref<1x4x8xf32> {llvm.noalias}, %arg1: memref<1x8x4xf32> {llvm.noalias}, %arg2: memref<1x4x4xf32> {llvm.noalias}) {
  %c0 = arith.constant 0 : index
  %c0_0 = arith.constant 0 : index
  %c0_1 = arith.constant 0 : index
  %c0_2 = arith.constant 0 : index
  %c16 = arith.constant 16 : index
  %c0_3 = arith.constant 0 : index
  %c16_4 = arith.constant 16 : index
  %c0_5 = arith.constant 0 : index
  %c32 = arith.constant 32 : index
  %c0_6 = arith.constant 0 : index
  %c32_7 = arith.constant 32 : index
  %c0_8 = arith.constant 0 : index
  %c0_9 = arith.constant 0 : index
  cf.br ^bb1
^bb1:  // pred: ^bb0
  %0 = memref.alloc() : memref<1x4x8xf32>
  affine.for %arg3 = 0 to 4 {
    affine.for %arg4 = 0 to 8 {
      %3 = affine.load %arg0[0, %arg3, %arg4] : memref<1x4x8xf32>
      affine.store %3, %0[0, %arg3, %arg4] : memref<1x4x8xf32>
    }
  }
  %1 = memref.alloc() : memref<1x8x4xf32>
  affine.for %arg3 = 0 to 8 {
    affine.for %arg4 = 0 to 4 {
      %3 = affine.load %arg1[0, %arg3, %arg4] : memref<1x8x4xf32>
      affine.store %3, %1[0, %arg3, %arg4] : memref<1x8x4xf32>
    }
  }
  %2 = memref.alloc() : memref<1x4x4xf32>
  affine.for %arg3 = 0 to 4 {
    affine.for %arg4 = 0 to 4 {
      %3 = affine.load %arg2[0, %arg3, %arg4] : memref<1x4x4xf32>
      affine.store %3, %2[0, %arg3, %arg4] : memref<1x4x4xf32>
    }
  }
  affine.for %arg3 = 0 to 1 {
    affine.for %arg4 = 0 to 4 {
      affine.for %arg5 = 0 to 4 {
        affine.for %arg6 = 0 to 8 {
          %3 = affine.load %0[%arg3, %arg4, %arg6] : memref<1x4x8xf32>
          %4 = affine.load %1[%arg3, %arg6, %arg5] : memref<1x8x4xf32>
          %5 = affine.load %2[%arg3, %arg4, %arg5] : memref<1x4x4xf32>
          %6 = arith.mulf %3, %4 : f32
          %7 = arith.addf %5, %6 : f32
          affine.store %7, %2[%arg3, %arg4, %arg5] : memref<1x4x4xf32>
        }
      }
    }
  }
  affine.for %arg3 = 0 to 4 {
    affine.for %arg4 = 0 to 4 {
      %3 = affine.load %2[0, %arg3, %arg4] : memref<1x4x4xf32>
      affine.store %3, %arg2[0, %arg3, %arg4] : memref<1x4x4xf32>
    }
  }
  memref.dealloc %2 : memref<1x4x4xf32>
  memref.dealloc %1 : memref<1x8x4xf32>
  memref.dealloc %0 : memref<1x4x8xf32>
  return
}

// -----// IR Dump After EraseMemrefDealloc //----- //
module attributes {soda.bambu.container_module, soda.container_module, tf.versions = {bad_consumers = [], min_consumer = 0 : i32, producer = 1087 : i32}} {
  func.func @main_kernel(%arg0: memref<1x4x8xf32> {llvm.noalias}, %arg1: memref<1x8x4xf32> {llvm.noalias}, %arg2: memref<1x4x4xf32> {llvm.noalias}) {
    cf.br ^bb1
  ^bb1:  // pred: ^bb0
    %0 = memref.alloc() : memref<1x4x8xf32>
    affine.for %arg3 = 0 to 4 {
      affine.for %arg4 = 0 to 8 {
        %3 = affine.load %arg0[0, %arg3, %arg4] : memref<1x4x8xf32>
        affine.store %3, %0[0, %arg3, %arg4] : memref<1x4x8xf32>
      }
    }
    %1 = memref.alloc() : memref<1x8x4xf32>
    affine.for %arg3 = 0 to 8 {
      affine.for %arg4 = 0 to 4 {
        %3 = affine.load %arg1[0, %arg3, %arg4] : memref<1x8x4xf32>
        affine.store %3, %1[0, %arg3, %arg4] : memref<1x8x4xf32>
      }
    }
    %2 = memref.alloc() : memref<1x4x4xf32>
    affine.for %arg3 = 0 to 4 {
      affine.for %arg4 = 0 to 4 {
        %3 = affine.load %arg2[0, %arg3, %arg4] : memref<1x4x4xf32>
        affine.store %3, %2[0, %arg3, %arg4] : memref<1x4x4xf32>
      }
    }
    affine.for %arg3 = 0 to 1 {
      affine.for %arg4 = 0 to 4 {
        affine.for %arg5 = 0 to 4 {
          affine.for %arg6 = 0 to 8 {
            %3 = affine.load %0[%arg3, %arg4, %arg6] : memref<1x4x8xf32>
            %4 = affine.load %1[%arg3, %arg6, %arg5] : memref<1x8x4xf32>
            %5 = affine.load %2[%arg3, %arg4, %arg5] : memref<1x4x4xf32>
            %6 = arith.mulf %3, %4 : f32
            %7 = arith.addf %5, %6 : f32
            affine.store %7, %2[%arg3, %arg4, %arg5] : memref<1x4x4xf32>
          }
        }
      }
    }
    affine.for %arg3 = 0 to 4 {
      affine.for %arg4 = 0 to 4 {
        %3 = affine.load %2[0, %arg3, %arg4] : memref<1x4x4xf32>
        affine.store %3, %arg2[0, %arg3, %arg4] : memref<1x4x4xf32>
      }
    }
    return
  }
}


// -----// IR Dump After PromoteBuffersToStack //----- //
func.func @main_kernel(%arg0: memref<1x4x8xf32> {llvm.noalias}, %arg1: memref<1x8x4xf32> {llvm.noalias}, %arg2: memref<1x4x4xf32> {llvm.noalias}) {
  cf.br ^bb1
^bb1:  // pred: ^bb0
  %0 = memref.alloca() : memref<1x4x8xf32>
  affine.for %arg3 = 0 to 4 {
    affine.for %arg4 = 0 to 8 {
      %3 = affine.load %arg0[0, %arg3, %arg4] : memref<1x4x8xf32>
      affine.store %3, %0[0, %arg3, %arg4] : memref<1x4x8xf32>
    }
  }
  %1 = memref.alloca() : memref<1x8x4xf32>
  affine.for %arg3 = 0 to 8 {
    affine.for %arg4 = 0 to 4 {
      %3 = affine.load %arg1[0, %arg3, %arg4] : memref<1x8x4xf32>
      affine.store %3, %1[0, %arg3, %arg4] : memref<1x8x4xf32>
    }
  }
  %2 = memref.alloca() : memref<1x4x4xf32>
  affine.for %arg3 = 0 to 4 {
    affine.for %arg4 = 0 to 4 {
      %3 = affine.load %arg2[0, %arg3, %arg4] : memref<1x4x4xf32>
      affine.store %3, %2[0, %arg3, %arg4] : memref<1x4x4xf32>
    }
  }
  affine.for %arg3 = 0 to 1 {
    affine.for %arg4 = 0 to 4 {
      affine.for %arg5 = 0 to 4 {
        affine.for %arg6 = 0 to 8 {
          %3 = affine.load %0[%arg3, %arg4, %arg6] : memref<1x4x8xf32>
          %4 = affine.load %1[%arg3, %arg6, %arg5] : memref<1x8x4xf32>
          %5 = affine.load %2[%arg3, %arg4, %arg5] : memref<1x4x4xf32>
          %6 = arith.mulf %3, %4 : f32
          %7 = arith.addf %5, %6 : f32
          affine.store %7, %2[%arg3, %arg4, %arg5] : memref<1x4x4xf32>
        }
      }
    }
  }
  affine.for %arg3 = 0 to 4 {
    affine.for %arg4 = 0 to 4 {
      %3 = affine.load %2[0, %arg3, %arg4] : memref<1x4x4xf32>
      affine.store %3, %arg2[0, %arg3, %arg4] : memref<1x4x4xf32>
    }
  }
  return
}

// -----// IR Dump After AffineLoopUnroll //----- //
func.func @main_kernel(%arg0: memref<1x4x8xf32> {llvm.noalias}, %arg1: memref<1x8x4xf32> {llvm.noalias}, %arg2: memref<1x4x4xf32> {llvm.noalias}) {
  %c0 = arith.constant 0 : index
  %c0_0 = arith.constant 0 : index
  %c0_1 = arith.constant 0 : index
  %c0_2 = arith.constant 0 : index
  %c0_3 = arith.constant 0 : index
  cf.br ^bb1
^bb1:  // pred: ^bb0
  %0 = memref.alloca() : memref<1x4x8xf32>
  affine.for %arg3 = 0 to 4 {
    %3 = affine.load %arg0[0, %arg3, %c0_3] : memref<1x4x8xf32>
    affine.store %3, %0[0, %arg3, %c0_3] : memref<1x4x8xf32>
    %4 = affine.apply affine_map<(d0) -> (d0 + 1)>(%c0_3)
    %5 = affine.load %arg0[0, %arg3, %4] : memref<1x4x8xf32>
    affine.store %5, %0[0, %arg3, %4] : memref<1x4x8xf32>
    %6 = affine.apply affine_map<(d0) -> (d0 + 2)>(%c0_3)
    %7 = affine.load %arg0[0, %arg3, %6] : memref<1x4x8xf32>
    affine.store %7, %0[0, %arg3, %6] : memref<1x4x8xf32>
    %8 = affine.apply affine_map<(d0) -> (d0 + 3)>(%c0_3)
    %9 = affine.load %arg0[0, %arg3, %8] : memref<1x4x8xf32>
    affine.store %9, %0[0, %arg3, %8] : memref<1x4x8xf32>
    %10 = affine.apply affine_map<(d0) -> (d0 + 4)>(%c0_3)
    %11 = affine.load %arg0[0, %arg3, %10] : memref<1x4x8xf32>
    affine.store %11, %0[0, %arg3, %10] : memref<1x4x8xf32>
    %12 = affine.apply affine_map<(d0) -> (d0 + 5)>(%c0_3)
    %13 = affine.load %arg0[0, %arg3, %12] : memref<1x4x8xf32>
    affine.store %13, %0[0, %arg3, %12] : memref<1x4x8xf32>
    %14 = affine.apply affine_map<(d0) -> (d0 + 6)>(%c0_3)
    %15 = affine.load %arg0[0, %arg3, %14] : memref<1x4x8xf32>
    affine.store %15, %0[0, %arg3, %14] : memref<1x4x8xf32>
    %16 = affine.apply affine_map<(d0) -> (d0 + 7)>(%c0_3)
    %17 = affine.load %arg0[0, %arg3, %16] : memref<1x4x8xf32>
    affine.store %17, %0[0, %arg3, %16] : memref<1x4x8xf32>
  }
  %1 = memref.alloca() : memref<1x8x4xf32>
  affine.for %arg3 = 0 to 8 {
    %3 = affine.load %arg1[0, %arg3, %c0_2] : memref<1x8x4xf32>
    affine.store %3, %1[0, %arg3, %c0_2] : memref<1x8x4xf32>
    %4 = affine.apply affine_map<(d0) -> (d0 + 1)>(%c0_2)
    %5 = affine.load %arg1[0, %arg3, %4] : memref<1x8x4xf32>
    affine.store %5, %1[0, %arg3, %4] : memref<1x8x4xf32>
    %6 = affine.apply affine_map<(d0) -> (d0 + 2)>(%c0_2)
    %7 = affine.load %arg1[0, %arg3, %6] : memref<1x8x4xf32>
    affine.store %7, %1[0, %arg3, %6] : memref<1x8x4xf32>
    %8 = affine.apply affine_map<(d0) -> (d0 + 3)>(%c0_2)
    %9 = affine.load %arg1[0, %arg3, %8] : memref<1x8x4xf32>
    affine.store %9, %1[0, %arg3, %8] : memref<1x8x4xf32>
  }
  %2 = memref.alloca() : memref<1x4x4xf32>
  affine.for %arg3 = 0 to 4 {
    %3 = affine.load %arg2[0, %arg3, %c0_1] : memref<1x4x4xf32>
    affine.store %3, %2[0, %arg3, %c0_1] : memref<1x4x4xf32>
    %4 = affine.apply affine_map<(d0) -> (d0 + 1)>(%c0_1)
    %5 = affine.load %arg2[0, %arg3, %4] : memref<1x4x4xf32>
    affine.store %5, %2[0, %arg3, %4] : memref<1x4x4xf32>
    %6 = affine.apply affine_map<(d0) -> (d0 + 2)>(%c0_1)
    %7 = affine.load %arg2[0, %arg3, %6] : memref<1x4x4xf32>
    affine.store %7, %2[0, %arg3, %6] : memref<1x4x4xf32>
    %8 = affine.apply affine_map<(d0) -> (d0 + 3)>(%c0_1)
    %9 = affine.load %arg2[0, %arg3, %8] : memref<1x4x4xf32>
    affine.store %9, %2[0, %arg3, %8] : memref<1x4x4xf32>
  }
  affine.for %arg3 = 0 to 1 {
    affine.for %arg4 = 0 to 4 {
      affine.for %arg5 = 0 to 4 {
        %3 = affine.load %0[%arg3, %arg4, %c0_0] : memref<1x4x8xf32>
        %4 = affine.load %1[%arg3, %c0_0, %arg5] : memref<1x8x4xf32>
        %5 = affine.load %2[%arg3, %arg4, %arg5] : memref<1x4x4xf32>
        %6 = arith.mulf %3, %4 : f32
        %7 = arith.addf %5, %6 : f32
        affine.store %7, %2[%arg3, %arg4, %arg5] : memref<1x4x4xf32>
        %8 = affine.apply affine_map<(d0) -> (d0 + 1)>(%c0_0)
        %9 = affine.load %0[%arg3, %arg4, %8] : memref<1x4x8xf32>
        %10 = affine.load %1[%arg3, %8, %arg5] : memref<1x8x4xf32>
        %11 = affine.load %2[%arg3, %arg4, %arg5] : memref<1x4x4xf32>
        %12 = arith.mulf %9, %10 : f32
        %13 = arith.addf %11, %12 : f32
        affine.store %13, %2[%arg3, %arg4, %arg5] : memref<1x4x4xf32>
        %14 = affine.apply affine_map<(d0) -> (d0 + 2)>(%c0_0)
        %15 = affine.load %0[%arg3, %arg4, %14] : memref<1x4x8xf32>
        %16 = affine.load %1[%arg3, %14, %arg5] : memref<1x8x4xf32>
        %17 = affine.load %2[%arg3, %arg4, %arg5] : memref<1x4x4xf32>
        %18 = arith.mulf %15, %16 : f32
        %19 = arith.addf %17, %18 : f32
        affine.store %19, %2[%arg3, %arg4, %arg5] : memref<1x4x4xf32>
        %20 = affine.apply affine_map<(d0) -> (d0 + 3)>(%c0_0)
        %21 = affine.load %0[%arg3, %arg4, %20] : memref<1x4x8xf32>
        %22 = affine.load %1[%arg3, %20, %arg5] : memref<1x8x4xf32>
        %23 = affine.load %2[%arg3, %arg4, %arg5] : memref<1x4x4xf32>
        %24 = arith.mulf %21, %22 : f32
        %25 = arith.addf %23, %24 : f32
        affine.store %25, %2[%arg3, %arg4, %arg5] : memref<1x4x4xf32>
        %26 = affine.apply affine_map<(d0) -> (d0 + 4)>(%c0_0)
        %27 = affine.load %0[%arg3, %arg4, %26] : memref<1x4x8xf32>
        %28 = affine.load %1[%arg3, %26, %arg5] : memref<1x8x4xf32>
        %29 = affine.load %2[%arg3, %arg4, %arg5] : memref<1x4x4xf32>
        %30 = arith.mulf %27, %28 : f32
        %31 = arith.addf %29, %30 : f32
        affine.store %31, %2[%arg3, %arg4, %arg5] : memref<1x4x4xf32>
        %32 = affine.apply affine_map<(d0) -> (d0 + 5)>(%c0_0)
        %33 = affine.load %0[%arg3, %arg4, %32] : memref<1x4x8xf32>
        %34 = affine.load %1[%arg3, %32, %arg5] : memref<1x8x4xf32>
        %35 = affine.load %2[%arg3, %arg4, %arg5] : memref<1x4x4xf32>
        %36 = arith.mulf %33, %34 : f32
        %37 = arith.addf %35, %36 : f32
        affine.store %37, %2[%arg3, %arg4, %arg5] : memref<1x4x4xf32>
        %38 = affine.apply affine_map<(d0) -> (d0 + 6)>(%c0_0)
        %39 = affine.load %0[%arg3, %arg4, %38] : memref<1x4x8xf32>
        %40 = affine.load %1[%arg3, %38, %arg5] : memref<1x8x4xf32>
        %41 = affine.load %2[%arg3, %arg4, %arg5] : memref<1x4x4xf32>
        %42 = arith.mulf %39, %40 : f32
        %43 = arith.addf %41, %42 : f32
        affine.store %43, %2[%arg3, %arg4, %arg5] : memref<1x4x4xf32>
        %44 = affine.apply affine_map<(d0) -> (d0 + 7)>(%c0_0)
        %45 = affine.load %0[%arg3, %arg4, %44] : memref<1x4x8xf32>
        %46 = affine.load %1[%arg3, %44, %arg5] : memref<1x8x4xf32>
        %47 = affine.load %2[%arg3, %arg4, %arg5] : memref<1x4x4xf32>
        %48 = arith.mulf %45, %46 : f32
        %49 = arith.addf %47, %48 : f32
        affine.store %49, %2[%arg3, %arg4, %arg5] : memref<1x4x4xf32>
      }
    }
  }
  affine.for %arg3 = 0 to 4 {
    %3 = affine.load %2[0, %arg3, %c0] : memref<1x4x4xf32>
    affine.store %3, %arg2[0, %arg3, %c0] : memref<1x4x4xf32>
    %4 = affine.apply affine_map<(d0) -> (d0 + 1)>(%c0)
    %5 = affine.load %2[0, %arg3, %4] : memref<1x4x4xf32>
    affine.store %5, %arg2[0, %arg3, %4] : memref<1x4x4xf32>
    %6 = affine.apply affine_map<(d0) -> (d0 + 2)>(%c0)
    %7 = affine.load %2[0, %arg3, %6] : memref<1x4x4xf32>
    affine.store %7, %arg2[0, %arg3, %6] : memref<1x4x4xf32>
    %8 = affine.apply affine_map<(d0) -> (d0 + 3)>(%c0)
    %9 = affine.load %2[0, %arg3, %8] : memref<1x4x4xf32>
    affine.store %9, %arg2[0, %arg3, %8] : memref<1x4x4xf32>
  }
  return
}

// -----// IR Dump After AffineLoopUnroll //----- //
func.func @main_kernel(%arg0: memref<1x4x8xf32> {llvm.noalias}, %arg1: memref<1x8x4xf32> {llvm.noalias}, %arg2: memref<1x4x4xf32> {llvm.noalias}) {
  %c0 = arith.constant 0 : index
  %c0_0 = arith.constant 0 : index
  %c0_1 = arith.constant 0 : index
  %c0_2 = arith.constant 0 : index
  %c0_3 = arith.constant 0 : index
  %c0_4 = arith.constant 0 : index
  %c0_5 = arith.constant 0 : index
  %c0_6 = arith.constant 0 : index
  %c0_7 = arith.constant 0 : index
  %c0_8 = arith.constant 0 : index
  cf.br ^bb1
^bb1:  // pred: ^bb0
  %0 = memref.alloca() : memref<1x4x8xf32>
  %1 = affine.load %arg0[0, %c0_3, %c0_8] : memref<1x4x8xf32>
  affine.store %1, %0[0, %c0_3, %c0_8] : memref<1x4x8xf32>
  %2 = affine.apply affine_map<(d0) -> (d0 + 1)>(%c0_8)
  %3 = affine.load %arg0[0, %c0_3, %2] : memref<1x4x8xf32>
  affine.store %3, %0[0, %c0_3, %2] : memref<1x4x8xf32>
  %4 = affine.apply affine_map<(d0) -> (d0 + 2)>(%c0_8)
  %5 = affine.load %arg0[0, %c0_3, %4] : memref<1x4x8xf32>
  affine.store %5, %0[0, %c0_3, %4] : memref<1x4x8xf32>
  %6 = affine.apply affine_map<(d0) -> (d0 + 3)>(%c0_8)
  %7 = affine.load %arg0[0, %c0_3, %6] : memref<1x4x8xf32>
  affine.store %7, %0[0, %c0_3, %6] : memref<1x4x8xf32>
  %8 = affine.apply affine_map<(d0) -> (d0 + 4)>(%c0_8)
  %9 = affine.load %arg0[0, %c0_3, %8] : memref<1x4x8xf32>
  affine.store %9, %0[0, %c0_3, %8] : memref<1x4x8xf32>
  %10 = affine.apply affine_map<(d0) -> (d0 + 5)>(%c0_8)
  %11 = affine.load %arg0[0, %c0_3, %10] : memref<1x4x8xf32>
  affine.store %11, %0[0, %c0_3, %10] : memref<1x4x8xf32>
  %12 = affine.apply affine_map<(d0) -> (d0 + 6)>(%c0_8)
  %13 = affine.load %arg0[0, %c0_3, %12] : memref<1x4x8xf32>
  affine.store %13, %0[0, %c0_3, %12] : memref<1x4x8xf32>
  %14 = affine.apply affine_map<(d0) -> (d0 + 7)>(%c0_8)
  %15 = affine.load %arg0[0, %c0_3, %14] : memref<1x4x8xf32>
  affine.store %15, %0[0, %c0_3, %14] : memref<1x4x8xf32>
  %16 = affine.apply affine_map<(d0) -> (d0 + 1)>(%c0_3)
  %17 = affine.load %arg0[0, %16, %c0_8] : memref<1x4x8xf32>
  affine.store %17, %0[0, %16, %c0_8] : memref<1x4x8xf32>
  %18 = affine.apply affine_map<(d0) -> (d0 + 1)>(%c0_8)
  %19 = affine.load %arg0[0, %16, %18] : memref<1x4x8xf32>
  affine.store %19, %0[0, %16, %18] : memref<1x4x8xf32>
  %20 = affine.apply affine_map<(d0) -> (d0 + 2)>(%c0_8)
  %21 = affine.load %arg0[0, %16, %20] : memref<1x4x8xf32>
  affine.store %21, %0[0, %16, %20] : memref<1x4x8xf32>
  %22 = affine.apply affine_map<(d0) -> (d0 + 3)>(%c0_8)
  %23 = affine.load %arg0[0, %16, %22] : memref<1x4x8xf32>
  affine.store %23, %0[0, %16, %22] : memref<1x4x8xf32>
  %24 = affine.apply affine_map<(d0) -> (d0 + 4)>(%c0_8)
  %25 = affine.load %arg0[0, %16, %24] : memref<1x4x8xf32>
  affine.store %25, %0[0, %16, %24] : memref<1x4x8xf32>
  %26 = affine.apply affine_map<(d0) -> (d0 + 5)>(%c0_8)
  %27 = affine.load %arg0[0, %16, %26] : memref<1x4x8xf32>
  affine.store %27, %0[0, %16, %26] : memref<1x4x8xf32>
  %28 = affine.apply affine_map<(d0) -> (d0 + 6)>(%c0_8)
  %29 = affine.load %arg0[0, %16, %28] : memref<1x4x8xf32>
  affine.store %29, %0[0, %16, %28] : memref<1x4x8xf32>
  %30 = affine.apply affine_map<(d0) -> (d0 + 7)>(%c0_8)
  %31 = affine.load %arg0[0, %16, %30] : memref<1x4x8xf32>
  affine.store %31, %0[0, %16, %30] : memref<1x4x8xf32>
  %32 = affine.apply affine_map<(d0) -> (d0 + 2)>(%c0_3)
  %33 = affine.load %arg0[0, %32, %c0_8] : memref<1x4x8xf32>
  affine.store %33, %0[0, %32, %c0_8] : memref<1x4x8xf32>
  %34 = affine.apply affine_map<(d0) -> (d0 + 1)>(%c0_8)
  %35 = affine.load %arg0[0, %32, %34] : memref<1x4x8xf32>
  affine.store %35, %0[0, %32, %34] : memref<1x4x8xf32>
  %36 = affine.apply affine_map<(d0) -> (d0 + 2)>(%c0_8)
  %37 = affine.load %arg0[0, %32, %36] : memref<1x4x8xf32>
  affine.store %37, %0[0, %32, %36] : memref<1x4x8xf32>
  %38 = affine.apply affine_map<(d0) -> (d0 + 3)>(%c0_8)
  %39 = affine.load %arg0[0, %32, %38] : memref<1x4x8xf32>
  affine.store %39, %0[0, %32, %38] : memref<1x4x8xf32>
  %40 = affine.apply affine_map<(d0) -> (d0 + 4)>(%c0_8)
  %41 = affine.load %arg0[0, %32, %40] : memref<1x4x8xf32>
  affine.store %41, %0[0, %32, %40] : memref<1x4x8xf32>
  %42 = affine.apply affine_map<(d0) -> (d0 + 5)>(%c0_8)
  %43 = affine.load %arg0[0, %32, %42] : memref<1x4x8xf32>
  affine.store %43, %0[0, %32, %42] : memref<1x4x8xf32>
  %44 = affine.apply affine_map<(d0) -> (d0 + 6)>(%c0_8)
  %45 = affine.load %arg0[0, %32, %44] : memref<1x4x8xf32>
  affine.store %45, %0[0, %32, %44] : memref<1x4x8xf32>
  %46 = affine.apply affine_map<(d0) -> (d0 + 7)>(%c0_8)
  %47 = affine.load %arg0[0, %32, %46] : memref<1x4x8xf32>
  affine.store %47, %0[0, %32, %46] : memref<1x4x8xf32>
  %48 = affine.apply affine_map<(d0) -> (d0 + 3)>(%c0_3)
  %49 = affine.load %arg0[0, %48, %c0_8] : memref<1x4x8xf32>
  affine.store %49, %0[0, %48, %c0_8] : memref<1x4x8xf32>
  %50 = affine.apply affine_map<(d0) -> (d0 + 1)>(%c0_8)
  %51 = affine.load %arg0[0, %48, %50] : memref<1x4x8xf32>
  affine.store %51, %0[0, %48, %50] : memref<1x4x8xf32>
  %52 = affine.apply affine_map<(d0) -> (d0 + 2)>(%c0_8)
  %53 = affine.load %arg0[0, %48, %52] : memref<1x4x8xf32>
  affine.store %53, %0[0, %48, %52] : memref<1x4x8xf32>
  %54 = affine.apply affine_map<(d0) -> (d0 + 3)>(%c0_8)
  %55 = affine.load %arg0[0, %48, %54] : memref<1x4x8xf32>
  affine.store %55, %0[0, %48, %54] : memref<1x4x8xf32>
  %56 = affine.apply affine_map<(d0) -> (d0 + 4)>(%c0_8)
  %57 = affine.load %arg0[0, %48, %56] : memref<1x4x8xf32>
  affine.store %57, %0[0, %48, %56] : memref<1x4x8xf32>
  %58 = affine.apply affine_map<(d0) -> (d0 + 5)>(%c0_8)
  %59 = affine.load %arg0[0, %48, %58] : memref<1x4x8xf32>
  affine.store %59, %0[0, %48, %58] : memref<1x4x8xf32>
  %60 = affine.apply affine_map<(d0) -> (d0 + 6)>(%c0_8)
  %61 = affine.load %arg0[0, %48, %60] : memref<1x4x8xf32>
  affine.store %61, %0[0, %48, %60] : memref<1x4x8xf32>
  %62 = affine.apply affine_map<(d0) -> (d0 + 7)>(%c0_8)
  %63 = affine.load %arg0[0, %48, %62] : memref<1x4x8xf32>
  affine.store %63, %0[0, %48, %62] : memref<1x4x8xf32>
  %64 = memref.alloca() : memref<1x8x4xf32>
  %65 = affine.load %arg1[0, %c0_2, %c0_7] : memref<1x8x4xf32>
  affine.store %65, %64[0, %c0_2, %c0_7] : memref<1x8x4xf32>
  %66 = affine.apply affine_map<(d0) -> (d0 + 1)>(%c0_7)
  %67 = affine.load %arg1[0, %c0_2, %66] : memref<1x8x4xf32>
  affine.store %67, %64[0, %c0_2, %66] : memref<1x8x4xf32>
  %68 = affine.apply affine_map<(d0) -> (d0 + 2)>(%c0_7)
  %69 = affine.load %arg1[0, %c0_2, %68] : memref<1x8x4xf32>
  affine.store %69, %64[0, %c0_2, %68] : memref<1x8x4xf32>
  %70 = affine.apply affine_map<(d0) -> (d0 + 3)>(%c0_7)
  %71 = affine.load %arg1[0, %c0_2, %70] : memref<1x8x4xf32>
  affine.store %71, %64[0, %c0_2, %70] : memref<1x8x4xf32>
  %72 = affine.apply affine_map<(d0) -> (d0 + 1)>(%c0_2)
  %73 = affine.load %arg1[0, %72, %c0_7] : memref<1x8x4xf32>
  affine.store %73, %64[0, %72, %c0_7] : memref<1x8x4xf32>
  %74 = affine.apply affine_map<(d0) -> (d0 + 1)>(%c0_7)
  %75 = affine.load %arg1[0, %72, %74] : memref<1x8x4xf32>
  affine.store %75, %64[0, %72, %74] : memref<1x8x4xf32>
  %76 = affine.apply affine_map<(d0) -> (d0 + 2)>(%c0_7)
  %77 = affine.load %arg1[0, %72, %76] : memref<1x8x4xf32>
  affine.store %77, %64[0, %72, %76] : memref<1x8x4xf32>
  %78 = affine.apply affine_map<(d0) -> (d0 + 3)>(%c0_7)
  %79 = affine.load %arg1[0, %72, %78] : memref<1x8x4xf32>
  affine.store %79, %64[0, %72, %78] : memref<1x8x4xf32>
  %80 = affine.apply affine_map<(d0) -> (d0 + 2)>(%c0_2)
  %81 = affine.load %arg1[0, %80, %c0_7] : memref<1x8x4xf32>
  affine.store %81, %64[0, %80, %c0_7] : memref<1x8x4xf32>
  %82 = affine.apply affine_map<(d0) -> (d0 + 1)>(%c0_7)
  %83 = affine.load %arg1[0, %80, %82] : memref<1x8x4xf32>
  affine.store %83, %64[0, %80, %82] : memref<1x8x4xf32>
  %84 = affine.apply affine_map<(d0) -> (d0 + 2)>(%c0_7)
  %85 = affine.load %arg1[0, %80, %84] : memref<1x8x4xf32>
  affine.store %85, %64[0, %80, %84] : memref<1x8x4xf32>
  %86 = affine.apply affine_map<(d0) -> (d0 + 3)>(%c0_7)
  %87 = affine.load %arg1[0, %80, %86] : memref<1x8x4xf32>
  affine.store %87, %64[0, %80, %86] : memref<1x8x4xf32>
  %88 = affine.apply affine_map<(d0) -> (d0 + 3)>(%c0_2)
  %89 = affine.load %arg1[0, %88, %c0_7] : memref<1x8x4xf32>
  affine.store %89, %64[0, %88, %c0_7] : memref<1x8x4xf32>
  %90 = affine.apply affine_map<(d0) -> (d0 + 1)>(%c0_7)
  %91 = affine.load %arg1[0, %88, %90] : memref<1x8x4xf32>
  affine.store %91, %64[0, %88, %90] : memref<1x8x4xf32>
  %92 = affine.apply affine_map<(d0) -> (d0 + 2)>(%c0_7)
  %93 = affine.load %arg1[0, %88, %92] : memref<1x8x4xf32>
  affine.store %93, %64[0, %88, %92] : memref<1x8x4xf32>
  %94 = affine.apply affine_map<(d0) -> (d0 + 3)>(%c0_7)
  %95 = affine.load %arg1[0, %88, %94] : memref<1x8x4xf32>
  affine.store %95, %64[0, %88, %94] : memref<1x8x4xf32>
  %96 = affine.apply affine_map<(d0) -> (d0 + 4)>(%c0_2)
  %97 = affine.load %arg1[0, %96, %c0_7] : memref<1x8x4xf32>
  affine.store %97, %64[0, %96, %c0_7] : memref<1x8x4xf32>
  %98 = affine.apply affine_map<(d0) -> (d0 + 1)>(%c0_7)
  %99 = affine.load %arg1[0, %96, %98] : memref<1x8x4xf32>
  affine.store %99, %64[0, %96, %98] : memref<1x8x4xf32>
  %100 = affine.apply affine_map<(d0) -> (d0 + 2)>(%c0_7)
  %101 = affine.load %arg1[0, %96, %100] : memref<1x8x4xf32>
  affine.store %101, %64[0, %96, %100] : memref<1x8x4xf32>
  %102 = affine.apply affine_map<(d0) -> (d0 + 3)>(%c0_7)
  %103 = affine.load %arg1[0, %96, %102] : memref<1x8x4xf32>
  affine.store %103, %64[0, %96, %102] : memref<1x8x4xf32>
  %104 = affine.apply affine_map<(d0) -> (d0 + 5)>(%c0_2)
  %105 = affine.load %arg1[0, %104, %c0_7] : memref<1x8x4xf32>
  affine.store %105, %64[0, %104, %c0_7] : memref<1x8x4xf32>
  %106 = affine.apply affine_map<(d0) -> (d0 + 1)>(%c0_7)
  %107 = affine.load %arg1[0, %104, %106] : memref<1x8x4xf32>
  affine.store %107, %64[0, %104, %106] : memref<1x8x4xf32>
  %108 = affine.apply affine_map<(d0) -> (d0 + 2)>(%c0_7)
  %109 = affine.load %arg1[0, %104, %108] : memref<1x8x4xf32>
  affine.store %109, %64[0, %104, %108] : memref<1x8x4xf32>
  %110 = affine.apply affine_map<(d0) -> (d0 + 3)>(%c0_7)
  %111 = affine.load %arg1[0, %104, %110] : memref<1x8x4xf32>
  affine.store %111, %64[0, %104, %110] : memref<1x8x4xf32>
  %112 = affine.apply affine_map<(d0) -> (d0 + 6)>(%c0_2)
  %113 = affine.load %arg1[0, %112, %c0_7] : memref<1x8x4xf32>
  affine.store %113, %64[0, %112, %c0_7] : memref<1x8x4xf32>
  %114 = affine.apply affine_map<(d0) -> (d0 + 1)>(%c0_7)
  %115 = affine.load %arg1[0, %112, %114] : memref<1x8x4xf32>
  affine.store %115, %64[0, %112, %114] : memref<1x8x4xf32>
  %116 = affine.apply affine_map<(d0) -> (d0 + 2)>(%c0_7)
  %117 = affine.load %arg1[0, %112, %116] : memref<1x8x4xf32>
  affine.store %117, %64[0, %112, %116] : memref<1x8x4xf32>
  %118 = affine.apply affine_map<(d0) -> (d0 + 3)>(%c0_7)
  %119 = affine.load %arg1[0, %112, %118] : memref<1x8x4xf32>
  affine.store %119, %64[0, %112, %118] : memref<1x8x4xf32>
  %120 = affine.apply affine_map<(d0) -> (d0 + 7)>(%c0_2)
  %121 = affine.load %arg1[0, %120, %c0_7] : memref<1x8x4xf32>
  affine.store %121, %64[0, %120, %c0_7] : memref<1x8x4xf32>
  %122 = affine.apply affine_map<(d0) -> (d0 + 1)>(%c0_7)
  %123 = affine.load %arg1[0, %120, %122] : memref<1x8x4xf32>
  affine.store %123, %64[0, %120, %122] : memref<1x8x4xf32>
  %124 = affine.apply affine_map<(d0) -> (d0 + 2)>(%c0_7)
  %125 = affine.load %arg1[0, %120, %124] : memref<1x8x4xf32>
  affine.store %125, %64[0, %120, %124] : memref<1x8x4xf32>
  %126 = affine.apply affine_map<(d0) -> (d0 + 3)>(%c0_7)
  %127 = affine.load %arg1[0, %120, %126] : memref<1x8x4xf32>
  affine.store %127, %64[0, %120, %126] : memref<1x8x4xf32>
  %128 = memref.alloca() : memref<1x4x4xf32>
  %129 = affine.load %arg2[0, %c0_1, %c0_6] : memref<1x4x4xf32>
  affine.store %129, %128[0, %c0_1, %c0_6] : memref<1x4x4xf32>
  %130 = affine.apply affine_map<(d0) -> (d0 + 1)>(%c0_6)
  %131 = affine.load %arg2[0, %c0_1, %130] : memref<1x4x4xf32>
  affine.store %131, %128[0, %c0_1, %130] : memref<1x4x4xf32>
  %132 = affine.apply affine_map<(d0) -> (d0 + 2)>(%c0_6)
  %133 = affine.load %arg2[0, %c0_1, %132] : memref<1x4x4xf32>
  affine.store %133, %128[0, %c0_1, %132] : memref<1x4x4xf32>
  %134 = affine.apply affine_map<(d0) -> (d0 + 3)>(%c0_6)
  %135 = affine.load %arg2[0, %c0_1, %134] : memref<1x4x4xf32>
  affine.store %135, %128[0, %c0_1, %134] : memref<1x4x4xf32>
  %136 = affine.apply affine_map<(d0) -> (d0 + 1)>(%c0_1)
  %137 = affine.load %arg2[0, %136, %c0_6] : memref<1x4x4xf32>
  affine.store %137, %128[0, %136, %c0_6] : memref<1x4x4xf32>
  %138 = affine.apply affine_map<(d0) -> (d0 + 1)>(%c0_6)
  %139 = affine.load %arg2[0, %136, %138] : memref<1x4x4xf32>
  affine.store %139, %128[0, %136, %138] : memref<1x4x4xf32>
  %140 = affine.apply affine_map<(d0) -> (d0 + 2)>(%c0_6)
  %141 = affine.load %arg2[0, %136, %140] : memref<1x4x4xf32>
  affine.store %141, %128[0, %136, %140] : memref<1x4x4xf32>
  %142 = affine.apply affine_map<(d0) -> (d0 + 3)>(%c0_6)
  %143 = affine.load %arg2[0, %136, %142] : memref<1x4x4xf32>
  affine.store %143, %128[0, %136, %142] : memref<1x4x4xf32>
  %144 = affine.apply affine_map<(d0) -> (d0 + 2)>(%c0_1)
  %145 = affine.load %arg2[0, %144, %c0_6] : memref<1x4x4xf32>
  affine.store %145, %128[0, %144, %c0_6] : memref<1x4x4xf32>
  %146 = affine.apply affine_map<(d0) -> (d0 + 1)>(%c0_6)
  %147 = affine.load %arg2[0, %144, %146] : memref<1x4x4xf32>
  affine.store %147, %128[0, %144, %146] : memref<1x4x4xf32>
  %148 = affine.apply affine_map<(d0) -> (d0 + 2)>(%c0_6)
  %149 = affine.load %arg2[0, %144, %148] : memref<1x4x4xf32>
  affine.store %149, %128[0, %144, %148] : memref<1x4x4xf32>
  %150 = affine.apply affine_map<(d0) -> (d0 + 3)>(%c0_6)
  %151 = affine.load %arg2[0, %144, %150] : memref<1x4x4xf32>
  affine.store %151, %128[0, %144, %150] : memref<1x4x4xf32>
  %152 = affine.apply affine_map<(d0) -> (d0 + 3)>(%c0_1)
  %153 = affine.load %arg2[0, %152, %c0_6] : memref<1x4x4xf32>
  affine.store %153, %128[0, %152, %c0_6] : memref<1x4x4xf32>
  %154 = affine.apply affine_map<(d0) -> (d0 + 1)>(%c0_6)
  %155 = affine.load %arg2[0, %152, %154] : memref<1x4x4xf32>
  affine.store %155, %128[0, %152, %154] : memref<1x4x4xf32>
  %156 = affine.apply affine_map<(d0) -> (d0 + 2)>(%c0_6)
  %157 = affine.load %arg2[0, %152, %156] : memref<1x4x4xf32>
  affine.store %157, %128[0, %152, %156] : memref<1x4x4xf32>
  %158 = affine.apply affine_map<(d0) -> (d0 + 3)>(%c0_6)
  %159 = affine.load %arg2[0, %152, %158] : memref<1x4x4xf32>
  affine.store %159, %128[0, %152, %158] : memref<1x4x4xf32>
  affine.for %arg3 = 0 to 1 {
    affine.for %arg4 = 0 to 4 {
      %191 = affine.load %0[%arg3, %arg4, %c0_5] : memref<1x4x8xf32>
      %192 = affine.load %64[%arg3, %c0_5, %c0_0] : memref<1x8x4xf32>
      %193 = affine.load %128[%arg3, %arg4, %c0_0] : memref<1x4x4xf32>
      %194 = arith.mulf %191, %192 : f32
      %195 = arith.addf %193, %194 : f32
      affine.store %195, %128[%arg3, %arg4, %c0_0] : memref<1x4x4xf32>
      %196 = affine.apply affine_map<(d0) -> (d0 + 1)>(%c0_5)
      %197 = affine.load %0[%arg3, %arg4, %196] : memref<1x4x8xf32>
      %198 = affine.load %64[%arg3, %196, %c0_0] : memref<1x8x4xf32>
      %199 = affine.load %128[%arg3, %arg4, %c0_0] : memref<1x4x4xf32>
      %200 = arith.mulf %197, %198 : f32
      %201 = arith.addf %199, %200 : f32
      affine.store %201, %128[%arg3, %arg4, %c0_0] : memref<1x4x4xf32>
      %202 = affine.apply affine_map<(d0) -> (d0 + 2)>(%c0_5)
      %203 = affine.load %0[%arg3, %arg4, %202] : memref<1x4x8xf32>
      %204 = affine.load %64[%arg3, %202, %c0_0] : memref<1x8x4xf32>
      %205 = affine.load %128[%arg3, %arg4, %c0_0] : memref<1x4x4xf32>
      %206 = arith.mulf %203, %204 : f32
      %207 = arith.addf %205, %206 : f32
      affine.store %207, %128[%arg3, %arg4, %c0_0] : memref<1x4x4xf32>
      %208 = affine.apply affine_map<(d0) -> (d0 + 3)>(%c0_5)
      %209 = affine.load %0[%arg3, %arg4, %208] : memref<1x4x8xf32>
      %210 = affine.load %64[%arg3, %208, %c0_0] : memref<1x8x4xf32>
      %211 = affine.load %128[%arg3, %arg4, %c0_0] : memref<1x4x4xf32>
      %212 = arith.mulf %209, %210 : f32
      %213 = arith.addf %211, %212 : f32
      affine.store %213, %128[%arg3, %arg4, %c0_0] : memref<1x4x4xf32>
      %214 = affine.apply affine_map<(d0) -> (d0 + 4)>(%c0_5)
      %215 = affine.load %0[%arg3, %arg4, %214] : memref<1x4x8xf32>
      %216 = affine.load %64[%arg3, %214, %c0_0] : memref<1x8x4xf32>
      %217 = affine.load %128[%arg3, %arg4, %c0_0] : memref<1x4x4xf32>
      %218 = arith.mulf %215, %216 : f32
      %219 = arith.addf %217, %218 : f32
      affine.store %219, %128[%arg3, %arg4, %c0_0] : memref<1x4x4xf32>
      %220 = affine.apply affine_map<(d0) -> (d0 + 5)>(%c0_5)
      %221 = affine.load %0[%arg3, %arg4, %220] : memref<1x4x8xf32>
      %222 = affine.load %64[%arg3, %220, %c0_0] : memref<1x8x4xf32>
      %223 = affine.load %128[%arg3, %arg4, %c0_0] : memref<1x4x4xf32>
      %224 = arith.mulf %221, %222 : f32
      %225 = arith.addf %223, %224 : f32
      affine.store %225, %128[%arg3, %arg4, %c0_0] : memref<1x4x4xf32>
      %226 = affine.apply affine_map<(d0) -> (d0 + 6)>(%c0_5)
      %227 = affine.load %0[%arg3, %arg4, %226] : memref<1x4x8xf32>
      %228 = affine.load %64[%arg3, %226, %c0_0] : memref<1x8x4xf32>
      %229 = affine.load %128[%arg3, %arg4, %c0_0] : memref<1x4x4xf32>
      %230 = arith.mulf %227, %228 : f32
      %231 = arith.addf %229, %230 : f32
      affine.store %231, %128[%arg3, %arg4, %c0_0] : memref<1x4x4xf32>
      %232 = affine.apply affine_map<(d0) -> (d0 + 7)>(%c0_5)
      %233 = affine.load %0[%arg3, %arg4, %232] : memref<1x4x8xf32>
      %234 = affine.load %64[%arg3, %232, %c0_0] : memref<1x8x4xf32>
      %235 = affine.load %128[%arg3, %arg4, %c0_0] : memref<1x4x4xf32>
      %236 = arith.mulf %233, %234 : f32
      %237 = arith.addf %235, %236 : f32
      affine.store %237, %128[%arg3, %arg4, %c0_0] : memref<1x4x4xf32>
      %238 = affine.apply affine_map<(d0) -> (d0 + 1)>(%c0_0)
      %239 = affine.load %0[%arg3, %arg4, %c0_5] : memref<1x4x8xf32>
      %240 = affine.load %64[%arg3, %c0_5, %238] : memref<1x8x4xf32>
      %241 = affine.load %128[%arg3, %arg4, %238] : memref<1x4x4xf32>
      %242 = arith.mulf %239, %240 : f32
      %243 = arith.addf %241, %242 : f32
      affine.store %243, %128[%arg3, %arg4, %238] : memref<1x4x4xf32>
      %244 = affine.apply affine_map<(d0) -> (d0 + 1)>(%c0_5)
      %245 = affine.load %0[%arg3, %arg4, %244] : memref<1x4x8xf32>
      %246 = affine.load %64[%arg3, %244, %238] : memref<1x8x4xf32>
      %247 = affine.load %128[%arg3, %arg4, %238] : memref<1x4x4xf32>
      %248 = arith.mulf %245, %246 : f32
      %249 = arith.addf %247, %248 : f32
      affine.store %249, %128[%arg3, %arg4, %238] : memref<1x4x4xf32>
      %250 = affine.apply affine_map<(d0) -> (d0 + 2)>(%c0_5)
      %251 = affine.load %0[%arg3, %arg4, %250] : memref<1x4x8xf32>
      %252 = affine.load %64[%arg3, %250, %238] : memref<1x8x4xf32>
      %253 = affine.load %128[%arg3, %arg4, %238] : memref<1x4x4xf32>
      %254 = arith.mulf %251, %252 : f32
      %255 = arith.addf %253, %254 : f32
      affine.store %255, %128[%arg3, %arg4, %238] : memref<1x4x4xf32>
      %256 = affine.apply affine_map<(d0) -> (d0 + 3)>(%c0_5)
      %257 = affine.load %0[%arg3, %arg4, %256] : memref<1x4x8xf32>
      %258 = affine.load %64[%arg3, %256, %238] : memref<1x8x4xf32>
      %259 = affine.load %128[%arg3, %arg4, %238] : memref<1x4x4xf32>
      %260 = arith.mulf %257, %258 : f32
      %261 = arith.addf %259, %260 : f32
      affine.store %261, %128[%arg3, %arg4, %238] : memref<1x4x4xf32>
      %262 = affine.apply affine_map<(d0) -> (d0 + 4)>(%c0_5)
      %263 = affine.load %0[%arg3, %arg4, %262] : memref<1x4x8xf32>
      %264 = affine.load %64[%arg3, %262, %238] : memref<1x8x4xf32>
      %265 = affine.load %128[%arg3, %arg4, %238] : memref<1x4x4xf32>
      %266 = arith.mulf %263, %264 : f32
      %267 = arith.addf %265, %266 : f32
      affine.store %267, %128[%arg3, %arg4, %238] : memref<1x4x4xf32>
      %268 = affine.apply affine_map<(d0) -> (d0 + 5)>(%c0_5)
      %269 = affine.load %0[%arg3, %arg4, %268] : memref<1x4x8xf32>
      %270 = affine.load %64[%arg3, %268, %238] : memref<1x8x4xf32>
      %271 = affine.load %128[%arg3, %arg4, %238] : memref<1x4x4xf32>
      %272 = arith.mulf %269, %270 : f32
      %273 = arith.addf %271, %272 : f32
      affine.store %273, %128[%arg3, %arg4, %238] : memref<1x4x4xf32>
      %274 = affine.apply affine_map<(d0) -> (d0 + 6)>(%c0_5)
      %275 = affine.load %0[%arg3, %arg4, %274] : memref<1x4x8xf32>
      %276 = affine.load %64[%arg3, %274, %238] : memref<1x8x4xf32>
      %277 = affine.load %128[%arg3, %arg4, %238] : memref<1x4x4xf32>
      %278 = arith.mulf %275, %276 : f32
      %279 = arith.addf %277, %278 : f32
      affine.store %279, %128[%arg3, %arg4, %238] : memref<1x4x4xf32>
      %280 = affine.apply affine_map<(d0) -> (d0 + 7)>(%c0_5)
      %281 = affine.load %0[%arg3, %arg4, %280] : memref<1x4x8xf32>
      %282 = affine.load %64[%arg3, %280, %238] : memref<1x8x4xf32>
      %283 = affine.load %128[%arg3, %arg4, %238] : memref<1x4x4xf32>
      %284 = arith.mulf %281, %282 : f32
      %285 = arith.addf %283, %284 : f32
      affine.store %285, %128[%arg3, %arg4, %238] : memref<1x4x4xf32>
      %286 = affine.apply affine_map<(d0) -> (d0 + 2)>(%c0_0)
      %287 = affine.load %0[%arg3, %arg4, %c0_5] : memref<1x4x8xf32>
      %288 = affine.load %64[%arg3, %c0_5, %286] : memref<1x8x4xf32>
      %289 = affine.load %128[%arg3, %arg4, %286] : memref<1x4x4xf32>
      %290 = arith.mulf %287, %288 : f32
      %291 = arith.addf %289, %290 : f32
      affine.store %291, %128[%arg3, %arg4, %286] : memref<1x4x4xf32>
      %292 = affine.apply affine_map<(d0) -> (d0 + 1)>(%c0_5)
      %293 = affine.load %0[%arg3, %arg4, %292] : memref<1x4x8xf32>
      %294 = affine.load %64[%arg3, %292, %286] : memref<1x8x4xf32>
      %295 = affine.load %128[%arg3, %arg4, %286] : memref<1x4x4xf32>
      %296 = arith.mulf %293, %294 : f32
      %297 = arith.addf %295, %296 : f32
      affine.store %297, %128[%arg3, %arg4, %286] : memref<1x4x4xf32>
      %298 = affine.apply affine_map<(d0) -> (d0 + 2)>(%c0_5)
      %299 = affine.load %0[%arg3, %arg4, %298] : memref<1x4x8xf32>
      %300 = affine.load %64[%arg3, %298, %286] : memref<1x8x4xf32>
      %301 = affine.load %128[%arg3, %arg4, %286] : memref<1x4x4xf32>
      %302 = arith.mulf %299, %300 : f32
      %303 = arith.addf %301, %302 : f32
      affine.store %303, %128[%arg3, %arg4, %286] : memref<1x4x4xf32>
      %304 = affine.apply affine_map<(d0) -> (d0 + 3)>(%c0_5)
      %305 = affine.load %0[%arg3, %arg4, %304] : memref<1x4x8xf32>
      %306 = affine.load %64[%arg3, %304, %286] : memref<1x8x4xf32>
      %307 = affine.load %128[%arg3, %arg4, %286] : memref<1x4x4xf32>
      %308 = arith.mulf %305, %306 : f32
      %309 = arith.addf %307, %308 : f32
      affine.store %309, %128[%arg3, %arg4, %286] : memref<1x4x4xf32>
      %310 = affine.apply affine_map<(d0) -> (d0 + 4)>(%c0_5)
      %311 = affine.load %0[%arg3, %arg4, %310] : memref<1x4x8xf32>
      %312 = affine.load %64[%arg3, %310, %286] : memref<1x8x4xf32>
      %313 = affine.load %128[%arg3, %arg4, %286] : memref<1x4x4xf32>
      %314 = arith.mulf %311, %312 : f32
      %315 = arith.addf %313, %314 : f32
      affine.store %315, %128[%arg3, %arg4, %286] : memref<1x4x4xf32>
      %316 = affine.apply affine_map<(d0) -> (d0 + 5)>(%c0_5)
      %317 = affine.load %0[%arg3, %arg4, %316] : memref<1x4x8xf32>
      %318 = affine.load %64[%arg3, %316, %286] : memref<1x8x4xf32>
      %319 = affine.load %128[%arg3, %arg4, %286] : memref<1x4x4xf32>
      %320 = arith.mulf %317, %318 : f32
      %321 = arith.addf %319, %320 : f32
      affine.store %321, %128[%arg3, %arg4, %286] : memref<1x4x4xf32>
      %322 = affine.apply affine_map<(d0) -> (d0 + 6)>(%c0_5)
      %323 = affine.load %0[%arg3, %arg4, %322] : memref<1x4x8xf32>
      %324 = affine.load %64[%arg3, %322, %286] : memref<1x8x4xf32>
      %325 = affine.load %128[%arg3, %arg4, %286] : memref<1x4x4xf32>
      %326 = arith.mulf %323, %324 : f32
      %327 = arith.addf %325, %326 : f32
      affine.store %327, %128[%arg3, %arg4, %286] : memref<1x4x4xf32>
      %328 = affine.apply affine_map<(d0) -> (d0 + 7)>(%c0_5)
      %329 = affine.load %0[%arg3, %arg4, %328] : memref<1x4x8xf32>
      %330 = affine.load %64[%arg3, %328, %286] : memref<1x8x4xf32>
      %331 = affine.load %128[%arg3, %arg4, %286] : memref<1x4x4xf32>
      %332 = arith.mulf %329, %330 : f32
      %333 = arith.addf %331, %332 : f32
      affine.store %333, %128[%arg3, %arg4, %286] : memref<1x4x4xf32>
      %334 = affine.apply affine_map<(d0) -> (d0 + 3)>(%c0_0)
      %335 = affine.load %0[%arg3, %arg4, %c0_5] : memref<1x4x8xf32>
      %336 = affine.load %64[%arg3, %c0_5, %334] : memref<1x8x4xf32>
      %337 = affine.load %128[%arg3, %arg4, %334] : memref<1x4x4xf32>
      %338 = arith.mulf %335, %336 : f32
      %339 = arith.addf %337, %338 : f32
      affine.store %339, %128[%arg3, %arg4, %334] : memref<1x4x4xf32>
      %340 = affine.apply affine_map<(d0) -> (d0 + 1)>(%c0_5)
      %341 = affine.load %0[%arg3, %arg4, %340] : memref<1x4x8xf32>
      %342 = affine.load %64[%arg3, %340, %334] : memref<1x8x4xf32>
      %343 = affine.load %128[%arg3, %arg4, %334] : memref<1x4x4xf32>
      %344 = arith.mulf %341, %342 : f32
      %345 = arith.addf %343, %344 : f32
      affine.store %345, %128[%arg3, %arg4, %334] : memref<1x4x4xf32>
      %346 = affine.apply affine_map<(d0) -> (d0 + 2)>(%c0_5)
      %347 = affine.load %0[%arg3, %arg4, %346] : memref<1x4x8xf32>
      %348 = affine.load %64[%arg3, %346, %334] : memref<1x8x4xf32>
      %349 = affine.load %128[%arg3, %arg4, %334] : memref<1x4x4xf32>
      %350 = arith.mulf %347, %348 : f32
      %351 = arith.addf %349, %350 : f32
      affine.store %351, %128[%arg3, %arg4, %334] : memref<1x4x4xf32>
      %352 = affine.apply affine_map<(d0) -> (d0 + 3)>(%c0_5)
      %353 = affine.load %0[%arg3, %arg4, %352] : memref<1x4x8xf32>
      %354 = affine.load %64[%arg3, %352, %334] : memref<1x8x4xf32>
      %355 = affine.load %128[%arg3, %arg4, %334] : memref<1x4x4xf32>
      %356 = arith.mulf %353, %354 : f32
      %357 = arith.addf %355, %356 : f32
      affine.store %357, %128[%arg3, %arg4, %334] : memref<1x4x4xf32>
      %358 = affine.apply affine_map<(d0) -> (d0 + 4)>(%c0_5)
      %359 = affine.load %0[%arg3, %arg4, %358] : memref<1x4x8xf32>
      %360 = affine.load %64[%arg3, %358, %334] : memref<1x8x4xf32>
      %361 = affine.load %128[%arg3, %arg4, %334] : memref<1x4x4xf32>
      %362 = arith.mulf %359, %360 : f32
      %363 = arith.addf %361, %362 : f32
      affine.store %363, %128[%arg3, %arg4, %334] : memref<1x4x4xf32>
      %364 = affine.apply affine_map<(d0) -> (d0 + 5)>(%c0_5)
      %365 = affine.load %0[%arg3, %arg4, %364] : memref<1x4x8xf32>
      %366 = affine.load %64[%arg3, %364, %334] : memref<1x8x4xf32>
      %367 = affine.load %128[%arg3, %arg4, %334] : memref<1x4x4xf32>
      %368 = arith.mulf %365, %366 : f32
      %369 = arith.addf %367, %368 : f32
      affine.store %369, %128[%arg3, %arg4, %334] : memref<1x4x4xf32>
      %370 = affine.apply affine_map<(d0) -> (d0 + 6)>(%c0_5)
      %371 = affine.load %0[%arg3, %arg4, %370] : memref<1x4x8xf32>
      %372 = affine.load %64[%arg3, %370, %334] : memref<1x8x4xf32>
      %373 = affine.load %128[%arg3, %arg4, %334] : memref<1x4x4xf32>
      %374 = arith.mulf %371, %372 : f32
      %375 = arith.addf %373, %374 : f32
      affine.store %375, %128[%arg3, %arg4, %334] : memref<1x4x4xf32>
      %376 = affine.apply affine_map<(d0) -> (d0 + 7)>(%c0_5)
      %377 = affine.load %0[%arg3, %arg4, %376] : memref<1x4x8xf32>
      %378 = affine.load %64[%arg3, %376, %334] : memref<1x8x4xf32>
      %379 = affine.load %128[%arg3, %arg4, %334] : memref<1x4x4xf32>
      %380 = arith.mulf %377, %378 : f32
      %381 = arith.addf %379, %380 : f32
      affine.store %381, %128[%arg3, %arg4, %334] : memref<1x4x4xf32>
    }
  }
  %160 = affine.load %128[0, %c0, %c0_4] : memref<1x4x4xf32>
  affine.store %160, %arg2[0, %c0, %c0_4] : memref<1x4x4xf32>
  %161 = affine.apply affine_map<(d0) -> (d0 + 1)>(%c0_4)
  %162 = affine.load %128[0, %c0, %161] : memref<1x4x4xf32>
  affine.store %162, %arg2[0, %c0, %161] : memref<1x4x4xf32>
  %163 = affine.apply affine_map<(d0) -> (d0 + 2)>(%c0_4)
  %164 = affine.load %128[0, %c0, %163] : memref<1x4x4xf32>
  affine.store %164, %arg2[0, %c0, %163] : memref<1x4x4xf32>
  %165 = affine.apply affine_map<(d0) -> (d0 + 3)>(%c0_4)
  %166 = affine.load %128[0, %c0, %165] : memref<1x4x4xf32>
  affine.store %166, %arg2[0, %c0, %165] : memref<1x4x4xf32>
  %167 = affine.apply affine_map<(d0) -> (d0 + 1)>(%c0)
  %168 = affine.load %128[0, %167, %c0_4] : memref<1x4x4xf32>
  affine.store %168, %arg2[0, %167, %c0_4] : memref<1x4x4xf32>
  %169 = affine.apply affine_map<(d0) -> (d0 + 1)>(%c0_4)
  %170 = affine.load %128[0, %167, %169] : memref<1x4x4xf32>
  affine.store %170, %arg2[0, %167, %169] : memref<1x4x4xf32>
  %171 = affine.apply affine_map<(d0) -> (d0 + 2)>(%c0_4)
  %172 = affine.load %128[0, %167, %171] : memref<1x4x4xf32>
  affine.store %172, %arg2[0, %167, %171] : memref<1x4x4xf32>
  %173 = affine.apply affine_map<(d0) -> (d0 + 3)>(%c0_4)
  %174 = affine.load %128[0, %167, %173] : memref<1x4x4xf32>
  affine.store %174, %arg2[0, %167, %173] : memref<1x4x4xf32>
  %175 = affine.apply affine_map<(d0) -> (d0 + 2)>(%c0)
  %176 = affine.load %128[0, %175, %c0_4] : memref<1x4x4xf32>
  affine.store %176, %arg2[0, %175, %c0_4] : memref<1x4x4xf32>
  %177 = affine.apply affine_map<(d0) -> (d0 + 1)>(%c0_4)
  %178 = affine.load %128[0, %175, %177] : memref<1x4x4xf32>
  affine.store %178, %arg2[0, %175, %177] : memref<1x4x4xf32>
  %179 = affine.apply affine_map<(d0) -> (d0 + 2)>(%c0_4)
  %180 = affine.load %128[0, %175, %179] : memref<1x4x4xf32>
  affine.store %180, %arg2[0, %175, %179] : memref<1x4x4xf32>
  %181 = affine.apply affine_map<(d0) -> (d0 + 3)>(%c0_4)
  %182 = affine.load %128[0, %175, %181] : memref<1x4x4xf32>
  affine.store %182, %arg2[0, %175, %181] : memref<1x4x4xf32>
  %183 = affine.apply affine_map<(d0) -> (d0 + 3)>(%c0)
  %184 = affine.load %128[0, %183, %c0_4] : memref<1x4x4xf32>
  affine.store %184, %arg2[0, %183, %c0_4] : memref<1x4x4xf32>
  %185 = affine.apply affine_map<(d0) -> (d0 + 1)>(%c0_4)
  %186 = affine.load %128[0, %183, %185] : memref<1x4x4xf32>
  affine.store %186, %arg2[0, %183, %185] : memref<1x4x4xf32>
  %187 = affine.apply affine_map<(d0) -> (d0 + 2)>(%c0_4)
  %188 = affine.load %128[0, %183, %187] : memref<1x4x4xf32>
  affine.store %188, %arg2[0, %183, %187] : memref<1x4x4xf32>
  %189 = affine.apply affine_map<(d0) -> (d0 + 3)>(%c0_4)
  %190 = affine.load %128[0, %183, %189] : memref<1x4x4xf32>
  affine.store %190, %arg2[0, %183, %189] : memref<1x4x4xf32>
  return
}

// -----// IR Dump After AffineLoopUnroll //----- //
func.func @main_kernel(%arg0: memref<1x4x8xf32> {llvm.noalias}, %arg1: memref<1x8x4xf32> {llvm.noalias}, %arg2: memref<1x4x4xf32> {llvm.noalias}) {
  %c0 = arith.constant 0 : index
  %c0_0 = arith.constant 0 : index
  %c0_1 = arith.constant 0 : index
  %c0_2 = arith.constant 0 : index
  %c0_3 = arith.constant 0 : index
  %c0_4 = arith.constant 0 : index
  %c0_5 = arith.constant 0 : index
  %c0_6 = arith.constant 0 : index
  %c0_7 = arith.constant 0 : index
  %c0_8 = arith.constant 0 : index
  %c0_9 = arith.constant 0 : index
  cf.br ^bb1
^bb1:  // pred: ^bb0
  %0 = memref.alloca() : memref<1x4x8xf32>
  %1 = affine.load %arg0[0, %c0_4, %c0_9] : memref<1x4x8xf32>
  affine.store %1, %0[0, %c0_4, %c0_9] : memref<1x4x8xf32>
  %2 = affine.apply affine_map<(d0) -> (d0 + 1)>(%c0_9)
  %3 = affine.load %arg0[0, %c0_4, %2] : memref<1x4x8xf32>
  affine.store %3, %0[0, %c0_4, %2] : memref<1x4x8xf32>
  %4 = affine.apply affine_map<(d0) -> (d0 + 2)>(%c0_9)
  %5 = affine.load %arg0[0, %c0_4, %4] : memref<1x4x8xf32>
  affine.store %5, %0[0, %c0_4, %4] : memref<1x4x8xf32>
  %6 = affine.apply affine_map<(d0) -> (d0 + 3)>(%c0_9)
  %7 = affine.load %arg0[0, %c0_4, %6] : memref<1x4x8xf32>
  affine.store %7, %0[0, %c0_4, %6] : memref<1x4x8xf32>
  %8 = affine.apply affine_map<(d0) -> (d0 + 4)>(%c0_9)
  %9 = affine.load %arg0[0, %c0_4, %8] : memref<1x4x8xf32>
  affine.store %9, %0[0, %c0_4, %8] : memref<1x4x8xf32>
  %10 = affine.apply affine_map<(d0) -> (d0 + 5)>(%c0_9)
  %11 = affine.load %arg0[0, %c0_4, %10] : memref<1x4x8xf32>
  affine.store %11, %0[0, %c0_4, %10] : memref<1x4x8xf32>
  %12 = affine.apply affine_map<(d0) -> (d0 + 6)>(%c0_9)
  %13 = affine.load %arg0[0, %c0_4, %12] : memref<1x4x8xf32>
  affine.store %13, %0[0, %c0_4, %12] : memref<1x4x8xf32>
  %14 = affine.apply affine_map<(d0) -> (d0 + 7)>(%c0_9)
  %15 = affine.load %arg0[0, %c0_4, %14] : memref<1x4x8xf32>
  affine.store %15, %0[0, %c0_4, %14] : memref<1x4x8xf32>
  %16 = affine.apply affine_map<(d0) -> (d0 + 1)>(%c0_4)
  %17 = affine.load %arg0[0, %16, %c0_9] : memref<1x4x8xf32>
  affine.store %17, %0[0, %16, %c0_9] : memref<1x4x8xf32>
  %18 = affine.apply affine_map<(d0) -> (d0 + 1)>(%c0_9)
  %19 = affine.load %arg0[0, %16, %18] : memref<1x4x8xf32>
  affine.store %19, %0[0, %16, %18] : memref<1x4x8xf32>
  %20 = affine.apply affine_map<(d0) -> (d0 + 2)>(%c0_9)
  %21 = affine.load %arg0[0, %16, %20] : memref<1x4x8xf32>
  affine.store %21, %0[0, %16, %20] : memref<1x4x8xf32>
  %22 = affine.apply affine_map<(d0) -> (d0 + 3)>(%c0_9)
  %23 = affine.load %arg0[0, %16, %22] : memref<1x4x8xf32>
  affine.store %23, %0[0, %16, %22] : memref<1x4x8xf32>
  %24 = affine.apply affine_map<(d0) -> (d0 + 4)>(%c0_9)
  %25 = affine.load %arg0[0, %16, %24] : memref<1x4x8xf32>
  affine.store %25, %0[0, %16, %24] : memref<1x4x8xf32>
  %26 = affine.apply affine_map<(d0) -> (d0 + 5)>(%c0_9)
  %27 = affine.load %arg0[0, %16, %26] : memref<1x4x8xf32>
  affine.store %27, %0[0, %16, %26] : memref<1x4x8xf32>
  %28 = affine.apply affine_map<(d0) -> (d0 + 6)>(%c0_9)
  %29 = affine.load %arg0[0, %16, %28] : memref<1x4x8xf32>
  affine.store %29, %0[0, %16, %28] : memref<1x4x8xf32>
  %30 = affine.apply affine_map<(d0) -> (d0 + 7)>(%c0_9)
  %31 = affine.load %arg0[0, %16, %30] : memref<1x4x8xf32>
  affine.store %31, %0[0, %16, %30] : memref<1x4x8xf32>
  %32 = affine.apply affine_map<(d0) -> (d0 + 2)>(%c0_4)
  %33 = affine.load %arg0[0, %32, %c0_9] : memref<1x4x8xf32>
  affine.store %33, %0[0, %32, %c0_9] : memref<1x4x8xf32>
  %34 = affine.apply affine_map<(d0) -> (d0 + 1)>(%c0_9)
  %35 = affine.load %arg0[0, %32, %34] : memref<1x4x8xf32>
  affine.store %35, %0[0, %32, %34] : memref<1x4x8xf32>
  %36 = affine.apply affine_map<(d0) -> (d0 + 2)>(%c0_9)
  %37 = affine.load %arg0[0, %32, %36] : memref<1x4x8xf32>
  affine.store %37, %0[0, %32, %36] : memref<1x4x8xf32>
  %38 = affine.apply affine_map<(d0) -> (d0 + 3)>(%c0_9)
  %39 = affine.load %arg0[0, %32, %38] : memref<1x4x8xf32>
  affine.store %39, %0[0, %32, %38] : memref<1x4x8xf32>
  %40 = affine.apply affine_map<(d0) -> (d0 + 4)>(%c0_9)
  %41 = affine.load %arg0[0, %32, %40] : memref<1x4x8xf32>
  affine.store %41, %0[0, %32, %40] : memref<1x4x8xf32>
  %42 = affine.apply affine_map<(d0) -> (d0 + 5)>(%c0_9)
  %43 = affine.load %arg0[0, %32, %42] : memref<1x4x8xf32>
  affine.store %43, %0[0, %32, %42] : memref<1x4x8xf32>
  %44 = affine.apply affine_map<(d0) -> (d0 + 6)>(%c0_9)
  %45 = affine.load %arg0[0, %32, %44] : memref<1x4x8xf32>
  affine.store %45, %0[0, %32, %44] : memref<1x4x8xf32>
  %46 = affine.apply affine_map<(d0) -> (d0 + 7)>(%c0_9)
  %47 = affine.load %arg0[0, %32, %46] : memref<1x4x8xf32>
  affine.store %47, %0[0, %32, %46] : memref<1x4x8xf32>
  %48 = affine.apply affine_map<(d0) -> (d0 + 3)>(%c0_4)
  %49 = affine.load %arg0[0, %48, %c0_9] : memref<1x4x8xf32>
  affine.store %49, %0[0, %48, %c0_9] : memref<1x4x8xf32>
  %50 = affine.apply affine_map<(d0) -> (d0 + 1)>(%c0_9)
  %51 = affine.load %arg0[0, %48, %50] : memref<1x4x8xf32>
  affine.store %51, %0[0, %48, %50] : memref<1x4x8xf32>
  %52 = affine.apply affine_map<(d0) -> (d0 + 2)>(%c0_9)
  %53 = affine.load %arg0[0, %48, %52] : memref<1x4x8xf32>
  affine.store %53, %0[0, %48, %52] : memref<1x4x8xf32>
  %54 = affine.apply affine_map<(d0) -> (d0 + 3)>(%c0_9)
  %55 = affine.load %arg0[0, %48, %54] : memref<1x4x8xf32>
  affine.store %55, %0[0, %48, %54] : memref<1x4x8xf32>
  %56 = affine.apply affine_map<(d0) -> (d0 + 4)>(%c0_9)
  %57 = affine.load %arg0[0, %48, %56] : memref<1x4x8xf32>
  affine.store %57, %0[0, %48, %56] : memref<1x4x8xf32>
  %58 = affine.apply affine_map<(d0) -> (d0 + 5)>(%c0_9)
  %59 = affine.load %arg0[0, %48, %58] : memref<1x4x8xf32>
  affine.store %59, %0[0, %48, %58] : memref<1x4x8xf32>
  %60 = affine.apply affine_map<(d0) -> (d0 + 6)>(%c0_9)
  %61 = affine.load %arg0[0, %48, %60] : memref<1x4x8xf32>
  affine.store %61, %0[0, %48, %60] : memref<1x4x8xf32>
  %62 = affine.apply affine_map<(d0) -> (d0 + 7)>(%c0_9)
  %63 = affine.load %arg0[0, %48, %62] : memref<1x4x8xf32>
  affine.store %63, %0[0, %48, %62] : memref<1x4x8xf32>
  %64 = memref.alloca() : memref<1x8x4xf32>
  %65 = affine.load %arg1[0, %c0_3, %c0_8] : memref<1x8x4xf32>
  affine.store %65, %64[0, %c0_3, %c0_8] : memref<1x8x4xf32>
  %66 = affine.apply affine_map<(d0) -> (d0 + 1)>(%c0_8)
  %67 = affine.load %arg1[0, %c0_3, %66] : memref<1x8x4xf32>
  affine.store %67, %64[0, %c0_3, %66] : memref<1x8x4xf32>
  %68 = affine.apply affine_map<(d0) -> (d0 + 2)>(%c0_8)
  %69 = affine.load %arg1[0, %c0_3, %68] : memref<1x8x4xf32>
  affine.store %69, %64[0, %c0_3, %68] : memref<1x8x4xf32>
  %70 = affine.apply affine_map<(d0) -> (d0 + 3)>(%c0_8)
  %71 = affine.load %arg1[0, %c0_3, %70] : memref<1x8x4xf32>
  affine.store %71, %64[0, %c0_3, %70] : memref<1x8x4xf32>
  %72 = affine.apply affine_map<(d0) -> (d0 + 1)>(%c0_3)
  %73 = affine.load %arg1[0, %72, %c0_8] : memref<1x8x4xf32>
  affine.store %73, %64[0, %72, %c0_8] : memref<1x8x4xf32>
  %74 = affine.apply affine_map<(d0) -> (d0 + 1)>(%c0_8)
  %75 = affine.load %arg1[0, %72, %74] : memref<1x8x4xf32>
  affine.store %75, %64[0, %72, %74] : memref<1x8x4xf32>
  %76 = affine.apply affine_map<(d0) -> (d0 + 2)>(%c0_8)
  %77 = affine.load %arg1[0, %72, %76] : memref<1x8x4xf32>
  affine.store %77, %64[0, %72, %76] : memref<1x8x4xf32>
  %78 = affine.apply affine_map<(d0) -> (d0 + 3)>(%c0_8)
  %79 = affine.load %arg1[0, %72, %78] : memref<1x8x4xf32>
  affine.store %79, %64[0, %72, %78] : memref<1x8x4xf32>
  %80 = affine.apply affine_map<(d0) -> (d0 + 2)>(%c0_3)
  %81 = affine.load %arg1[0, %80, %c0_8] : memref<1x8x4xf32>
  affine.store %81, %64[0, %80, %c0_8] : memref<1x8x4xf32>
  %82 = affine.apply affine_map<(d0) -> (d0 + 1)>(%c0_8)
  %83 = affine.load %arg1[0, %80, %82] : memref<1x8x4xf32>
  affine.store %83, %64[0, %80, %82] : memref<1x8x4xf32>
  %84 = affine.apply affine_map<(d0) -> (d0 + 2)>(%c0_8)
  %85 = affine.load %arg1[0, %80, %84] : memref<1x8x4xf32>
  affine.store %85, %64[0, %80, %84] : memref<1x8x4xf32>
  %86 = affine.apply affine_map<(d0) -> (d0 + 3)>(%c0_8)
  %87 = affine.load %arg1[0, %80, %86] : memref<1x8x4xf32>
  affine.store %87, %64[0, %80, %86] : memref<1x8x4xf32>
  %88 = affine.apply affine_map<(d0) -> (d0 + 3)>(%c0_3)
  %89 = affine.load %arg1[0, %88, %c0_8] : memref<1x8x4xf32>
  affine.store %89, %64[0, %88, %c0_8] : memref<1x8x4xf32>
  %90 = affine.apply affine_map<(d0) -> (d0 + 1)>(%c0_8)
  %91 = affine.load %arg1[0, %88, %90] : memref<1x8x4xf32>
  affine.store %91, %64[0, %88, %90] : memref<1x8x4xf32>
  %92 = affine.apply affine_map<(d0) -> (d0 + 2)>(%c0_8)
  %93 = affine.load %arg1[0, %88, %92] : memref<1x8x4xf32>
  affine.store %93, %64[0, %88, %92] : memref<1x8x4xf32>
  %94 = affine.apply affine_map<(d0) -> (d0 + 3)>(%c0_8)
  %95 = affine.load %arg1[0, %88, %94] : memref<1x8x4xf32>
  affine.store %95, %64[0, %88, %94] : memref<1x8x4xf32>
  %96 = affine.apply affine_map<(d0) -> (d0 + 4)>(%c0_3)
  %97 = affine.load %arg1[0, %96, %c0_8] : memref<1x8x4xf32>
  affine.store %97, %64[0, %96, %c0_8] : memref<1x8x4xf32>
  %98 = affine.apply affine_map<(d0) -> (d0 + 1)>(%c0_8)
  %99 = affine.load %arg1[0, %96, %98] : memref<1x8x4xf32>
  affine.store %99, %64[0, %96, %98] : memref<1x8x4xf32>
  %100 = affine.apply affine_map<(d0) -> (d0 + 2)>(%c0_8)
  %101 = affine.load %arg1[0, %96, %100] : memref<1x8x4xf32>
  affine.store %101, %64[0, %96, %100] : memref<1x8x4xf32>
  %102 = affine.apply affine_map<(d0) -> (d0 + 3)>(%c0_8)
  %103 = affine.load %arg1[0, %96, %102] : memref<1x8x4xf32>
  affine.store %103, %64[0, %96, %102] : memref<1x8x4xf32>
  %104 = affine.apply affine_map<(d0) -> (d0 + 5)>(%c0_3)
  %105 = affine.load %arg1[0, %104, %c0_8] : memref<1x8x4xf32>
  affine.store %105, %64[0, %104, %c0_8] : memref<1x8x4xf32>
  %106 = affine.apply affine_map<(d0) -> (d0 + 1)>(%c0_8)
  %107 = affine.load %arg1[0, %104, %106] : memref<1x8x4xf32>
  affine.store %107, %64[0, %104, %106] : memref<1x8x4xf32>
  %108 = affine.apply affine_map<(d0) -> (d0 + 2)>(%c0_8)
  %109 = affine.load %arg1[0, %104, %108] : memref<1x8x4xf32>
  affine.store %109, %64[0, %104, %108] : memref<1x8x4xf32>
  %110 = affine.apply affine_map<(d0) -> (d0 + 3)>(%c0_8)
  %111 = affine.load %arg1[0, %104, %110] : memref<1x8x4xf32>
  affine.store %111, %64[0, %104, %110] : memref<1x8x4xf32>
  %112 = affine.apply affine_map<(d0) -> (d0 + 6)>(%c0_3)
  %113 = affine.load %arg1[0, %112, %c0_8] : memref<1x8x4xf32>
  affine.store %113, %64[0, %112, %c0_8] : memref<1x8x4xf32>
  %114 = affine.apply affine_map<(d0) -> (d0 + 1)>(%c0_8)
  %115 = affine.load %arg1[0, %112, %114] : memref<1x8x4xf32>
  affine.store %115, %64[0, %112, %114] : memref<1x8x4xf32>
  %116 = affine.apply affine_map<(d0) -> (d0 + 2)>(%c0_8)
  %117 = affine.load %arg1[0, %112, %116] : memref<1x8x4xf32>
  affine.store %117, %64[0, %112, %116] : memref<1x8x4xf32>
  %118 = affine.apply affine_map<(d0) -> (d0 + 3)>(%c0_8)
  %119 = affine.load %arg1[0, %112, %118] : memref<1x8x4xf32>
  affine.store %119, %64[0, %112, %118] : memref<1x8x4xf32>
  %120 = affine.apply affine_map<(d0) -> (d0 + 7)>(%c0_3)
  %121 = affine.load %arg1[0, %120, %c0_8] : memref<1x8x4xf32>
  affine.store %121, %64[0, %120, %c0_8] : memref<1x8x4xf32>
  %122 = affine.apply affine_map<(d0) -> (d0 + 1)>(%c0_8)
  %123 = affine.load %arg1[0, %120, %122] : memref<1x8x4xf32>
  affine.store %123, %64[0, %120, %122] : memref<1x8x4xf32>
  %124 = affine.apply affine_map<(d0) -> (d0 + 2)>(%c0_8)
  %125 = affine.load %arg1[0, %120, %124] : memref<1x8x4xf32>
  affine.store %125, %64[0, %120, %124] : memref<1x8x4xf32>
  %126 = affine.apply affine_map<(d0) -> (d0 + 3)>(%c0_8)
  %127 = affine.load %arg1[0, %120, %126] : memref<1x8x4xf32>
  affine.store %127, %64[0, %120, %126] : memref<1x8x4xf32>
  %128 = memref.alloca() : memref<1x4x4xf32>
  %129 = affine.load %arg2[0, %c0_2, %c0_7] : memref<1x4x4xf32>
  affine.store %129, %128[0, %c0_2, %c0_7] : memref<1x4x4xf32>
  %130 = affine.apply affine_map<(d0) -> (d0 + 1)>(%c0_7)
  %131 = affine.load %arg2[0, %c0_2, %130] : memref<1x4x4xf32>
  affine.store %131, %128[0, %c0_2, %130] : memref<1x4x4xf32>
  %132 = affine.apply affine_map<(d0) -> (d0 + 2)>(%c0_7)
  %133 = affine.load %arg2[0, %c0_2, %132] : memref<1x4x4xf32>
  affine.store %133, %128[0, %c0_2, %132] : memref<1x4x4xf32>
  %134 = affine.apply affine_map<(d0) -> (d0 + 3)>(%c0_7)
  %135 = affine.load %arg2[0, %c0_2, %134] : memref<1x4x4xf32>
  affine.store %135, %128[0, %c0_2, %134] : memref<1x4x4xf32>
  %136 = affine.apply affine_map<(d0) -> (d0 + 1)>(%c0_2)
  %137 = affine.load %arg2[0, %136, %c0_7] : memref<1x4x4xf32>
  affine.store %137, %128[0, %136, %c0_7] : memref<1x4x4xf32>
  %138 = affine.apply affine_map<(d0) -> (d0 + 1)>(%c0_7)
  %139 = affine.load %arg2[0, %136, %138] : memref<1x4x4xf32>
  affine.store %139, %128[0, %136, %138] : memref<1x4x4xf32>
  %140 = affine.apply affine_map<(d0) -> (d0 + 2)>(%c0_7)
  %141 = affine.load %arg2[0, %136, %140] : memref<1x4x4xf32>
  affine.store %141, %128[0, %136, %140] : memref<1x4x4xf32>
  %142 = affine.apply affine_map<(d0) -> (d0 + 3)>(%c0_7)
  %143 = affine.load %arg2[0, %136, %142] : memref<1x4x4xf32>
  affine.store %143, %128[0, %136, %142] : memref<1x4x4xf32>
  %144 = affine.apply affine_map<(d0) -> (d0 + 2)>(%c0_2)
  %145 = affine.load %arg2[0, %144, %c0_7] : memref<1x4x4xf32>
  affine.store %145, %128[0, %144, %c0_7] : memref<1x4x4xf32>
  %146 = affine.apply affine_map<(d0) -> (d0 + 1)>(%c0_7)
  %147 = affine.load %arg2[0, %144, %146] : memref<1x4x4xf32>
  affine.store %147, %128[0, %144, %146] : memref<1x4x4xf32>
  %148 = affine.apply affine_map<(d0) -> (d0 + 2)>(%c0_7)
  %149 = affine.load %arg2[0, %144, %148] : memref<1x4x4xf32>
  affine.store %149, %128[0, %144, %148] : memref<1x4x4xf32>
  %150 = affine.apply affine_map<(d0) -> (d0 + 3)>(%c0_7)
  %151 = affine.load %arg2[0, %144, %150] : memref<1x4x4xf32>
  affine.store %151, %128[0, %144, %150] : memref<1x4x4xf32>
  %152 = affine.apply affine_map<(d0) -> (d0 + 3)>(%c0_2)
  %153 = affine.load %arg2[0, %152, %c0_7] : memref<1x4x4xf32>
  affine.store %153, %128[0, %152, %c0_7] : memref<1x4x4xf32>
  %154 = affine.apply affine_map<(d0) -> (d0 + 1)>(%c0_7)
  %155 = affine.load %arg2[0, %152, %154] : memref<1x4x4xf32>
  affine.store %155, %128[0, %152, %154] : memref<1x4x4xf32>
  %156 = affine.apply affine_map<(d0) -> (d0 + 2)>(%c0_7)
  %157 = affine.load %arg2[0, %152, %156] : memref<1x4x4xf32>
  affine.store %157, %128[0, %152, %156] : memref<1x4x4xf32>
  %158 = affine.apply affine_map<(d0) -> (d0 + 3)>(%c0_7)
  %159 = affine.load %arg2[0, %152, %158] : memref<1x4x4xf32>
  affine.store %159, %128[0, %152, %158] : memref<1x4x4xf32>
  affine.for %arg3 = 0 to 1 {
    %191 = affine.load %0[%arg3, %c0, %c0_6] : memref<1x4x8xf32>
    %192 = affine.load %64[%arg3, %c0_6, %c0_1] : memref<1x8x4xf32>
    %193 = affine.load %128[%arg3, %c0, %c0_1] : memref<1x4x4xf32>
    %194 = arith.mulf %191, %192 : f32
    %195 = arith.addf %193, %194 : f32
    affine.store %195, %128[%arg3, %c0, %c0_1] : memref<1x4x4xf32>
    %196 = affine.apply affine_map<(d0) -> (d0 + 1)>(%c0_6)
    %197 = affine.load %0[%arg3, %c0, %196] : memref<1x4x8xf32>
    %198 = affine.load %64[%arg3, %196, %c0_1] : memref<1x8x4xf32>
    %199 = affine.load %128[%arg3, %c0, %c0_1] : memref<1x4x4xf32>
    %200 = arith.mulf %197, %198 : f32
    %201 = arith.addf %199, %200 : f32
    affine.store %201, %128[%arg3, %c0, %c0_1] : memref<1x4x4xf32>
    %202 = affine.apply affine_map<(d0) -> (d0 + 2)>(%c0_6)
    %203 = affine.load %0[%arg3, %c0, %202] : memref<1x4x8xf32>
    %204 = affine.load %64[%arg3, %202, %c0_1] : memref<1x8x4xf32>
    %205 = affine.load %128[%arg3, %c0, %c0_1] : memref<1x4x4xf32>
    %206 = arith.mulf %203, %204 : f32
    %207 = arith.addf %205, %206 : f32
    affine.store %207, %128[%arg3, %c0, %c0_1] : memref<1x4x4xf32>
    %208 = affine.apply affine_map<(d0) -> (d0 + 3)>(%c0_6)
    %209 = affine.load %0[%arg3, %c0, %208] : memref<1x4x8xf32>
    %210 = affine.load %64[%arg3, %208, %c0_1] : memref<1x8x4xf32>
    %211 = affine.load %128[%arg3, %c0, %c0_1] : memref<1x4x4xf32>
    %212 = arith.mulf %209, %210 : f32
    %213 = arith.addf %211, %212 : f32
    affine.store %213, %128[%arg3, %c0, %c0_1] : memref<1x4x4xf32>
    %214 = affine.apply affine_map<(d0) -> (d0 + 4)>(%c0_6)
    %215 = affine.load %0[%arg3, %c0, %214] : memref<1x4x8xf32>
    %216 = affine.load %64[%arg3, %214, %c0_1] : memref<1x8x4xf32>
    %217 = affine.load %128[%arg3, %c0, %c0_1] : memref<1x4x4xf32>
    %218 = arith.mulf %215, %216 : f32
    %219 = arith.addf %217, %218 : f32
    affine.store %219, %128[%arg3, %c0, %c0_1] : memref<1x4x4xf32>
    %220 = affine.apply affine_map<(d0) -> (d0 + 5)>(%c0_6)
    %221 = affine.load %0[%arg3, %c0, %220] : memref<1x4x8xf32>
    %222 = affine.load %64[%arg3, %220, %c0_1] : memref<1x8x4xf32>
    %223 = affine.load %128[%arg3, %c0, %c0_1] : memref<1x4x4xf32>
    %224 = arith.mulf %221, %222 : f32
    %225 = arith.addf %223, %224 : f32
    affine.store %225, %128[%arg3, %c0, %c0_1] : memref<1x4x4xf32>
    %226 = affine.apply affine_map<(d0) -> (d0 + 6)>(%c0_6)
    %227 = affine.load %0[%arg3, %c0, %226] : memref<1x4x8xf32>
    %228 = affine.load %64[%arg3, %226, %c0_1] : memref<1x8x4xf32>
    %229 = affine.load %128[%arg3, %c0, %c0_1] : memref<1x4x4xf32>
    %230 = arith.mulf %227, %228 : f32
    %231 = arith.addf %229, %230 : f32
    affine.store %231, %128[%arg3, %c0, %c0_1] : memref<1x4x4xf32>
    %232 = affine.apply affine_map<(d0) -> (d0 + 7)>(%c0_6)
    %233 = affine.load %0[%arg3, %c0, %232] : memref<1x4x8xf32>
    %234 = affine.load %64[%arg3, %232, %c0_1] : memref<1x8x4xf32>
    %235 = affine.load %128[%arg3, %c0, %c0_1] : memref<1x4x4xf32>
    %236 = arith.mulf %233, %234 : f32
    %237 = arith.addf %235, %236 : f32
    affine.store %237, %128[%arg3, %c0, %c0_1] : memref<1x4x4xf32>
    %238 = affine.apply affine_map<(d0) -> (d0 + 1)>(%c0_1)
    %239 = affine.load %0[%arg3, %c0, %c0_6] : memref<1x4x8xf32>
    %240 = affine.load %64[%arg3, %c0_6, %238] : memref<1x8x4xf32>
    %241 = affine.load %128[%arg3, %c0, %238] : memref<1x4x4xf32>
    %242 = arith.mulf %239, %240 : f32
    %243 = arith.addf %241, %242 : f32
    affine.store %243, %128[%arg3, %c0, %238] : memref<1x4x4xf32>
    %244 = affine.apply affine_map<(d0) -> (d0 + 1)>(%c0_6)
    %245 = affine.load %0[%arg3, %c0, %244] : memref<1x4x8xf32>
    %246 = affine.load %64[%arg3, %244, %238] : memref<1x8x4xf32>
    %247 = affine.load %128[%arg3, %c0, %238] : memref<1x4x4xf32>
    %248 = arith.mulf %245, %246 : f32
    %249 = arith.addf %247, %248 : f32
    affine.store %249, %128[%arg3, %c0, %238] : memref<1x4x4xf32>
    %250 = affine.apply affine_map<(d0) -> (d0 + 2)>(%c0_6)
    %251 = affine.load %0[%arg3, %c0, %250] : memref<1x4x8xf32>
    %252 = affine.load %64[%arg3, %250, %238] : memref<1x8x4xf32>
    %253 = affine.load %128[%arg3, %c0, %238] : memref<1x4x4xf32>
    %254 = arith.mulf %251, %252 : f32
    %255 = arith.addf %253, %254 : f32
    affine.store %255, %128[%arg3, %c0, %238] : memref<1x4x4xf32>
    %256 = affine.apply affine_map<(d0) -> (d0 + 3)>(%c0_6)
    %257 = affine.load %0[%arg3, %c0, %256] : memref<1x4x8xf32>
    %258 = affine.load %64[%arg3, %256, %238] : memref<1x8x4xf32>
    %259 = affine.load %128[%arg3, %c0, %238] : memref<1x4x4xf32>
    %260 = arith.mulf %257, %258 : f32
    %261 = arith.addf %259, %260 : f32
    affine.store %261, %128[%arg3, %c0, %238] : memref<1x4x4xf32>
    %262 = affine.apply affine_map<(d0) -> (d0 + 4)>(%c0_6)
    %263 = affine.load %0[%arg3, %c0, %262] : memref<1x4x8xf32>
    %264 = affine.load %64[%arg3, %262, %238] : memref<1x8x4xf32>
    %265 = affine.load %128[%arg3, %c0, %238] : memref<1x4x4xf32>
    %266 = arith.mulf %263, %264 : f32
    %267 = arith.addf %265, %266 : f32
    affine.store %267, %128[%arg3, %c0, %238] : memref<1x4x4xf32>
    %268 = affine.apply affine_map<(d0) -> (d0 + 5)>(%c0_6)
    %269 = affine.load %0[%arg3, %c0, %268] : memref<1x4x8xf32>
    %270 = affine.load %64[%arg3, %268, %238] : memref<1x8x4xf32>
    %271 = affine.load %128[%arg3, %c0, %238] : memref<1x4x4xf32>
    %272 = arith.mulf %269, %270 : f32
    %273 = arith.addf %271, %272 : f32
    affine.store %273, %128[%arg3, %c0, %238] : memref<1x4x4xf32>
    %274 = affine.apply affine_map<(d0) -> (d0 + 6)>(%c0_6)
    %275 = affine.load %0[%arg3, %c0, %274] : memref<1x4x8xf32>
    %276 = affine.load %64[%arg3, %274, %238] : memref<1x8x4xf32>
    %277 = affine.load %128[%arg3, %c0, %238] : memref<1x4x4xf32>
    %278 = arith.mulf %275, %276 : f32
    %279 = arith.addf %277, %278 : f32
    affine.store %279, %128[%arg3, %c0, %238] : memref<1x4x4xf32>
    %280 = affine.apply affine_map<(d0) -> (d0 + 7)>(%c0_6)
    %281 = affine.load %0[%arg3, %c0, %280] : memref<1x4x8xf32>
    %282 = affine.load %64[%arg3, %280, %238] : memref<1x8x4xf32>
    %283 = affine.load %128[%arg3, %c0, %238] : memref<1x4x4xf32>
    %284 = arith.mulf %281, %282 : f32
    %285 = arith.addf %283, %284 : f32
    affine.store %285, %128[%arg3, %c0, %238] : memref<1x4x4xf32>
    %286 = affine.apply affine_map<(d0) -> (d0 + 2)>(%c0_1)
    %287 = affine.load %0[%arg3, %c0, %c0_6] : memref<1x4x8xf32>
    %288 = affine.load %64[%arg3, %c0_6, %286] : memref<1x8x4xf32>
    %289 = affine.load %128[%arg3, %c0, %286] : memref<1x4x4xf32>
    %290 = arith.mulf %287, %288 : f32
    %291 = arith.addf %289, %290 : f32
    affine.store %291, %128[%arg3, %c0, %286] : memref<1x4x4xf32>
    %292 = affine.apply affine_map<(d0) -> (d0 + 1)>(%c0_6)
    %293 = affine.load %0[%arg3, %c0, %292] : memref<1x4x8xf32>
    %294 = affine.load %64[%arg3, %292, %286] : memref<1x8x4xf32>
    %295 = affine.load %128[%arg3, %c0, %286] : memref<1x4x4xf32>
    %296 = arith.mulf %293, %294 : f32
    %297 = arith.addf %295, %296 : f32
    affine.store %297, %128[%arg3, %c0, %286] : memref<1x4x4xf32>
    %298 = affine.apply affine_map<(d0) -> (d0 + 2)>(%c0_6)
    %299 = affine.load %0[%arg3, %c0, %298] : memref<1x4x8xf32>
    %300 = affine.load %64[%arg3, %298, %286] : memref<1x8x4xf32>
    %301 = affine.load %128[%arg3, %c0, %286] : memref<1x4x4xf32>
    %302 = arith.mulf %299, %300 : f32
    %303 = arith.addf %301, %302 : f32
    affine.store %303, %128[%arg3, %c0, %286] : memref<1x4x4xf32>
    %304 = affine.apply affine_map<(d0) -> (d0 + 3)>(%c0_6)
    %305 = affine.load %0[%arg3, %c0, %304] : memref<1x4x8xf32>
    %306 = affine.load %64[%arg3, %304, %286] : memref<1x8x4xf32>
    %307 = affine.load %128[%arg3, %c0, %286] : memref<1x4x4xf32>
    %308 = arith.mulf %305, %306 : f32
    %309 = arith.addf %307, %308 : f32
    affine.store %309, %128[%arg3, %c0, %286] : memref<1x4x4xf32>
    %310 = affine.apply affine_map<(d0) -> (d0 + 4)>(%c0_6)
    %311 = affine.load %0[%arg3, %c0, %310] : memref<1x4x8xf32>
    %312 = affine.load %64[%arg3, %310, %286] : memref<1x8x4xf32>
    %313 = affine.load %128[%arg3, %c0, %286] : memref<1x4x4xf32>
    %314 = arith.mulf %311, %312 : f32
    %315 = arith.addf %313, %314 : f32
    affine.store %315, %128[%arg3, %c0, %286] : memref<1x4x4xf32>
    %316 = affine.apply affine_map<(d0) -> (d0 + 5)>(%c0_6)
    %317 = affine.load %0[%arg3, %c0, %316] : memref<1x4x8xf32>
    %318 = affine.load %64[%arg3, %316, %286] : memref<1x8x4xf32>
    %319 = affine.load %128[%arg3, %c0, %286] : memref<1x4x4xf32>
    %320 = arith.mulf %317, %318 : f32
    %321 = arith.addf %319, %320 : f32
    affine.store %321, %128[%arg3, %c0, %286] : memref<1x4x4xf32>
    %322 = affine.apply affine_map<(d0) -> (d0 + 6)>(%c0_6)
    %323 = affine.load %0[%arg3, %c0, %322] : memref<1x4x8xf32>
    %324 = affine.load %64[%arg3, %322, %286] : memref<1x8x4xf32>
    %325 = affine.load %128[%arg3, %c0, %286] : memref<1x4x4xf32>
    %326 = arith.mulf %323, %324 : f32
    %327 = arith.addf %325, %326 : f32
    affine.store %327, %128[%arg3, %c0, %286] : memref<1x4x4xf32>
    %328 = affine.apply affine_map<(d0) -> (d0 + 7)>(%c0_6)
    %329 = affine.load %0[%arg3, %c0, %328] : memref<1x4x8xf32>
    %330 = affine.load %64[%arg3, %328, %286] : memref<1x8x4xf32>
    %331 = affine.load %128[%arg3, %c0, %286] : memref<1x4x4xf32>
    %332 = arith.mulf %329, %330 : f32
    %333 = arith.addf %331, %332 : f32
    affine.store %333, %128[%arg3, %c0, %286] : memref<1x4x4xf32>
    %334 = affine.apply affine_map<(d0) -> (d0 + 3)>(%c0_1)
    %335 = affine.load %0[%arg3, %c0, %c0_6] : memref<1x4x8xf32>
    %336 = affine.load %64[%arg3, %c0_6, %334] : memref<1x8x4xf32>
    %337 = affine.load %128[%arg3, %c0, %334] : memref<1x4x4xf32>
    %338 = arith.mulf %335, %336 : f32
    %339 = arith.addf %337, %338 : f32
    affine.store %339, %128[%arg3, %c0, %334] : memref<1x4x4xf32>
    %340 = affine.apply affine_map<(d0) -> (d0 + 1)>(%c0_6)
    %341 = affine.load %0[%arg3, %c0, %340] : memref<1x4x8xf32>
    %342 = affine.load %64[%arg3, %340, %334] : memref<1x8x4xf32>
    %343 = affine.load %128[%arg3, %c0, %334] : memref<1x4x4xf32>
    %344 = arith.mulf %341, %342 : f32
    %345 = arith.addf %343, %344 : f32
    affine.store %345, %128[%arg3, %c0, %334] : memref<1x4x4xf32>
    %346 = affine.apply affine_map<(d0) -> (d0 + 2)>(%c0_6)
    %347 = affine.load %0[%arg3, %c0, %346] : memref<1x4x8xf32>
    %348 = affine.load %64[%arg3, %346, %334] : memref<1x8x4xf32>
    %349 = affine.load %128[%arg3, %c0, %334] : memref<1x4x4xf32>
    %350 = arith.mulf %347, %348 : f32
    %351 = arith.addf %349, %350 : f32
    affine.store %351, %128[%arg3, %c0, %334] : memref<1x4x4xf32>
    %352 = affine.apply affine_map<(d0) -> (d0 + 3)>(%c0_6)
    %353 = affine.load %0[%arg3, %c0, %352] : memref<1x4x8xf32>
    %354 = affine.load %64[%arg3, %352, %334] : memref<1x8x4xf32>
    %355 = affine.load %128[%arg3, %c0, %334] : memref<1x4x4xf32>
    %356 = arith.mulf %353, %354 : f32
    %357 = arith.addf %355, %356 : f32
    affine.store %357, %128[%arg3, %c0, %334] : memref<1x4x4xf32>
    %358 = affine.apply affine_map<(d0) -> (d0 + 4)>(%c0_6)
    %359 = affine.load %0[%arg3, %c0, %358] : memref<1x4x8xf32>
    %360 = affine.load %64[%arg3, %358, %334] : memref<1x8x4xf32>
    %361 = affine.load %128[%arg3, %c0, %334] : memref<1x4x4xf32>
    %362 = arith.mulf %359, %360 : f32
    %363 = arith.addf %361, %362 : f32
    affine.store %363, %128[%arg3, %c0, %334] : memref<1x4x4xf32>
    %364 = affine.apply affine_map<(d0) -> (d0 + 5)>(%c0_6)
    %365 = affine.load %0[%arg3, %c0, %364] : memref<1x4x8xf32>
    %366 = affine.load %64[%arg3, %364, %334] : memref<1x8x4xf32>
    %367 = affine.load %128[%arg3, %c0, %334] : memref<1x4x4xf32>
    %368 = arith.mulf %365, %366 : f32
    %369 = arith.addf %367, %368 : f32
    affine.store %369, %128[%arg3, %c0, %334] : memref<1x4x4xf32>
    %370 = affine.apply affine_map<(d0) -> (d0 + 6)>(%c0_6)
    %371 = affine.load %0[%arg3, %c0, %370] : memref<1x4x8xf32>
    %372 = affine.load %64[%arg3, %370, %334] : memref<1x8x4xf32>
    %373 = affine.load %128[%arg3, %c0, %334] : memref<1x4x4xf32>
    %374 = arith.mulf %371, %372 : f32
    %375 = arith.addf %373, %374 : f32
    affine.store %375, %128[%arg3, %c0, %334] : memref<1x4x4xf32>
    %376 = affine.apply affine_map<(d0) -> (d0 + 7)>(%c0_6)
    %377 = affine.load %0[%arg3, %c0, %376] : memref<1x4x8xf32>
    %378 = affine.load %64[%arg3, %376, %334] : memref<1x8x4xf32>
    %379 = affine.load %128[%arg3, %c0, %334] : memref<1x4x4xf32>
    %380 = arith.mulf %377, %378 : f32
    %381 = arith.addf %379, %380 : f32
    affine.store %381, %128[%arg3, %c0, %334] : memref<1x4x4xf32>
    %382 = affine.apply affine_map<(d0) -> (d0 + 1)>(%c0)
    %383 = affine.load %0[%arg3, %382, %c0_6] : memref<1x4x8xf32>
    %384 = affine.load %64[%arg3, %c0_6, %c0_1] : memref<1x8x4xf32>
    %385 = affine.load %128[%arg3, %382, %c0_1] : memref<1x4x4xf32>
    %386 = arith.mulf %383, %384 : f32
    %387 = arith.addf %385, %386 : f32
    affine.store %387, %128[%arg3, %382, %c0_1] : memref<1x4x4xf32>
    %388 = affine.apply affine_map<(d0) -> (d0 + 1)>(%c0_6)
    %389 = affine.load %0[%arg3, %382, %388] : memref<1x4x8xf32>
    %390 = affine.load %64[%arg3, %388, %c0_1] : memref<1x8x4xf32>
    %391 = affine.load %128[%arg3, %382, %c0_1] : memref<1x4x4xf32>
    %392 = arith.mulf %389, %390 : f32
    %393 = arith.addf %391, %392 : f32
    affine.store %393, %128[%arg3, %382, %c0_1] : memref<1x4x4xf32>
    %394 = affine.apply affine_map<(d0) -> (d0 + 2)>(%c0_6)
    %395 = affine.load %0[%arg3, %382, %394] : memref<1x4x8xf32>
    %396 = affine.load %64[%arg3, %394, %c0_1] : memref<1x8x4xf32>
    %397 = affine.load %128[%arg3, %382, %c0_1] : memref<1x4x4xf32>
    %398 = arith.mulf %395, %396 : f32
    %399 = arith.addf %397, %398 : f32
    affine.store %399, %128[%arg3, %382, %c0_1] : memref<1x4x4xf32>
    %400 = affine.apply affine_map<(d0) -> (d0 + 3)>(%c0_6)
    %401 = affine.load %0[%arg3, %382, %400] : memref<1x4x8xf32>
    %402 = affine.load %64[%arg3, %400, %c0_1] : memref<1x8x4xf32>
    %403 = affine.load %128[%arg3, %382, %c0_1] : memref<1x4x4xf32>
    %404 = arith.mulf %401, %402 : f32
    %405 = arith.addf %403, %404 : f32
    affine.store %405, %128[%arg3, %382, %c0_1] : memref<1x4x4xf32>
    %406 = affine.apply affine_map<(d0) -> (d0 + 4)>(%c0_6)
    %407 = affine.load %0[%arg3, %382, %406] : memref<1x4x8xf32>
    %408 = affine.load %64[%arg3, %406, %c0_1] : memref<1x8x4xf32>
    %409 = affine.load %128[%arg3, %382, %c0_1] : memref<1x4x4xf32>
    %410 = arith.mulf %407, %408 : f32
    %411 = arith.addf %409, %410 : f32
    affine.store %411, %128[%arg3, %382, %c0_1] : memref<1x4x4xf32>
    %412 = affine.apply affine_map<(d0) -> (d0 + 5)>(%c0_6)
    %413 = affine.load %0[%arg3, %382, %412] : memref<1x4x8xf32>
    %414 = affine.load %64[%arg3, %412, %c0_1] : memref<1x8x4xf32>
    %415 = affine.load %128[%arg3, %382, %c0_1] : memref<1x4x4xf32>
    %416 = arith.mulf %413, %414 : f32
    %417 = arith.addf %415, %416 : f32
    affine.store %417, %128[%arg3, %382, %c0_1] : memref<1x4x4xf32>
    %418 = affine.apply affine_map<(d0) -> (d0 + 6)>(%c0_6)
    %419 = affine.load %0[%arg3, %382, %418] : memref<1x4x8xf32>
    %420 = affine.load %64[%arg3, %418, %c0_1] : memref<1x8x4xf32>
    %421 = affine.load %128[%arg3, %382, %c0_1] : memref<1x4x4xf32>
    %422 = arith.mulf %419, %420 : f32
    %423 = arith.addf %421, %422 : f32
    affine.store %423, %128[%arg3, %382, %c0_1] : memref<1x4x4xf32>
    %424 = affine.apply affine_map<(d0) -> (d0 + 7)>(%c0_6)
    %425 = affine.load %0[%arg3, %382, %424] : memref<1x4x8xf32>
    %426 = affine.load %64[%arg3, %424, %c0_1] : memref<1x8x4xf32>
    %427 = affine.load %128[%arg3, %382, %c0_1] : memref<1x4x4xf32>
    %428 = arith.mulf %425, %426 : f32
    %429 = arith.addf %427, %428 : f32
    affine.store %429, %128[%arg3, %382, %c0_1] : memref<1x4x4xf32>
    %430 = affine.apply affine_map<(d0) -> (d0 + 1)>(%c0_1)
    %431 = affine.load %0[%arg3, %382, %c0_6] : memref<1x4x8xf32>
    %432 = affine.load %64[%arg3, %c0_6, %430] : memref<1x8x4xf32>
    %433 = affine.load %128[%arg3, %382, %430] : memref<1x4x4xf32>
    %434 = arith.mulf %431, %432 : f32
    %435 = arith.addf %433, %434 : f32
    affine.store %435, %128[%arg3, %382, %430] : memref<1x4x4xf32>
    %436 = affine.apply affine_map<(d0) -> (d0 + 1)>(%c0_6)
    %437 = affine.load %0[%arg3, %382, %436] : memref<1x4x8xf32>
    %438 = affine.load %64[%arg3, %436, %430] : memref<1x8x4xf32>
    %439 = affine.load %128[%arg3, %382, %430] : memref<1x4x4xf32>
    %440 = arith.mulf %437, %438 : f32
    %441 = arith.addf %439, %440 : f32
    affine.store %441, %128[%arg3, %382, %430] : memref<1x4x4xf32>
    %442 = affine.apply affine_map<(d0) -> (d0 + 2)>(%c0_6)
    %443 = affine.load %0[%arg3, %382, %442] : memref<1x4x8xf32>
    %444 = affine.load %64[%arg3, %442, %430] : memref<1x8x4xf32>
    %445 = affine.load %128[%arg3, %382, %430] : memref<1x4x4xf32>
    %446 = arith.mulf %443, %444 : f32
    %447 = arith.addf %445, %446 : f32
    affine.store %447, %128[%arg3, %382, %430] : memref<1x4x4xf32>
    %448 = affine.apply affine_map<(d0) -> (d0 + 3)>(%c0_6)
    %449 = affine.load %0[%arg3, %382, %448] : memref<1x4x8xf32>
    %450 = affine.load %64[%arg3, %448, %430] : memref<1x8x4xf32>
    %451 = affine.load %128[%arg3, %382, %430] : memref<1x4x4xf32>
    %452 = arith.mulf %449, %450 : f32
    %453 = arith.addf %451, %452 : f32
    affine.store %453, %128[%arg3, %382, %430] : memref<1x4x4xf32>
    %454 = affine.apply affine_map<(d0) -> (d0 + 4)>(%c0_6)
    %455 = affine.load %0[%arg3, %382, %454] : memref<1x4x8xf32>
    %456 = affine.load %64[%arg3, %454, %430] : memref<1x8x4xf32>
    %457 = affine.load %128[%arg3, %382, %430] : memref<1x4x4xf32>
    %458 = arith.mulf %455, %456 : f32
    %459 = arith.addf %457, %458 : f32
    affine.store %459, %128[%arg3, %382, %430] : memref<1x4x4xf32>
    %460 = affine.apply affine_map<(d0) -> (d0 + 5)>(%c0_6)
    %461 = affine.load %0[%arg3, %382, %460] : memref<1x4x8xf32>
    %462 = affine.load %64[%arg3, %460, %430] : memref<1x8x4xf32>
    %463 = affine.load %128[%arg3, %382, %430] : memref<1x4x4xf32>
    %464 = arith.mulf %461, %462 : f32
    %465 = arith.addf %463, %464 : f32
    affine.store %465, %128[%arg3, %382, %430] : memref<1x4x4xf32>
    %466 = affine.apply affine_map<(d0) -> (d0 + 6)>(%c0_6)
    %467 = affine.load %0[%arg3, %382, %466] : memref<1x4x8xf32>
    %468 = affine.load %64[%arg3, %466, %430] : memref<1x8x4xf32>
    %469 = affine.load %128[%arg3, %382, %430] : memref<1x4x4xf32>
    %470 = arith.mulf %467, %468 : f32
    %471 = arith.addf %469, %470 : f32
    affine.store %471, %128[%arg3, %382, %430] : memref<1x4x4xf32>
    %472 = affine.apply affine_map<(d0) -> (d0 + 7)>(%c0_6)
    %473 = affine.load %0[%arg3, %382, %472] : memref<1x4x8xf32>
    %474 = affine.load %64[%arg3, %472, %430] : memref<1x8x4xf32>
    %475 = affine.load %128[%arg3, %382, %430] : memref<1x4x4xf32>
    %476 = arith.mulf %473, %474 : f32
    %477 = arith.addf %475, %476 : f32
    affine.store %477, %128[%arg3, %382, %430] : memref<1x4x4xf32>
    %478 = affine.apply affine_map<(d0) -> (d0 + 2)>(%c0_1)
    %479 = affine.load %0[%arg3, %382, %c0_6] : memref<1x4x8xf32>
    %480 = affine.load %64[%arg3, %c0_6, %478] : memref<1x8x4xf32>
    %481 = affine.load %128[%arg3, %382, %478] : memref<1x4x4xf32>
    %482 = arith.mulf %479, %480 : f32
    %483 = arith.addf %481, %482 : f32
    affine.store %483, %128[%arg3, %382, %478] : memref<1x4x4xf32>
    %484 = affine.apply affine_map<(d0) -> (d0 + 1)>(%c0_6)
    %485 = affine.load %0[%arg3, %382, %484] : memref<1x4x8xf32>
    %486 = affine.load %64[%arg3, %484, %478] : memref<1x8x4xf32>
    %487 = affine.load %128[%arg3, %382, %478] : memref<1x4x4xf32>
    %488 = arith.mulf %485, %486 : f32
    %489 = arith.addf %487, %488 : f32
    affine.store %489, %128[%arg3, %382, %478] : memref<1x4x4xf32>
    %490 = affine.apply affine_map<(d0) -> (d0 + 2)>(%c0_6)
    %491 = affine.load %0[%arg3, %382, %490] : memref<1x4x8xf32>
    %492 = affine.load %64[%arg3, %490, %478] : memref<1x8x4xf32>
    %493 = affine.load %128[%arg3, %382, %478] : memref<1x4x4xf32>
    %494 = arith.mulf %491, %492 : f32
    %495 = arith.addf %493, %494 : f32
    affine.store %495, %128[%arg3, %382, %478] : memref<1x4x4xf32>
    %496 = affine.apply affine_map<(d0) -> (d0 + 3)>(%c0_6)
    %497 = affine.load %0[%arg3, %382, %496] : memref<1x4x8xf32>
    %498 = affine.load %64[%arg3, %496, %478] : memref<1x8x4xf32>
    %499 = affine.load %128[%arg3, %382, %478] : memref<1x4x4xf32>
    %500 = arith.mulf %497, %498 : f32
    %501 = arith.addf %499, %500 : f32
    affine.store %501, %128[%arg3, %382, %478] : memref<1x4x4xf32>
    %502 = affine.apply affine_map<(d0) -> (d0 + 4)>(%c0_6)
    %503 = affine.load %0[%arg3, %382, %502] : memref<1x4x8xf32>
    %504 = affine.load %64[%arg3, %502, %478] : memref<1x8x4xf32>
    %505 = affine.load %128[%arg3, %382, %478] : memref<1x4x4xf32>
    %506 = arith.mulf %503, %504 : f32
    %507 = arith.addf %505, %506 : f32
    affine.store %507, %128[%arg3, %382, %478] : memref<1x4x4xf32>
    %508 = affine.apply affine_map<(d0) -> (d0 + 5)>(%c0_6)
    %509 = affine.load %0[%arg3, %382, %508] : memref<1x4x8xf32>
    %510 = affine.load %64[%arg3, %508, %478] : memref<1x8x4xf32>
    %511 = affine.load %128[%arg3, %382, %478] : memref<1x4x4xf32>
    %512 = arith.mulf %509, %510 : f32
    %513 = arith.addf %511, %512 : f32
    affine.store %513, %128[%arg3, %382, %478] : memref<1x4x4xf32>
    %514 = affine.apply affine_map<(d0) -> (d0 + 6)>(%c0_6)
    %515 = affine.load %0[%arg3, %382, %514] : memref<1x4x8xf32>
    %516 = affine.load %64[%arg3, %514, %478] : memref<1x8x4xf32>
    %517 = affine.load %128[%arg3, %382, %478] : memref<1x4x4xf32>
    %518 = arith.mulf %515, %516 : f32
    %519 = arith.addf %517, %518 : f32
    affine.store %519, %128[%arg3, %382, %478] : memref<1x4x4xf32>
    %520 = affine.apply affine_map<(d0) -> (d0 + 7)>(%c0_6)
    %521 = affine.load %0[%arg3, %382, %520] : memref<1x4x8xf32>
    %522 = affine.load %64[%arg3, %520, %478] : memref<1x8x4xf32>
    %523 = affine.load %128[%arg3, %382, %478] : memref<1x4x4xf32>
    %524 = arith.mulf %521, %522 : f32
    %525 = arith.addf %523, %524 : f32
    affine.store %525, %128[%arg3, %382, %478] : memref<1x4x4xf32>
    %526 = affine.apply affine_map<(d0) -> (d0 + 3)>(%c0_1)
    %527 = affine.load %0[%arg3, %382, %c0_6] : memref<1x4x8xf32>
    %528 = affine.load %64[%arg3, %c0_6, %526] : memref<1x8x4xf32>
    %529 = affine.load %128[%arg3, %382, %526] : memref<1x4x4xf32>
    %530 = arith.mulf %527, %528 : f32
    %531 = arith.addf %529, %530 : f32
    affine.store %531, %128[%arg3, %382, %526] : memref<1x4x4xf32>
    %532 = affine.apply affine_map<(d0) -> (d0 + 1)>(%c0_6)
    %533 = affine.load %0[%arg3, %382, %532] : memref<1x4x8xf32>
    %534 = affine.load %64[%arg3, %532, %526] : memref<1x8x4xf32>
    %535 = affine.load %128[%arg3, %382, %526] : memref<1x4x4xf32>
    %536 = arith.mulf %533, %534 : f32
    %537 = arith.addf %535, %536 : f32
    affine.store %537, %128[%arg3, %382, %526] : memref<1x4x4xf32>
    %538 = affine.apply affine_map<(d0) -> (d0 + 2)>(%c0_6)
    %539 = affine.load %0[%arg3, %382, %538] : memref<1x4x8xf32>
    %540 = affine.load %64[%arg3, %538, %526] : memref<1x8x4xf32>
    %541 = affine.load %128[%arg3, %382, %526] : memref<1x4x4xf32>
    %542 = arith.mulf %539, %540 : f32
    %543 = arith.addf %541, %542 : f32
    affine.store %543, %128[%arg3, %382, %526] : memref<1x4x4xf32>
    %544 = affine.apply affine_map<(d0) -> (d0 + 3)>(%c0_6)
    %545 = affine.load %0[%arg3, %382, %544] : memref<1x4x8xf32>
    %546 = affine.load %64[%arg3, %544, %526] : memref<1x8x4xf32>
    %547 = affine.load %128[%arg3, %382, %526] : memref<1x4x4xf32>
    %548 = arith.mulf %545, %546 : f32
    %549 = arith.addf %547, %548 : f32
    affine.store %549, %128[%arg3, %382, %526] : memref<1x4x4xf32>
    %550 = affine.apply affine_map<(d0) -> (d0 + 4)>(%c0_6)
    %551 = affine.load %0[%arg3, %382, %550] : memref<1x4x8xf32>
    %552 = affine.load %64[%arg3, %550, %526] : memref<1x8x4xf32>
    %553 = affine.load %128[%arg3, %382, %526] : memref<1x4x4xf32>
    %554 = arith.mulf %551, %552 : f32
    %555 = arith.addf %553, %554 : f32
    affine.store %555, %128[%arg3, %382, %526] : memref<1x4x4xf32>
    %556 = affine.apply affine_map<(d0) -> (d0 + 5)>(%c0_6)
    %557 = affine.load %0[%arg3, %382, %556] : memref<1x4x8xf32>
    %558 = affine.load %64[%arg3, %556, %526] : memref<1x8x4xf32>
    %559 = affine.load %128[%arg3, %382, %526] : memref<1x4x4xf32>
    %560 = arith.mulf %557, %558 : f32
    %561 = arith.addf %559, %560 : f32
    affine.store %561, %128[%arg3, %382, %526] : memref<1x4x4xf32>
    %562 = affine.apply affine_map<(d0) -> (d0 + 6)>(%c0_6)
    %563 = affine.load %0[%arg3, %382, %562] : memref<1x4x8xf32>
    %564 = affine.load %64[%arg3, %562, %526] : memref<1x8x4xf32>
    %565 = affine.load %128[%arg3, %382, %526] : memref<1x4x4xf32>
    %566 = arith.mulf %563, %564 : f32
    %567 = arith.addf %565, %566 : f32
    affine.store %567, %128[%arg3, %382, %526] : memref<1x4x4xf32>
    %568 = affine.apply affine_map<(d0) -> (d0 + 7)>(%c0_6)
    %569 = affine.load %0[%arg3, %382, %568] : memref<1x4x8xf32>
    %570 = affine.load %64[%arg3, %568, %526] : memref<1x8x4xf32>
    %571 = affine.load %128[%arg3, %382, %526] : memref<1x4x4xf32>
    %572 = arith.mulf %569, %570 : f32
    %573 = arith.addf %571, %572 : f32
    affine.store %573, %128[%arg3, %382, %526] : memref<1x4x4xf32>
    %574 = affine.apply affine_map<(d0) -> (d0 + 2)>(%c0)
    %575 = affine.load %0[%arg3, %574, %c0_6] : memref<1x4x8xf32>
    %576 = affine.load %64[%arg3, %c0_6, %c0_1] : memref<1x8x4xf32>
    %577 = affine.load %128[%arg3, %574, %c0_1] : memref<1x4x4xf32>
    %578 = arith.mulf %575, %576 : f32
    %579 = arith.addf %577, %578 : f32
    affine.store %579, %128[%arg3, %574, %c0_1] : memref<1x4x4xf32>
    %580 = affine.apply affine_map<(d0) -> (d0 + 1)>(%c0_6)
    %581 = affine.load %0[%arg3, %574, %580] : memref<1x4x8xf32>
    %582 = affine.load %64[%arg3, %580, %c0_1] : memref<1x8x4xf32>
    %583 = affine.load %128[%arg3, %574, %c0_1] : memref<1x4x4xf32>
    %584 = arith.mulf %581, %582 : f32
    %585 = arith.addf %583, %584 : f32
    affine.store %585, %128[%arg3, %574, %c0_1] : memref<1x4x4xf32>
    %586 = affine.apply affine_map<(d0) -> (d0 + 2)>(%c0_6)
    %587 = affine.load %0[%arg3, %574, %586] : memref<1x4x8xf32>
    %588 = affine.load %64[%arg3, %586, %c0_1] : memref<1x8x4xf32>
    %589 = affine.load %128[%arg3, %574, %c0_1] : memref<1x4x4xf32>
    %590 = arith.mulf %587, %588 : f32
    %591 = arith.addf %589, %590 : f32
    affine.store %591, %128[%arg3, %574, %c0_1] : memref<1x4x4xf32>
    %592 = affine.apply affine_map<(d0) -> (d0 + 3)>(%c0_6)
    %593 = affine.load %0[%arg3, %574, %592] : memref<1x4x8xf32>
    %594 = affine.load %64[%arg3, %592, %c0_1] : memref<1x8x4xf32>
    %595 = affine.load %128[%arg3, %574, %c0_1] : memref<1x4x4xf32>
    %596 = arith.mulf %593, %594 : f32
    %597 = arith.addf %595, %596 : f32
    affine.store %597, %128[%arg3, %574, %c0_1] : memref<1x4x4xf32>
    %598 = affine.apply affine_map<(d0) -> (d0 + 4)>(%c0_6)
    %599 = affine.load %0[%arg3, %574, %598] : memref<1x4x8xf32>
    %600 = affine.load %64[%arg3, %598, %c0_1] : memref<1x8x4xf32>
    %601 = affine.load %128[%arg3, %574, %c0_1] : memref<1x4x4xf32>
    %602 = arith.mulf %599, %600 : f32
    %603 = arith.addf %601, %602 : f32
    affine.store %603, %128[%arg3, %574, %c0_1] : memref<1x4x4xf32>
    %604 = affine.apply affine_map<(d0) -> (d0 + 5)>(%c0_6)
    %605 = affine.load %0[%arg3, %574, %604] : memref<1x4x8xf32>
    %606 = affine.load %64[%arg3, %604, %c0_1] : memref<1x8x4xf32>
    %607 = affine.load %128[%arg3, %574, %c0_1] : memref<1x4x4xf32>
    %608 = arith.mulf %605, %606 : f32
    %609 = arith.addf %607, %608 : f32
    affine.store %609, %128[%arg3, %574, %c0_1] : memref<1x4x4xf32>
    %610 = affine.apply affine_map<(d0) -> (d0 + 6)>(%c0_6)
    %611 = affine.load %0[%arg3, %574, %610] : memref<1x4x8xf32>
    %612 = affine.load %64[%arg3, %610, %c0_1] : memref<1x8x4xf32>
    %613 = affine.load %128[%arg3, %574, %c0_1] : memref<1x4x4xf32>
    %614 = arith.mulf %611, %612 : f32
    %615 = arith.addf %613, %614 : f32
    affine.store %615, %128[%arg3, %574, %c0_1] : memref<1x4x4xf32>
    %616 = affine.apply affine_map<(d0) -> (d0 + 7)>(%c0_6)
    %617 = affine.load %0[%arg3, %574, %616] : memref<1x4x8xf32>
    %618 = affine.load %64[%arg3, %616, %c0_1] : memref<1x8x4xf32>
    %619 = affine.load %128[%arg3, %574, %c0_1] : memref<1x4x4xf32>
    %620 = arith.mulf %617, %618 : f32
    %621 = arith.addf %619, %620 : f32
    affine.store %621, %128[%arg3, %574, %c0_1] : memref<1x4x4xf32>
    %622 = affine.apply affine_map<(d0) -> (d0 + 1)>(%c0_1)
    %623 = affine.load %0[%arg3, %574, %c0_6] : memref<1x4x8xf32>
    %624 = affine.load %64[%arg3, %c0_6, %622] : memref<1x8x4xf32>
    %625 = affine.load %128[%arg3, %574, %622] : memref<1x4x4xf32>
    %626 = arith.mulf %623, %624 : f32
    %627 = arith.addf %625, %626 : f32
    affine.store %627, %128[%arg3, %574, %622] : memref<1x4x4xf32>
    %628 = affine.apply affine_map<(d0) -> (d0 + 1)>(%c0_6)
    %629 = affine.load %0[%arg3, %574, %628] : memref<1x4x8xf32>
    %630 = affine.load %64[%arg3, %628, %622] : memref<1x8x4xf32>
    %631 = affine.load %128[%arg3, %574, %622] : memref<1x4x4xf32>
    %632 = arith.mulf %629, %630 : f32
    %633 = arith.addf %631, %632 : f32
    affine.store %633, %128[%arg3, %574, %622] : memref<1x4x4xf32>
    %634 = affine.apply affine_map<(d0) -> (d0 + 2)>(%c0_6)
    %635 = affine.load %0[%arg3, %574, %634] : memref<1x4x8xf32>
    %636 = affine.load %64[%arg3, %634, %622] : memref<1x8x4xf32>
    %637 = affine.load %128[%arg3, %574, %622] : memref<1x4x4xf32>
    %638 = arith.mulf %635, %636 : f32
    %639 = arith.addf %637, %638 : f32
    affine.store %639, %128[%arg3, %574, %622] : memref<1x4x4xf32>
    %640 = affine.apply affine_map<(d0) -> (d0 + 3)>(%c0_6)
    %641 = affine.load %0[%arg3, %574, %640] : memref<1x4x8xf32>
    %642 = affine.load %64[%arg3, %640, %622] : memref<1x8x4xf32>
    %643 = affine.load %128[%arg3, %574, %622] : memref<1x4x4xf32>
    %644 = arith.mulf %641, %642 : f32
    %645 = arith.addf %643, %644 : f32
    affine.store %645, %128[%arg3, %574, %622] : memref<1x4x4xf32>
    %646 = affine.apply affine_map<(d0) -> (d0 + 4)>(%c0_6)
    %647 = affine.load %0[%arg3, %574, %646] : memref<1x4x8xf32>
    %648 = affine.load %64[%arg3, %646, %622] : memref<1x8x4xf32>
    %649 = affine.load %128[%arg3, %574, %622] : memref<1x4x4xf32>
    %650 = arith.mulf %647, %648 : f32
    %651 = arith.addf %649, %650 : f32
    affine.store %651, %128[%arg3, %574, %622] : memref<1x4x4xf32>
    %652 = affine.apply affine_map<(d0) -> (d0 + 5)>(%c0_6)
    %653 = affine.load %0[%arg3, %574, %652] : memref<1x4x8xf32>
    %654 = affine.load %64[%arg3, %652, %622] : memref<1x8x4xf32>
    %655 = affine.load %128[%arg3, %574, %622] : memref<1x4x4xf32>
    %656 = arith.mulf %653, %654 : f32
    %657 = arith.addf %655, %656 : f32
    affine.store %657, %128[%arg3, %574, %622] : memref<1x4x4xf32>
    %658 = affine.apply affine_map<(d0) -> (d0 + 6)>(%c0_6)
    %659 = affine.load %0[%arg3, %574, %658] : memref<1x4x8xf32>
    %660 = affine.load %64[%arg3, %658, %622] : memref<1x8x4xf32>
    %661 = affine.load %128[%arg3, %574, %622] : memref<1x4x4xf32>
    %662 = arith.mulf %659, %660 : f32
    %663 = arith.addf %661, %662 : f32
    affine.store %663, %128[%arg3, %574, %622] : memref<1x4x4xf32>
    %664 = affine.apply affine_map<(d0) -> (d0 + 7)>(%c0_6)
    %665 = affine.load %0[%arg3, %574, %664] : memref<1x4x8xf32>
    %666 = affine.load %64[%arg3, %664, %622] : memref<1x8x4xf32>
    %667 = affine.load %128[%arg3, %574, %622] : memref<1x4x4xf32>
    %668 = arith.mulf %665, %666 : f32
    %669 = arith.addf %667, %668 : f32
    affine.store %669, %128[%arg3, %574, %622] : memref<1x4x4xf32>
    %670 = affine.apply affine_map<(d0) -> (d0 + 2)>(%c0_1)
    %671 = affine.load %0[%arg3, %574, %c0_6] : memref<1x4x8xf32>
    %672 = affine.load %64[%arg3, %c0_6, %670] : memref<1x8x4xf32>
    %673 = affine.load %128[%arg3, %574, %670] : memref<1x4x4xf32>
    %674 = arith.mulf %671, %672 : f32
    %675 = arith.addf %673, %674 : f32
    affine.store %675, %128[%arg3, %574, %670] : memref<1x4x4xf32>
    %676 = affine.apply affine_map<(d0) -> (d0 + 1)>(%c0_6)
    %677 = affine.load %0[%arg3, %574, %676] : memref<1x4x8xf32>
    %678 = affine.load %64[%arg3, %676, %670] : memref<1x8x4xf32>
    %679 = affine.load %128[%arg3, %574, %670] : memref<1x4x4xf32>
    %680 = arith.mulf %677, %678 : f32
    %681 = arith.addf %679, %680 : f32
    affine.store %681, %128[%arg3, %574, %670] : memref<1x4x4xf32>
    %682 = affine.apply affine_map<(d0) -> (d0 + 2)>(%c0_6)
    %683 = affine.load %0[%arg3, %574, %682] : memref<1x4x8xf32>
    %684 = affine.load %64[%arg3, %682, %670] : memref<1x8x4xf32>
    %685 = affine.load %128[%arg3, %574, %670] : memref<1x4x4xf32>
    %686 = arith.mulf %683, %684 : f32
    %687 = arith.addf %685, %686 : f32
    affine.store %687, %128[%arg3, %574, %670] : memref<1x4x4xf32>
    %688 = affine.apply affine_map<(d0) -> (d0 + 3)>(%c0_6)
    %689 = affine.load %0[%arg3, %574, %688] : memref<1x4x8xf32>
    %690 = affine.load %64[%arg3, %688, %670] : memref<1x8x4xf32>
    %691 = affine.load %128[%arg3, %574, %670] : memref<1x4x4xf32>
    %692 = arith.mulf %689, %690 : f32
    %693 = arith.addf %691, %692 : f32
    affine.store %693, %128[%arg3, %574, %670] : memref<1x4x4xf32>
    %694 = affine.apply affine_map<(d0) -> (d0 + 4)>(%c0_6)
    %695 = affine.load %0[%arg3, %574, %694] : memref<1x4x8xf32>
    %696 = affine.load %64[%arg3, %694, %670] : memref<1x8x4xf32>
    %697 = affine.load %128[%arg3, %574, %670] : memref<1x4x4xf32>
    %698 = arith.mulf %695, %696 : f32
    %699 = arith.addf %697, %698 : f32
    affine.store %699, %128[%arg3, %574, %670] : memref<1x4x4xf32>
    %700 = affine.apply affine_map<(d0) -> (d0 + 5)>(%c0_6)
    %701 = affine.load %0[%arg3, %574, %700] : memref<1x4x8xf32>
    %702 = affine.load %64[%arg3, %700, %670] : memref<1x8x4xf32>
    %703 = affine.load %128[%arg3, %574, %670] : memref<1x4x4xf32>
    %704 = arith.mulf %701, %702 : f32
    %705 = arith.addf %703, %704 : f32
    affine.store %705, %128[%arg3, %574, %670] : memref<1x4x4xf32>
    %706 = affine.apply affine_map<(d0) -> (d0 + 6)>(%c0_6)
    %707 = affine.load %0[%arg3, %574, %706] : memref<1x4x8xf32>
    %708 = affine.load %64[%arg3, %706, %670] : memref<1x8x4xf32>
    %709 = affine.load %128[%arg3, %574, %670] : memref<1x4x4xf32>
    %710 = arith.mulf %707, %708 : f32
    %711 = arith.addf %709, %710 : f32
    affine.store %711, %128[%arg3, %574, %670] : memref<1x4x4xf32>
    %712 = affine.apply affine_map<(d0) -> (d0 + 7)>(%c0_6)
    %713 = affine.load %0[%arg3, %574, %712] : memref<1x4x8xf32>
    %714 = affine.load %64[%arg3, %712, %670] : memref<1x8x4xf32>
    %715 = affine.load %128[%arg3, %574, %670] : memref<1x4x4xf32>
    %716 = arith.mulf %713, %714 : f32
    %717 = arith.addf %715, %716 : f32
    affine.store %717, %128[%arg3, %574, %670] : memref<1x4x4xf32>
    %718 = affine.apply affine_map<(d0) -> (d0 + 3)>(%c0_1)
    %719 = affine.load %0[%arg3, %574, %c0_6] : memref<1x4x8xf32>
    %720 = affine.load %64[%arg3, %c0_6, %718] : memref<1x8x4xf32>
    %721 = affine.load %128[%arg3, %574, %718] : memref<1x4x4xf32>
    %722 = arith.mulf %719, %720 : f32
    %723 = arith.addf %721, %722 : f32
    affine.store %723, %128[%arg3, %574, %718] : memref<1x4x4xf32>
    %724 = affine.apply affine_map<(d0) -> (d0 + 1)>(%c0_6)
    %725 = affine.load %0[%arg3, %574, %724] : memref<1x4x8xf32>
    %726 = affine.load %64[%arg3, %724, %718] : memref<1x8x4xf32>
    %727 = affine.load %128[%arg3, %574, %718] : memref<1x4x4xf32>
    %728 = arith.mulf %725, %726 : f32
    %729 = arith.addf %727, %728 : f32
    affine.store %729, %128[%arg3, %574, %718] : memref<1x4x4xf32>
    %730 = affine.apply affine_map<(d0) -> (d0 + 2)>(%c0_6)
    %731 = affine.load %0[%arg3, %574, %730] : memref<1x4x8xf32>
    %732 = affine.load %64[%arg3, %730, %718] : memref<1x8x4xf32>
    %733 = affine.load %128[%arg3, %574, %718] : memref<1x4x4xf32>
    %734 = arith.mulf %731, %732 : f32
    %735 = arith.addf %733, %734 : f32
    affine.store %735, %128[%arg3, %574, %718] : memref<1x4x4xf32>
    %736 = affine.apply affine_map<(d0) -> (d0 + 3)>(%c0_6)
    %737 = affine.load %0[%arg3, %574, %736] : memref<1x4x8xf32>
    %738 = affine.load %64[%arg3, %736, %718] : memref<1x8x4xf32>
    %739 = affine.load %128[%arg3, %574, %718] : memref<1x4x4xf32>
    %740 = arith.mulf %737, %738 : f32
    %741 = arith.addf %739, %740 : f32
    affine.store %741, %128[%arg3, %574, %718] : memref<1x4x4xf32>
    %742 = affine.apply affine_map<(d0) -> (d0 + 4)>(%c0_6)
    %743 = affine.load %0[%arg3, %574, %742] : memref<1x4x8xf32>
    %744 = affine.load %64[%arg3, %742, %718] : memref<1x8x4xf32>
    %745 = affine.load %128[%arg3, %574, %718] : memref<1x4x4xf32>
    %746 = arith.mulf %743, %744 : f32
    %747 = arith.addf %745, %746 : f32
    affine.store %747, %128[%arg3, %574, %718] : memref<1x4x4xf32>
    %748 = affine.apply affine_map<(d0) -> (d0 + 5)>(%c0_6)
    %749 = affine.load %0[%arg3, %574, %748] : memref<1x4x8xf32>
    %750 = affine.load %64[%arg3, %748, %718] : memref<1x8x4xf32>
    %751 = affine.load %128[%arg3, %574, %718] : memref<1x4x4xf32>
    %752 = arith.mulf %749, %750 : f32
    %753 = arith.addf %751, %752 : f32
    affine.store %753, %128[%arg3, %574, %718] : memref<1x4x4xf32>
    %754 = affine.apply affine_map<(d0) -> (d0 + 6)>(%c0_6)
    %755 = affine.load %0[%arg3, %574, %754] : memref<1x4x8xf32>
    %756 = affine.load %64[%arg3, %754, %718] : memref<1x8x4xf32>
    %757 = affine.load %128[%arg3, %574, %718] : memref<1x4x4xf32>
    %758 = arith.mulf %755, %756 : f32
    %759 = arith.addf %757, %758 : f32
    affine.store %759, %128[%arg3, %574, %718] : memref<1x4x4xf32>
    %760 = affine.apply affine_map<(d0) -> (d0 + 7)>(%c0_6)
    %761 = affine.load %0[%arg3, %574, %760] : memref<1x4x8xf32>
    %762 = affine.load %64[%arg3, %760, %718] : memref<1x8x4xf32>
    %763 = affine.load %128[%arg3, %574, %718] : memref<1x4x4xf32>
    %764 = arith.mulf %761, %762 : f32
    %765 = arith.addf %763, %764 : f32
    affine.store %765, %128[%arg3, %574, %718] : memref<1x4x4xf32>
    %766 = affine.apply affine_map<(d0) -> (d0 + 3)>(%c0)
    %767 = affine.load %0[%arg3, %766, %c0_6] : memref<1x4x8xf32>
    %768 = affine.load %64[%arg3, %c0_6, %c0_1] : memref<1x8x4xf32>
    %769 = affine.load %128[%arg3, %766, %c0_1] : memref<1x4x4xf32>
    %770 = arith.mulf %767, %768 : f32
    %771 = arith.addf %769, %770 : f32
    affine.store %771, %128[%arg3, %766, %c0_1] : memref<1x4x4xf32>
    %772 = affine.apply affine_map<(d0) -> (d0 + 1)>(%c0_6)
    %773 = affine.load %0[%arg3, %766, %772] : memref<1x4x8xf32>
    %774 = affine.load %64[%arg3, %772, %c0_1] : memref<1x8x4xf32>
    %775 = affine.load %128[%arg3, %766, %c0_1] : memref<1x4x4xf32>
    %776 = arith.mulf %773, %774 : f32
    %777 = arith.addf %775, %776 : f32
    affine.store %777, %128[%arg3, %766, %c0_1] : memref<1x4x4xf32>
    %778 = affine.apply affine_map<(d0) -> (d0 + 2)>(%c0_6)
    %779 = affine.load %0[%arg3, %766, %778] : memref<1x4x8xf32>
    %780 = affine.load %64[%arg3, %778, %c0_1] : memref<1x8x4xf32>
    %781 = affine.load %128[%arg3, %766, %c0_1] : memref<1x4x4xf32>
    %782 = arith.mulf %779, %780 : f32
    %783 = arith.addf %781, %782 : f32
    affine.store %783, %128[%arg3, %766, %c0_1] : memref<1x4x4xf32>
    %784 = affine.apply affine_map<(d0) -> (d0 + 3)>(%c0_6)
    %785 = affine.load %0[%arg3, %766, %784] : memref<1x4x8xf32>
    %786 = affine.load %64[%arg3, %784, %c0_1] : memref<1x8x4xf32>
    %787 = affine.load %128[%arg3, %766, %c0_1] : memref<1x4x4xf32>
    %788 = arith.mulf %785, %786 : f32
    %789 = arith.addf %787, %788 : f32
    affine.store %789, %128[%arg3, %766, %c0_1] : memref<1x4x4xf32>
    %790 = affine.apply affine_map<(d0) -> (d0 + 4)>(%c0_6)
    %791 = affine.load %0[%arg3, %766, %790] : memref<1x4x8xf32>
    %792 = affine.load %64[%arg3, %790, %c0_1] : memref<1x8x4xf32>
    %793 = affine.load %128[%arg3, %766, %c0_1] : memref<1x4x4xf32>
    %794 = arith.mulf %791, %792 : f32
    %795 = arith.addf %793, %794 : f32
    affine.store %795, %128[%arg3, %766, %c0_1] : memref<1x4x4xf32>
    %796 = affine.apply affine_map<(d0) -> (d0 + 5)>(%c0_6)
    %797 = affine.load %0[%arg3, %766, %796] : memref<1x4x8xf32>
    %798 = affine.load %64[%arg3, %796, %c0_1] : memref<1x8x4xf32>
    %799 = affine.load %128[%arg3, %766, %c0_1] : memref<1x4x4xf32>
    %800 = arith.mulf %797, %798 : f32
    %801 = arith.addf %799, %800 : f32
    affine.store %801, %128[%arg3, %766, %c0_1] : memref<1x4x4xf32>
    %802 = affine.apply affine_map<(d0) -> (d0 + 6)>(%c0_6)
    %803 = affine.load %0[%arg3, %766, %802] : memref<1x4x8xf32>
    %804 = affine.load %64[%arg3, %802, %c0_1] : memref<1x8x4xf32>
    %805 = affine.load %128[%arg3, %766, %c0_1] : memref<1x4x4xf32>
    %806 = arith.mulf %803, %804 : f32
    %807 = arith.addf %805, %806 : f32
    affine.store %807, %128[%arg3, %766, %c0_1] : memref<1x4x4xf32>
    %808 = affine.apply affine_map<(d0) -> (d0 + 7)>(%c0_6)
    %809 = affine.load %0[%arg3, %766, %808] : memref<1x4x8xf32>
    %810 = affine.load %64[%arg3, %808, %c0_1] : memref<1x8x4xf32>
    %811 = affine.load %128[%arg3, %766, %c0_1] : memref<1x4x4xf32>
    %812 = arith.mulf %809, %810 : f32
    %813 = arith.addf %811, %812 : f32
    affine.store %813, %128[%arg3, %766, %c0_1] : memref<1x4x4xf32>
    %814 = affine.apply affine_map<(d0) -> (d0 + 1)>(%c0_1)
    %815 = affine.load %0[%arg3, %766, %c0_6] : memref<1x4x8xf32>
    %816 = affine.load %64[%arg3, %c0_6, %814] : memref<1x8x4xf32>
    %817 = affine.load %128[%arg3, %766, %814] : memref<1x4x4xf32>
    %818 = arith.mulf %815, %816 : f32
    %819 = arith.addf %817, %818 : f32
    affine.store %819, %128[%arg3, %766, %814] : memref<1x4x4xf32>
    %820 = affine.apply affine_map<(d0) -> (d0 + 1)>(%c0_6)
    %821 = affine.load %0[%arg3, %766, %820] : memref<1x4x8xf32>
    %822 = affine.load %64[%arg3, %820, %814] : memref<1x8x4xf32>
    %823 = affine.load %128[%arg3, %766, %814] : memref<1x4x4xf32>
    %824 = arith.mulf %821, %822 : f32
    %825 = arith.addf %823, %824 : f32
    affine.store %825, %128[%arg3, %766, %814] : memref<1x4x4xf32>
    %826 = affine.apply affine_map<(d0) -> (d0 + 2)>(%c0_6)
    %827 = affine.load %0[%arg3, %766, %826] : memref<1x4x8xf32>
    %828 = affine.load %64[%arg3, %826, %814] : memref<1x8x4xf32>
    %829 = affine.load %128[%arg3, %766, %814] : memref<1x4x4xf32>
    %830 = arith.mulf %827, %828 : f32
    %831 = arith.addf %829, %830 : f32
    affine.store %831, %128[%arg3, %766, %814] : memref<1x4x4xf32>
    %832 = affine.apply affine_map<(d0) -> (d0 + 3)>(%c0_6)
    %833 = affine.load %0[%arg3, %766, %832] : memref<1x4x8xf32>
    %834 = affine.load %64[%arg3, %832, %814] : memref<1x8x4xf32>
    %835 = affine.load %128[%arg3, %766, %814] : memref<1x4x4xf32>
    %836 = arith.mulf %833, %834 : f32
    %837 = arith.addf %835, %836 : f32
    affine.store %837, %128[%arg3, %766, %814] : memref<1x4x4xf32>
    %838 = affine.apply affine_map<(d0) -> (d0 + 4)>(%c0_6)
    %839 = affine.load %0[%arg3, %766, %838] : memref<1x4x8xf32>
    %840 = affine.load %64[%arg3, %838, %814] : memref<1x8x4xf32>
    %841 = affine.load %128[%arg3, %766, %814] : memref<1x4x4xf32>
    %842 = arith.mulf %839, %840 : f32
    %843 = arith.addf %841, %842 : f32
    affine.store %843, %128[%arg3, %766, %814] : memref<1x4x4xf32>
    %844 = affine.apply affine_map<(d0) -> (d0 + 5)>(%c0_6)
    %845 = affine.load %0[%arg3, %766, %844] : memref<1x4x8xf32>
    %846 = affine.load %64[%arg3, %844, %814] : memref<1x8x4xf32>
    %847 = affine.load %128[%arg3, %766, %814] : memref<1x4x4xf32>
    %848 = arith.mulf %845, %846 : f32
    %849 = arith.addf %847, %848 : f32
    affine.store %849, %128[%arg3, %766, %814] : memref<1x4x4xf32>
    %850 = affine.apply affine_map<(d0) -> (d0 + 6)>(%c0_6)
    %851 = affine.load %0[%arg3, %766, %850] : memref<1x4x8xf32>
    %852 = affine.load %64[%arg3, %850, %814] : memref<1x8x4xf32>
    %853 = affine.load %128[%arg3, %766, %814] : memref<1x4x4xf32>
    %854 = arith.mulf %851, %852 : f32
    %855 = arith.addf %853, %854 : f32
    affine.store %855, %128[%arg3, %766, %814] : memref<1x4x4xf32>
    %856 = affine.apply affine_map<(d0) -> (d0 + 7)>(%c0_6)
    %857 = affine.load %0[%arg3, %766, %856] : memref<1x4x8xf32>
    %858 = affine.load %64[%arg3, %856, %814] : memref<1x8x4xf32>
    %859 = affine.load %128[%arg3, %766, %814] : memref<1x4x4xf32>
    %860 = arith.mulf %857, %858 : f32
    %861 = arith.addf %859, %860 : f32
    affine.store %861, %128[%arg3, %766, %814] : memref<1x4x4xf32>
    %862 = affine.apply affine_map<(d0) -> (d0 + 2)>(%c0_1)
    %863 = affine.load %0[%arg3, %766, %c0_6] : memref<1x4x8xf32>
    %864 = affine.load %64[%arg3, %c0_6, %862] : memref<1x8x4xf32>
    %865 = affine.load %128[%arg3, %766, %862] : memref<1x4x4xf32>
    %866 = arith.mulf %863, %864 : f32
    %867 = arith.addf %865, %866 : f32
    affine.store %867, %128[%arg3, %766, %862] : memref<1x4x4xf32>
    %868 = affine.apply affine_map<(d0) -> (d0 + 1)>(%c0_6)
    %869 = affine.load %0[%arg3, %766, %868] : memref<1x4x8xf32>
    %870 = affine.load %64[%arg3, %868, %862] : memref<1x8x4xf32>
    %871 = affine.load %128[%arg3, %766, %862] : memref<1x4x4xf32>
    %872 = arith.mulf %869, %870 : f32
    %873 = arith.addf %871, %872 : f32
    affine.store %873, %128[%arg3, %766, %862] : memref<1x4x4xf32>
    %874 = affine.apply affine_map<(d0) -> (d0 + 2)>(%c0_6)
    %875 = affine.load %0[%arg3, %766, %874] : memref<1x4x8xf32>
    %876 = affine.load %64[%arg3, %874, %862] : memref<1x8x4xf32>
    %877 = affine.load %128[%arg3, %766, %862] : memref<1x4x4xf32>
    %878 = arith.mulf %875, %876 : f32
    %879 = arith.addf %877, %878 : f32
    affine.store %879, %128[%arg3, %766, %862] : memref<1x4x4xf32>
    %880 = affine.apply affine_map<(d0) -> (d0 + 3)>(%c0_6)
    %881 = affine.load %0[%arg3, %766, %880] : memref<1x4x8xf32>
    %882 = affine.load %64[%arg3, %880, %862] : memref<1x8x4xf32>
    %883 = affine.load %128[%arg3, %766, %862] : memref<1x4x4xf32>
    %884 = arith.mulf %881, %882 : f32
    %885 = arith.addf %883, %884 : f32
    affine.store %885, %128[%arg3, %766, %862] : memref<1x4x4xf32>
    %886 = affine.apply affine_map<(d0) -> (d0 + 4)>(%c0_6)
    %887 = affine.load %0[%arg3, %766, %886] : memref<1x4x8xf32>
    %888 = affine.load %64[%arg3, %886, %862] : memref<1x8x4xf32>
    %889 = affine.load %128[%arg3, %766, %862] : memref<1x4x4xf32>
    %890 = arith.mulf %887, %888 : f32
    %891 = arith.addf %889, %890 : f32
    affine.store %891, %128[%arg3, %766, %862] : memref<1x4x4xf32>
    %892 = affine.apply affine_map<(d0) -> (d0 + 5)>(%c0_6)
    %893 = affine.load %0[%arg3, %766, %892] : memref<1x4x8xf32>
    %894 = affine.load %64[%arg3, %892, %862] : memref<1x8x4xf32>
    %895 = affine.load %128[%arg3, %766, %862] : memref<1x4x4xf32>
    %896 = arith.mulf %893, %894 : f32
    %897 = arith.addf %895, %896 : f32
    affine.store %897, %128[%arg3, %766, %862] : memref<1x4x4xf32>
    %898 = affine.apply affine_map<(d0) -> (d0 + 6)>(%c0_6)
    %899 = affine.load %0[%arg3, %766, %898] : memref<1x4x8xf32>
    %900 = affine.load %64[%arg3, %898, %862] : memref<1x8x4xf32>
    %901 = affine.load %128[%arg3, %766, %862] : memref<1x4x4xf32>
    %902 = arith.mulf %899, %900 : f32
    %903 = arith.addf %901, %902 : f32
    affine.store %903, %128[%arg3, %766, %862] : memref<1x4x4xf32>
    %904 = affine.apply affine_map<(d0) -> (d0 + 7)>(%c0_6)
    %905 = affine.load %0[%arg3, %766, %904] : memref<1x4x8xf32>
    %906 = affine.load %64[%arg3, %904, %862] : memref<1x8x4xf32>
    %907 = affine.load %128[%arg3, %766, %862] : memref<1x4x4xf32>
    %908 = arith.mulf %905, %906 : f32
    %909 = arith.addf %907, %908 : f32
    affine.store %909, %128[%arg3, %766, %862] : memref<1x4x4xf32>
    %910 = affine.apply affine_map<(d0) -> (d0 + 3)>(%c0_1)
    %911 = affine.load %0[%arg3, %766, %c0_6] : memref<1x4x8xf32>
    %912 = affine.load %64[%arg3, %c0_6, %910] : memref<1x8x4xf32>
    %913 = affine.load %128[%arg3, %766, %910] : memref<1x4x4xf32>
    %914 = arith.mulf %911, %912 : f32
    %915 = arith.addf %913, %914 : f32
    affine.store %915, %128[%arg3, %766, %910] : memref<1x4x4xf32>
    %916 = affine.apply affine_map<(d0) -> (d0 + 1)>(%c0_6)
    %917 = affine.load %0[%arg3, %766, %916] : memref<1x4x8xf32>
    %918 = affine.load %64[%arg3, %916, %910] : memref<1x8x4xf32>
    %919 = affine.load %128[%arg3, %766, %910] : memref<1x4x4xf32>
    %920 = arith.mulf %917, %918 : f32
    %921 = arith.addf %919, %920 : f32
    affine.store %921, %128[%arg3, %766, %910] : memref<1x4x4xf32>
    %922 = affine.apply affine_map<(d0) -> (d0 + 2)>(%c0_6)
    %923 = affine.load %0[%arg3, %766, %922] : memref<1x4x8xf32>
    %924 = affine.load %64[%arg3, %922, %910] : memref<1x8x4xf32>
    %925 = affine.load %128[%arg3, %766, %910] : memref<1x4x4xf32>
    %926 = arith.mulf %923, %924 : f32
    %927 = arith.addf %925, %926 : f32
    affine.store %927, %128[%arg3, %766, %910] : memref<1x4x4xf32>
    %928 = affine.apply affine_map<(d0) -> (d0 + 3)>(%c0_6)
    %929 = affine.load %0[%arg3, %766, %928] : memref<1x4x8xf32>
    %930 = affine.load %64[%arg3, %928, %910] : memref<1x8x4xf32>
    %931 = affine.load %128[%arg3, %766, %910] : memref<1x4x4xf32>
    %932 = arith.mulf %929, %930 : f32
    %933 = arith.addf %931, %932 : f32
    affine.store %933, %128[%arg3, %766, %910] : memref<1x4x4xf32>
    %934 = affine.apply affine_map<(d0) -> (d0 + 4)>(%c0_6)
    %935 = affine.load %0[%arg3, %766, %934] : memref<1x4x8xf32>
    %936 = affine.load %64[%arg3, %934, %910] : memref<1x8x4xf32>
    %937 = affine.load %128[%arg3, %766, %910] : memref<1x4x4xf32>
    %938 = arith.mulf %935, %936 : f32
    %939 = arith.addf %937, %938 : f32
    affine.store %939, %128[%arg3, %766, %910] : memref<1x4x4xf32>
    %940 = affine.apply affine_map<(d0) -> (d0 + 5)>(%c0_6)
    %941 = affine.load %0[%arg3, %766, %940] : memref<1x4x8xf32>
    %942 = affine.load %64[%arg3, %940, %910] : memref<1x8x4xf32>
    %943 = affine.load %128[%arg3, %766, %910] : memref<1x4x4xf32>
    %944 = arith.mulf %941, %942 : f32
    %945 = arith.addf %943, %944 : f32
    affine.store %945, %128[%arg3, %766, %910] : memref<1x4x4xf32>
    %946 = affine.apply affine_map<(d0) -> (d0 + 6)>(%c0_6)
    %947 = affine.load %0[%arg3, %766, %946] : memref<1x4x8xf32>
    %948 = affine.load %64[%arg3, %946, %910] : memref<1x8x4xf32>
    %949 = affine.load %128[%arg3, %766, %910] : memref<1x4x4xf32>
    %950 = arith.mulf %947, %948 : f32
    %951 = arith.addf %949, %950 : f32
    affine.store %951, %128[%arg3, %766, %910] : memref<1x4x4xf32>
    %952 = affine.apply affine_map<(d0) -> (d0 + 7)>(%c0_6)
    %953 = affine.load %0[%arg3, %766, %952] : memref<1x4x8xf32>
    %954 = affine.load %64[%arg3, %952, %910] : memref<1x8x4xf32>
    %955 = affine.load %128[%arg3, %766, %910] : memref<1x4x4xf32>
    %956 = arith.mulf %953, %954 : f32
    %957 = arith.addf %955, %956 : f32
    affine.store %957, %128[%arg3, %766, %910] : memref<1x4x4xf32>
  }
  %160 = affine.load %128[0, %c0_0, %c0_5] : memref<1x4x4xf32>
  affine.store %160, %arg2[0, %c0_0, %c0_5] : memref<1x4x4xf32>
  %161 = affine.apply affine_map<(d0) -> (d0 + 1)>(%c0_5)
  %162 = affine.load %128[0, %c0_0, %161] : memref<1x4x4xf32>
  affine.store %162, %arg2[0, %c0_0, %161] : memref<1x4x4xf32>
  %163 = affine.apply affine_map<(d0) -> (d0 + 2)>(%c0_5)
  %164 = affine.load %128[0, %c0_0, %163] : memref<1x4x4xf32>
  affine.store %164, %arg2[0, %c0_0, %163] : memref<1x4x4xf32>
  %165 = affine.apply affine_map<(d0) -> (d0 + 3)>(%c0_5)
  %166 = affine.load %128[0, %c0_0, %165] : memref<1x4x4xf32>
  affine.store %166, %arg2[0, %c0_0, %165] : memref<1x4x4xf32>
  %167 = affine.apply affine_map<(d0) -> (d0 + 1)>(%c0_0)
  %168 = affine.load %128[0, %167, %c0_5] : memref<1x4x4xf32>
  affine.store %168, %arg2[0, %167, %c0_5] : memref<1x4x4xf32>
  %169 = affine.apply affine_map<(d0) -> (d0 + 1)>(%c0_5)
  %170 = affine.load %128[0, %167, %169] : memref<1x4x4xf32>
  affine.store %170, %arg2[0, %167, %169] : memref<1x4x4xf32>
  %171 = affine.apply affine_map<(d0) -> (d0 + 2)>(%c0_5)
  %172 = affine.load %128[0, %167, %171] : memref<1x4x4xf32>
  affine.store %172, %arg2[0, %167, %171] : memref<1x4x4xf32>
  %173 = affine.apply affine_map<(d0) -> (d0 + 3)>(%c0_5)
  %174 = affine.load %128[0, %167, %173] : memref<1x4x4xf32>
  affine.store %174, %arg2[0, %167, %173] : memref<1x4x4xf32>
  %175 = affine.apply affine_map<(d0) -> (d0 + 2)>(%c0_0)
  %176 = affine.load %128[0, %175, %c0_5] : memref<1x4x4xf32>
  affine.store %176, %arg2[0, %175, %c0_5] : memref<1x4x4xf32>
  %177 = affine.apply affine_map<(d0) -> (d0 + 1)>(%c0_5)
  %178 = affine.load %128[0, %175, %177] : memref<1x4x4xf32>
  affine.store %178, %arg2[0, %175, %177] : memref<1x4x4xf32>
  %179 = affine.apply affine_map<(d0) -> (d0 + 2)>(%c0_5)
  %180 = affine.load %128[0, %175, %179] : memref<1x4x4xf32>
  affine.store %180, %arg2[0, %175, %179] : memref<1x4x4xf32>
  %181 = affine.apply affine_map<(d0) -> (d0 + 3)>(%c0_5)
  %182 = affine.load %128[0, %175, %181] : memref<1x4x4xf32>
  affine.store %182, %arg2[0, %175, %181] : memref<1x4x4xf32>
  %183 = affine.apply affine_map<(d0) -> (d0 + 3)>(%c0_0)
  %184 = affine.load %128[0, %183, %c0_5] : memref<1x4x4xf32>
  affine.store %184, %arg2[0, %183, %c0_5] : memref<1x4x4xf32>
  %185 = affine.apply affine_map<(d0) -> (d0 + 1)>(%c0_5)
  %186 = affine.load %128[0, %183, %185] : memref<1x4x4xf32>
  affine.store %186, %arg2[0, %183, %185] : memref<1x4x4xf32>
  %187 = affine.apply affine_map<(d0) -> (d0 + 2)>(%c0_5)
  %188 = affine.load %128[0, %183, %187] : memref<1x4x4xf32>
  affine.store %188, %arg2[0, %183, %187] : memref<1x4x4xf32>
  %189 = affine.apply affine_map<(d0) -> (d0 + 3)>(%c0_5)
  %190 = affine.load %128[0, %183, %189] : memref<1x4x4xf32>
  affine.store %190, %arg2[0, %183, %189] : memref<1x4x4xf32>
  return
}

// -----// IR Dump After CSE //----- //
#map0 = affine_map<(d0) -> (d0 + 1)>
#map1 = affine_map<(d0) -> (d0 + 2)>
#map2 = affine_map<(d0) -> (d0 + 3)>
#map3 = affine_map<(d0) -> (d0 + 4)>
#map4 = affine_map<(d0) -> (d0 + 5)>
#map5 = affine_map<(d0) -> (d0 + 6)>
#map6 = affine_map<(d0) -> (d0 + 7)>
module attributes {soda.bambu.container_module, soda.container_module, tf.versions = {bad_consumers = [], min_consumer = 0 : i32, producer = 1087 : i32}} {
  func.func @main_kernel(%arg0: memref<1x4x8xf32> {llvm.noalias}, %arg1: memref<1x8x4xf32> {llvm.noalias}, %arg2: memref<1x4x4xf32> {llvm.noalias}) {
    %c0 = arith.constant 0 : index
    cf.br ^bb1
  ^bb1:  // pred: ^bb0
    %0 = memref.alloca() : memref<1x4x8xf32>
    %1 = affine.load %arg0[0, %c0, %c0] : memref<1x4x8xf32>
    affine.store %1, %0[0, %c0, %c0] : memref<1x4x8xf32>
    %2 = affine.apply #map0(%c0)
    %3 = affine.load %arg0[0, %c0, %2] : memref<1x4x8xf32>
    affine.store %3, %0[0, %c0, %2] : memref<1x4x8xf32>
    %4 = affine.apply #map1(%c0)
    %5 = affine.load %arg0[0, %c0, %4] : memref<1x4x8xf32>
    affine.store %5, %0[0, %c0, %4] : memref<1x4x8xf32>
    %6 = affine.apply #map2(%c0)
    %7 = affine.load %arg0[0, %c0, %6] : memref<1x4x8xf32>
    affine.store %7, %0[0, %c0, %6] : memref<1x4x8xf32>
    %8 = affine.apply #map3(%c0)
    %9 = affine.load %arg0[0, %c0, %8] : memref<1x4x8xf32>
    affine.store %9, %0[0, %c0, %8] : memref<1x4x8xf32>
    %10 = affine.apply #map4(%c0)
    %11 = affine.load %arg0[0, %c0, %10] : memref<1x4x8xf32>
    affine.store %11, %0[0, %c0, %10] : memref<1x4x8xf32>
    %12 = affine.apply #map5(%c0)
    %13 = affine.load %arg0[0, %c0, %12] : memref<1x4x8xf32>
    affine.store %13, %0[0, %c0, %12] : memref<1x4x8xf32>
    %14 = affine.apply #map6(%c0)
    %15 = affine.load %arg0[0, %c0, %14] : memref<1x4x8xf32>
    affine.store %15, %0[0, %c0, %14] : memref<1x4x8xf32>
    %16 = affine.load %arg0[0, %2, %c0] : memref<1x4x8xf32>
    affine.store %16, %0[0, %2, %c0] : memref<1x4x8xf32>
    %17 = affine.load %arg0[0, %2, %2] : memref<1x4x8xf32>
    affine.store %17, %0[0, %2, %2] : memref<1x4x8xf32>
    %18 = affine.load %arg0[0, %2, %4] : memref<1x4x8xf32>
    affine.store %18, %0[0, %2, %4] : memref<1x4x8xf32>
    %19 = affine.load %arg0[0, %2, %6] : memref<1x4x8xf32>
    affine.store %19, %0[0, %2, %6] : memref<1x4x8xf32>
    %20 = affine.load %arg0[0, %2, %8] : memref<1x4x8xf32>
    affine.store %20, %0[0, %2, %8] : memref<1x4x8xf32>
    %21 = affine.load %arg0[0, %2, %10] : memref<1x4x8xf32>
    affine.store %21, %0[0, %2, %10] : memref<1x4x8xf32>
    %22 = affine.load %arg0[0, %2, %12] : memref<1x4x8xf32>
    affine.store %22, %0[0, %2, %12] : memref<1x4x8xf32>
    %23 = affine.load %arg0[0, %2, %14] : memref<1x4x8xf32>
    affine.store %23, %0[0, %2, %14] : memref<1x4x8xf32>
    %24 = affine.load %arg0[0, %4, %c0] : memref<1x4x8xf32>
    affine.store %24, %0[0, %4, %c0] : memref<1x4x8xf32>
    %25 = affine.load %arg0[0, %4, %2] : memref<1x4x8xf32>
    affine.store %25, %0[0, %4, %2] : memref<1x4x8xf32>
    %26 = affine.load %arg0[0, %4, %4] : memref<1x4x8xf32>
    affine.store %26, %0[0, %4, %4] : memref<1x4x8xf32>
    %27 = affine.load %arg0[0, %4, %6] : memref<1x4x8xf32>
    affine.store %27, %0[0, %4, %6] : memref<1x4x8xf32>
    %28 = affine.load %arg0[0, %4, %8] : memref<1x4x8xf32>
    affine.store %28, %0[0, %4, %8] : memref<1x4x8xf32>
    %29 = affine.load %arg0[0, %4, %10] : memref<1x4x8xf32>
    affine.store %29, %0[0, %4, %10] : memref<1x4x8xf32>
    %30 = affine.load %arg0[0, %4, %12] : memref<1x4x8xf32>
    affine.store %30, %0[0, %4, %12] : memref<1x4x8xf32>
    %31 = affine.load %arg0[0, %4, %14] : memref<1x4x8xf32>
    affine.store %31, %0[0, %4, %14] : memref<1x4x8xf32>
    %32 = affine.load %arg0[0, %6, %c0] : memref<1x4x8xf32>
    affine.store %32, %0[0, %6, %c0] : memref<1x4x8xf32>
    %33 = affine.load %arg0[0, %6, %2] : memref<1x4x8xf32>
    affine.store %33, %0[0, %6, %2] : memref<1x4x8xf32>
    %34 = affine.load %arg0[0, %6, %4] : memref<1x4x8xf32>
    affine.store %34, %0[0, %6, %4] : memref<1x4x8xf32>
    %35 = affine.load %arg0[0, %6, %6] : memref<1x4x8xf32>
    affine.store %35, %0[0, %6, %6] : memref<1x4x8xf32>
    %36 = affine.load %arg0[0, %6, %8] : memref<1x4x8xf32>
    affine.store %36, %0[0, %6, %8] : memref<1x4x8xf32>
    %37 = affine.load %arg0[0, %6, %10] : memref<1x4x8xf32>
    affine.store %37, %0[0, %6, %10] : memref<1x4x8xf32>
    %38 = affine.load %arg0[0, %6, %12] : memref<1x4x8xf32>
    affine.store %38, %0[0, %6, %12] : memref<1x4x8xf32>
    %39 = affine.load %arg0[0, %6, %14] : memref<1x4x8xf32>
    affine.store %39, %0[0, %6, %14] : memref<1x4x8xf32>
    %40 = memref.alloca() : memref<1x8x4xf32>
    %41 = affine.load %arg1[0, %c0, %c0] : memref<1x8x4xf32>
    affine.store %41, %40[0, %c0, %c0] : memref<1x8x4xf32>
    %42 = affine.load %arg1[0, %c0, %2] : memref<1x8x4xf32>
    affine.store %42, %40[0, %c0, %2] : memref<1x8x4xf32>
    %43 = affine.load %arg1[0, %c0, %4] : memref<1x8x4xf32>
    affine.store %43, %40[0, %c0, %4] : memref<1x8x4xf32>
    %44 = affine.load %arg1[0, %c0, %6] : memref<1x8x4xf32>
    affine.store %44, %40[0, %c0, %6] : memref<1x8x4xf32>
    %45 = affine.load %arg1[0, %2, %c0] : memref<1x8x4xf32>
    affine.store %45, %40[0, %2, %c0] : memref<1x8x4xf32>
    %46 = affine.load %arg1[0, %2, %2] : memref<1x8x4xf32>
    affine.store %46, %40[0, %2, %2] : memref<1x8x4xf32>
    %47 = affine.load %arg1[0, %2, %4] : memref<1x8x4xf32>
    affine.store %47, %40[0, %2, %4] : memref<1x8x4xf32>
    %48 = affine.load %arg1[0, %2, %6] : memref<1x8x4xf32>
    affine.store %48, %40[0, %2, %6] : memref<1x8x4xf32>
    %49 = affine.load %arg1[0, %4, %c0] : memref<1x8x4xf32>
    affine.store %49, %40[0, %4, %c0] : memref<1x8x4xf32>
    %50 = affine.load %arg1[0, %4, %2] : memref<1x8x4xf32>
    affine.store %50, %40[0, %4, %2] : memref<1x8x4xf32>
    %51 = affine.load %arg1[0, %4, %4] : memref<1x8x4xf32>
    affine.store %51, %40[0, %4, %4] : memref<1x8x4xf32>
    %52 = affine.load %arg1[0, %4, %6] : memref<1x8x4xf32>
    affine.store %52, %40[0, %4, %6] : memref<1x8x4xf32>
    %53 = affine.load %arg1[0, %6, %c0] : memref<1x8x4xf32>
    affine.store %53, %40[0, %6, %c0] : memref<1x8x4xf32>
    %54 = affine.load %arg1[0, %6, %2] : memref<1x8x4xf32>
    affine.store %54, %40[0, %6, %2] : memref<1x8x4xf32>
    %55 = affine.load %arg1[0, %6, %4] : memref<1x8x4xf32>
    affine.store %55, %40[0, %6, %4] : memref<1x8x4xf32>
    %56 = affine.load %arg1[0, %6, %6] : memref<1x8x4xf32>
    affine.store %56, %40[0, %6, %6] : memref<1x8x4xf32>
    %57 = affine.load %arg1[0, %8, %c0] : memref<1x8x4xf32>
    affine.store %57, %40[0, %8, %c0] : memref<1x8x4xf32>
    %58 = affine.load %arg1[0, %8, %2] : memref<1x8x4xf32>
    affine.store %58, %40[0, %8, %2] : memref<1x8x4xf32>
    %59 = affine.load %arg1[0, %8, %4] : memref<1x8x4xf32>
    affine.store %59, %40[0, %8, %4] : memref<1x8x4xf32>
    %60 = affine.load %arg1[0, %8, %6] : memref<1x8x4xf32>
    affine.store %60, %40[0, %8, %6] : memref<1x8x4xf32>
    %61 = affine.load %arg1[0, %10, %c0] : memref<1x8x4xf32>
    affine.store %61, %40[0, %10, %c0] : memref<1x8x4xf32>
    %62 = affine.load %arg1[0, %10, %2] : memref<1x8x4xf32>
    affine.store %62, %40[0, %10, %2] : memref<1x8x4xf32>
    %63 = affine.load %arg1[0, %10, %4] : memref<1x8x4xf32>
    affine.store %63, %40[0, %10, %4] : memref<1x8x4xf32>
    %64 = affine.load %arg1[0, %10, %6] : memref<1x8x4xf32>
    affine.store %64, %40[0, %10, %6] : memref<1x8x4xf32>
    %65 = affine.load %arg1[0, %12, %c0] : memref<1x8x4xf32>
    affine.store %65, %40[0, %12, %c0] : memref<1x8x4xf32>
    %66 = affine.load %arg1[0, %12, %2] : memref<1x8x4xf32>
    affine.store %66, %40[0, %12, %2] : memref<1x8x4xf32>
    %67 = affine.load %arg1[0, %12, %4] : memref<1x8x4xf32>
    affine.store %67, %40[0, %12, %4] : memref<1x8x4xf32>
    %68 = affine.load %arg1[0, %12, %6] : memref<1x8x4xf32>
    affine.store %68, %40[0, %12, %6] : memref<1x8x4xf32>
    %69 = affine.load %arg1[0, %14, %c0] : memref<1x8x4xf32>
    affine.store %69, %40[0, %14, %c0] : memref<1x8x4xf32>
    %70 = affine.load %arg1[0, %14, %2] : memref<1x8x4xf32>
    affine.store %70, %40[0, %14, %2] : memref<1x8x4xf32>
    %71 = affine.load %arg1[0, %14, %4] : memref<1x8x4xf32>
    affine.store %71, %40[0, %14, %4] : memref<1x8x4xf32>
    %72 = affine.load %arg1[0, %14, %6] : memref<1x8x4xf32>
    affine.store %72, %40[0, %14, %6] : memref<1x8x4xf32>
    %73 = memref.alloca() : memref<1x4x4xf32>
    %74 = affine.load %arg2[0, %c0, %c0] : memref<1x4x4xf32>
    affine.store %74, %73[0, %c0, %c0] : memref<1x4x4xf32>
    %75 = affine.load %arg2[0, %c0, %2] : memref<1x4x4xf32>
    affine.store %75, %73[0, %c0, %2] : memref<1x4x4xf32>
    %76 = affine.load %arg2[0, %c0, %4] : memref<1x4x4xf32>
    affine.store %76, %73[0, %c0, %4] : memref<1x4x4xf32>
    %77 = affine.load %arg2[0, %c0, %6] : memref<1x4x4xf32>
    affine.store %77, %73[0, %c0, %6] : memref<1x4x4xf32>
    %78 = affine.load %arg2[0, %2, %c0] : memref<1x4x4xf32>
    affine.store %78, %73[0, %2, %c0] : memref<1x4x4xf32>
    %79 = affine.load %arg2[0, %2, %2] : memref<1x4x4xf32>
    affine.store %79, %73[0, %2, %2] : memref<1x4x4xf32>
    %80 = affine.load %arg2[0, %2, %4] : memref<1x4x4xf32>
    affine.store %80, %73[0, %2, %4] : memref<1x4x4xf32>
    %81 = affine.load %arg2[0, %2, %6] : memref<1x4x4xf32>
    affine.store %81, %73[0, %2, %6] : memref<1x4x4xf32>
    %82 = affine.load %arg2[0, %4, %c0] : memref<1x4x4xf32>
    affine.store %82, %73[0, %4, %c0] : memref<1x4x4xf32>
    %83 = affine.load %arg2[0, %4, %2] : memref<1x4x4xf32>
    affine.store %83, %73[0, %4, %2] : memref<1x4x4xf32>
    %84 = affine.load %arg2[0, %4, %4] : memref<1x4x4xf32>
    affine.store %84, %73[0, %4, %4] : memref<1x4x4xf32>
    %85 = affine.load %arg2[0, %4, %6] : memref<1x4x4xf32>
    affine.store %85, %73[0, %4, %6] : memref<1x4x4xf32>
    %86 = affine.load %arg2[0, %6, %c0] : memref<1x4x4xf32>
    affine.store %86, %73[0, %6, %c0] : memref<1x4x4xf32>
    %87 = affine.load %arg2[0, %6, %2] : memref<1x4x4xf32>
    affine.store %87, %73[0, %6, %2] : memref<1x4x4xf32>
    %88 = affine.load %arg2[0, %6, %4] : memref<1x4x4xf32>
    affine.store %88, %73[0, %6, %4] : memref<1x4x4xf32>
    %89 = affine.load %arg2[0, %6, %6] : memref<1x4x4xf32>
    affine.store %89, %73[0, %6, %6] : memref<1x4x4xf32>
    affine.for %arg3 = 0 to 1 {
      %106 = affine.load %0[%arg3, %c0, %c0] : memref<1x4x8xf32>
      %107 = affine.load %40[%arg3, %c0, %c0] : memref<1x8x4xf32>
      %108 = affine.load %73[%arg3, %c0, %c0] : memref<1x4x4xf32>
      %109 = arith.mulf %106, %107 : f32
      %110 = arith.addf %108, %109 : f32
      affine.store %110, %73[%arg3, %c0, %c0] : memref<1x4x4xf32>
      %111 = affine.load %0[%arg3, %c0, %2] : memref<1x4x8xf32>
      %112 = affine.load %40[%arg3, %2, %c0] : memref<1x8x4xf32>
      %113 = affine.load %73[%arg3, %c0, %c0] : memref<1x4x4xf32>
      %114 = arith.mulf %111, %112 : f32
      %115 = arith.addf %113, %114 : f32
      affine.store %115, %73[%arg3, %c0, %c0] : memref<1x4x4xf32>
      %116 = affine.load %0[%arg3, %c0, %4] : memref<1x4x8xf32>
      %117 = affine.load %40[%arg3, %4, %c0] : memref<1x8x4xf32>
      %118 = affine.load %73[%arg3, %c0, %c0] : memref<1x4x4xf32>
      %119 = arith.mulf %116, %117 : f32
      %120 = arith.addf %118, %119 : f32
      affine.store %120, %73[%arg3, %c0, %c0] : memref<1x4x4xf32>
      %121 = affine.load %0[%arg3, %c0, %6] : memref<1x4x8xf32>
      %122 = affine.load %40[%arg3, %6, %c0] : memref<1x8x4xf32>
…
    %830 = llvm.getelementptr %arg2[%829] : (!llvm.ptr<f32>, i64) -> !llvm.ptr<f32>
    %831 = llvm.load %830 : !llvm.ptr<f32>
    %832 = llvm.mul %10, %5  : i64
    %833 = llvm.mul %0, %7  : i64
    %834 = llvm.add %832, %833  : i64
    %835 = llvm.add %834, %9  : i64
    %836 = llvm.getelementptr %726[%835] : (!llvm.ptr<f32>, i64) -> !llvm.ptr<f32>
    llvm.store %831, %836 : !llvm.ptr<f32>
    %837 = llvm.mul %10, %5  : i64
    %838 = llvm.mul %0, %7  : i64
    %839 = llvm.add %837, %838  : i64
    %840 = llvm.add %839, %0  : i64
    %841 = llvm.getelementptr %arg2[%840] : (!llvm.ptr<f32>, i64) -> !llvm.ptr<f32>
    %842 = llvm.load %841 : !llvm.ptr<f32>
    %843 = llvm.mul %10, %5  : i64
    %844 = llvm.mul %0, %7  : i64
    %845 = llvm.add %843, %844  : i64
    %846 = llvm.add %845, %0  : i64
    %847 = llvm.getelementptr %726[%846] : (!llvm.ptr<f32>, i64) -> !llvm.ptr<f32>
    llvm.store %842, %847 : !llvm.ptr<f32>
    %848 = llvm.mul %10, %5  : i64
    %849 = llvm.mul %0, %7  : i64
    %850 = llvm.add %848, %849  : i64
    %851 = llvm.add %850, %1  : i64
    %852 = llvm.getelementptr %arg2[%851] : (!llvm.ptr<f32>, i64) -> !llvm.ptr<f32>
    %853 = llvm.load %852 : !llvm.ptr<f32>
    %854 = llvm.mul %10, %5  : i64
    %855 = llvm.mul %0, %7  : i64
    %856 = llvm.add %854, %855  : i64
    %857 = llvm.add %856, %1  : i64
    %858 = llvm.getelementptr %726[%857] : (!llvm.ptr<f32>, i64) -> !llvm.ptr<f32>
    llvm.store %853, %858 : !llvm.ptr<f32>
    %859 = llvm.mul %10, %5  : i64
    %860 = llvm.mul %1, %7  : i64
    %861 = llvm.add %859, %860  : i64
    %862 = llvm.add %861, %10  : i64
    %863 = llvm.getelementptr %arg2[%862] : (!llvm.ptr<f32>, i64) -> !llvm.ptr<f32>
    %864 = llvm.load %863 : !llvm.ptr<f32>
    %865 = llvm.mul %10, %5  : i64
    %866 = llvm.mul %1, %7  : i64
    %867 = llvm.add %865, %866  : i64
    %868 = llvm.add %867, %10  : i64
    %869 = llvm.getelementptr %726[%868] : (!llvm.ptr<f32>, i64) -> !llvm.ptr<f32>
    llvm.store %864, %869 : !llvm.ptr<f32>
    %870 = llvm.mul %10, %5  : i64
    %871 = llvm.mul %1, %7  : i64
    %872 = llvm.add %870, %871  : i64
    %873 = llvm.add %872, %9  : i64
    %874 = llvm.getelementptr %arg2[%873] : (!llvm.ptr<f32>, i64) -> !llvm.ptr<f32>
    %875 = llvm.load %874 : !llvm.ptr<f32>
    %876 = llvm.mul %10, %5  : i64
    %877 = llvm.mul %1, %7  : i64
    %878 = llvm.add %876, %877  : i64
    %879 = llvm.add %878, %9  : i64
    %880 = llvm.getelementptr %726[%879] : (!llvm.ptr<f32>, i64) -> !llvm.ptr<f32>
    llvm.store %875, %880 : !llvm.ptr<f32>
    %881 = llvm.mul %10, %5  : i64
    %882 = llvm.mul %1, %7  : i64
    %883 = llvm.add %881, %882  : i64
    %884 = llvm.add %883, %0  : i64
    %885 = llvm.getelementptr %arg2[%884] : (!llvm.ptr<f32>, i64) -> !llvm.ptr<f32>
    %886 = llvm.load %885 : !llvm.ptr<f32>
    %887 = llvm.mul %10, %5  : i64
    %888 = llvm.mul %1, %7  : i64
    %889 = llvm.add %887, %888  : i64
    %890 = llvm.add %889, %0  : i64
    %891 = llvm.getelementptr %726[%890] : (!llvm.ptr<f32>, i64) -> !llvm.ptr<f32>
    llvm.store %886, %891 : !llvm.ptr<f32>
    %892 = llvm.mul %10, %5  : i64
    %893 = llvm.mul %1, %7  : i64
    %894 = llvm.add %892, %893  : i64
    %895 = llvm.add %894, %1  : i64
    %896 = llvm.getelementptr %arg2[%895] : (!llvm.ptr<f32>, i64) -> !llvm.ptr<f32>
    %897 = llvm.load %896 : !llvm.ptr<f32>
    %898 = llvm.mul %10, %5  : i64
    %899 = llvm.mul %1, %7  : i64
    %900 = llvm.add %898, %899  : i64
    %901 = llvm.add %900, %1  : i64
    %902 = llvm.getelementptr %726[%901] : (!llvm.ptr<f32>, i64) -> !llvm.ptr<f32>
    llvm.store %897, %902 : !llvm.ptr<f32>
    %903 = llvm.mul %10, %8  : i64
    %904 = llvm.mul %10, %6  : i64
    %905 = llvm.add %903, %904  : i64
    %906 = llvm.add %905, %10  : i64
    %907 = llvm.getelementptr %14[%906] : (!llvm.ptr<f32>, i64) -> !llvm.ptr<f32>
    %908 = llvm.load %907 : !llvm.ptr<f32>
    %909 = llvm.mul %10, %8  : i64
    %910 = llvm.mul %10, %7  : i64
    %911 = llvm.add %909, %910  : i64
    %912 = llvm.add %911, %10  : i64
    %913 = llvm.getelementptr %370[%912] : (!llvm.ptr<f32>, i64) -> !llvm.ptr<f32>
    %914 = llvm.load %913 : !llvm.ptr<f32>
    %915 = llvm.mul %10, %5  : i64
    %916 = llvm.mul %10, %7  : i64
    %917 = llvm.add %915, %916  : i64
    %918 = llvm.add %917, %10  : i64
    %919 = llvm.getelementptr %726[%918] : (!llvm.ptr<f32>, i64) -> !llvm.ptr<f32>
    %920 = llvm.load %919 : !llvm.ptr<f32>
    %921 = llvm.fmul %908, %914  : f32
    %922 = llvm.fadd %920, %921  : f32
    %923 = llvm.mul %10, %8  : i64
    %924 = llvm.mul %10, %6  : i64
    %925 = llvm.add %923, %924  : i64
    %926 = llvm.add %925, %9  : i64
    %927 = llvm.getelementptr %14[%926] : (!llvm.ptr<f32>, i64) -> !llvm.ptr<f32>
    %928 = llvm.load %927 : !llvm.ptr<f32>
    %929 = llvm.mul %10, %8  : i64
    %930 = llvm.mul %9, %7  : i64
    %931 = llvm.add %929, %930  : i64
    %932 = llvm.add %931, %10  : i64
    %933 = llvm.getelementptr %370[%932] : (!llvm.ptr<f32>, i64) -> !llvm.ptr<f32>
    %934 = llvm.load %933 : !llvm.ptr<f32>
    %935 = llvm.fmul %928, %934  : f32
    %936 = llvm.fadd %922, %935  : f32
    %937 = llvm.mul %10, %8  : i64
    %938 = llvm.mul %10, %6  : i64
    %939 = llvm.add %937, %938  : i64
    %940 = llvm.add %939, %0  : i64
    %941 = llvm.getelementptr %14[%940] : (!llvm.ptr<f32>, i64) -> !llvm.ptr<f32>
    %942 = llvm.load %941 : !llvm.ptr<f32>
    %943 = llvm.mul %10, %8  : i64
    %944 = llvm.mul %0, %7  : i64
    %945 = llvm.add %943, %944  : i64
    %946 = llvm.add %945, %10  : i64
    %947 = llvm.getelementptr %370[%946] : (!llvm.ptr<f32>, i64) -> !llvm.ptr<f32>
    %948 = llvm.load %947 : !llvm.ptr<f32>
    %949 = llvm.fmul %942, %948  : f32
    %950 = llvm.fadd %936, %949  : f32
    %951 = llvm.mul %10, %8  : i64
    %952 = llvm.mul %10, %6  : i64
    %953 = llvm.add %951, %952  : i64
    %954 = llvm.add %953, %1  : i64
    %955 = llvm.getelementptr %14[%954] : (!llvm.ptr<f32>, i64) -> !llvm.ptr<f32>
    %956 = llvm.load %955 : !llvm.ptr<f32>
    %957 = llvm.mul %10, %8  : i64
    %958 = llvm.mul %1, %7  : i64
    %959 = llvm.add %957, %958  : i64
    %960 = llvm.add %959, %10  : i64
    %961 = llvm.getelementptr %370[%960] : (!llvm.ptr<f32>, i64) -> !llvm.ptr<f32>
    %962 = llvm.load %961 : !llvm.ptr<f32>
    %963 = llvm.fmul %956, %962  : f32
    %964 = llvm.fadd %950, %963  : f32
    %965 = llvm.mul %10, %8  : i64
    %966 = llvm.mul %10, %6  : i64
    %967 = llvm.add %965, %966  : i64
    %968 = llvm.add %967, %7  : i64
    %969 = llvm.getelementptr %14[%968] : (!llvm.ptr<f32>, i64) -> !llvm.ptr<f32>
    %970 = llvm.load %969 : !llvm.ptr<f32>
    %971 = llvm.mul %10, %8  : i64
    %972 = llvm.mul %7, %7  : i64
    %973 = llvm.add %971, %972  : i64
    %974 = llvm.add %973, %10  : i64
    %975 = llvm.getelementptr %370[%974] : (!llvm.ptr<f32>, i64) -> !llvm.ptr<f32>
    %976 = llvm.load %975 : !llvm.ptr<f32>
    %977 = llvm.fmul %970, %976  : f32
    %978 = llvm.fadd %964, %977  : f32
    %979 = llvm.mul %10, %8  : i64
    %980 = llvm.mul %10, %6  : i64
    %981 = llvm.add %979, %980  : i64
    %982 = llvm.add %981, %2  : i64
    %983 = llvm.getelementptr %14[%982] : (!llvm.ptr<f32>, i64) -> !llvm.ptr<f32>
    %984 = llvm.load %983 : !llvm.ptr<f32>
    %985 = llvm.mul %10, %8  : i64
    %986 = llvm.mul %2, %7  : i64
    %987 = llvm.add %985, %986  : i64
    %988 = llvm.add %987, %10  : i64
    %989 = llvm.getelementptr %370[%988] : (!llvm.ptr<f32>, i64) -> !llvm.ptr<f32>
    %990 = llvm.load %989 : !llvm.ptr<f32>
    %991 = llvm.fmul %984, %990  : f32
    %992 = llvm.fadd %978, %991  : f32
    %993 = llvm.mul %10, %8  : i64
    %994 = llvm.mul %10, %6  : i64
    %995 = llvm.add %993, %994  : i64
    %996 = llvm.add %995, %3  : i64
    %997 = llvm.getelementptr %14[%996] : (!llvm.ptr<f32>, i64) -> !llvm.ptr<f32>
    %998 = llvm.load %997 : !llvm.ptr<f32>
    %999 = llvm.mul %10, %8  : i64
    %1000 = llvm.mul %3, %7  : i64
    %1001 = llvm.add %999, %1000  : i64
    %1002 = llvm.add %1001, %10  : i64
    %1003 = llvm.getelementptr %370[%1002] : (!llvm.ptr<f32>, i64) -> !llvm.ptr<f32>
    %1004 = llvm.load %1003 : !llvm.ptr<f32>
    %1005 = llvm.fmul %998, %1004  : f32
    %1006 = llvm.fadd %992, %1005  : f32
    %1007 = llvm.mul %10, %8  : i64
    %1008 = llvm.mul %10, %6  : i64
    %1009 = llvm.add %1007, %1008  : i64
    %1010 = llvm.add %1009, %4  : i64
    %1011 = llvm.getelementptr %14[%1010] : (!llvm.ptr<f32>, i64) -> !llvm.ptr<f32>
    %1012 = llvm.load %1011 : !llvm.ptr<f32>
    %1013 = llvm.mul %10, %8  : i64
    %1014 = llvm.mul %4, %7  : i64
    %1015 = llvm.add %1013, %1014  : i64
    %1016 = llvm.add %1015, %10  : i64
    %1017 = llvm.getelementptr %370[%1016] : (!llvm.ptr<f32>, i64) -> !llvm.ptr<f32>
    %1018 = llvm.load %1017 : !llvm.ptr<f32>
    %1019 = llvm.fmul %1012, %1018  : f32
    %1020 = llvm.fadd %1006, %1019  : f32
    %1021 = llvm.mul %10, %5  : i64
    %1022 = llvm.mul %10, %7  : i64
    %1023 = llvm.add %1021, %1022  : i64
    %1024 = llvm.add %1023, %10  : i64
    %1025 = llvm.getelementptr %726[%1024] : (!llvm.ptr<f32>, i64) -> !llvm.ptr<f32>
    llvm.store %1020, %1025 : !llvm.ptr<f32>
    %1026 = llvm.mul %10, %8  : i64
    %1027 = llvm.mul %10, %7  : i64
    %1028 = llvm.add %1026, %1027  : i64
    %1029 = llvm.add %1028, %9  : i64
    %1030 = llvm.getelementptr %370[%1029] : (!llvm.ptr<f32>, i64) -> !llvm.ptr<f32>
    %1031 = llvm.load %1030 : !llvm.ptr<f32>
    %1032 = llvm.mul %10, %5  : i64
    %1033 = llvm.mul %10, %7  : i64
    %1034 = llvm.add %1032, %1033  : i64
    %1035 = llvm.add %1034, %9  : i64
    %1036 = llvm.getelementptr %726[%1035] : (!llvm.ptr<f32>, i64) -> !llvm.ptr<f32>
    %1037 = llvm.load %1036 : !llvm.ptr<f32>
    %1038 = llvm.fmul %908, %1031  : f32
    %1039 = llvm.fadd %1037, %1038  : f32
    %1040 = llvm.mul %10, %8  : i64
    %1041 = llvm.mul %9, %7  : i64
    %1042 = llvm.add %1040, %1041  : i64
    %1043 = llvm.add %1042, %9  : i64
    %1044 = llvm.getelementptr %370[%1043] : (!llvm.ptr<f32>, i64) -> !llvm.ptr<f32>
    %1045 = llvm.load %1044 : !llvm.ptr<f32>
    %1046 = llvm.fmul %928, %1045  : f32
    %1047 = llvm.fadd %1039, %1046  : f32
    %1048 = llvm.mul %10, %8  : i64
    %1049 = llvm.mul %0, %7  : i64
    %1050 = llvm.add %1048, %1049  : i64
    %1051 = llvm.add %1050, %9  : i64
    %1052 = llvm.getelementptr %370[%1051] : (!llvm.ptr<f32>, i64) -> !llvm.ptr<f32>
    %1053 = llvm.load %1052 : !llvm.ptr<f32>
    %1054 = llvm.fmul %942, %1053  : f32
    %1055 = llvm.fadd %1047, %1054  : f32
    %1056 = llvm.mul %10, %8  : i64
    %1057 = llvm.mul %1, %7  : i64
    %1058 = llvm.add %1056, %1057  : i64
    %1059 = llvm.add %1058, %9  : i64
    %1060 = llvm.getelementptr %370[%1059] : (!llvm.ptr<f32>, i64) -> !llvm.ptr<f32>
    %1061 = llvm.load %1060 : !llvm.ptr<f32>
    %1062 = llvm.fmul %956, %1061  : f32
    %1063 = llvm.fadd %1055, %1062  : f32
    %1064 = llvm.mul %10, %8  : i64
    %1065 = llvm.mul %7, %7  : i64
    %1066 = llvm.add %1064, %1065  : i64
    %1067 = llvm.add %1066, %9  : i64
    %1068 = llvm.getelementptr %370[%1067] : (!llvm.ptr<f32>, i64) -> !llvm.ptr<f32>
    %1069 = llvm.load %1068 : !llvm.ptr<f32>
    %1070 = llvm.fmul %970, %1069  : f32
    %1071 = llvm.fadd %1063, %1070  : f32
    %1072 = llvm.mul %10, %8  : i64
    %1073 = llvm.mul %2, %7  : i64
    %1074 = llvm.add %1072, %1073  : i64
    %1075 = llvm.add %1074, %9  : i64
    %1076 = llvm.getelementptr %370[%1075] : (!llvm.ptr<f32>, i64) -> !llvm.ptr<f32>
    %1077 = llvm.load %1076 : !llvm.ptr<f32>
    %1078 = llvm.fmul %984, %1077  : f32
    %1079 = llvm.fadd %1071, %1078  : f32
    %1080 = llvm.mul %10, %8  : i64
    %1081 = llvm.mul %3, %7  : i64
    %1082 = llvm.add %1080, %1081  : i64
    %1083 = llvm.add %1082, %9  : i64
    %1084 = llvm.getelementptr %370[%1083] : (!llvm.ptr<f32>, i64) -> !llvm.ptr<f32>
    %1085 = llvm.load %1084 : !llvm.ptr<f32>
    %1086 = llvm.fmul %998, %1085  : f32
    %1087 = llvm.fadd %1079, %1086  : f32
    %1088 = llvm.mul %10, %8  : i64
    %1089 = llvm.mul %4, %7  : i64
    %1090 = llvm.add %1088, %1089  : i64
    %1091 = llvm.add %1090, %9  : i64
    %1092 = llvm.getelementptr %370[%1091] : (!llvm.ptr<f32>, i64) -> !llvm.ptr<f32>
    %1093 = llvm.load %1092 : !llvm.ptr<f32>
    %1094 = llvm.fmul %1012, %1093  : f32
    %1095 = llvm.fadd %1087, %1094  : f32
    %1096 = llvm.mul %10, %5  : i64
    %1097 = llvm.mul %10, %7  : i64
    %1098 = llvm.add %1096, %1097  : i64
    %1099 = llvm.add %1098, %9  : i64
    %1100 = llvm.getelementptr %726[%1099] : (!llvm.ptr<f32>, i64) -> !llvm.ptr<f32>
    llvm.store %1095, %1100 : !llvm.ptr<f32>
    %1101 = llvm.mul %10, %8  : i64
    %1102 = llvm.mul %10, %7  : i64
    %1103 = llvm.add %1101, %1102  : i64
    %1104 = llvm.add %1103, %0  : i64
    %1105 = llvm.getelementptr %370[%1104] : (!llvm.ptr<f32>, i64) -> !llvm.ptr<f32>
    %1106 = llvm.load %1105 : !llvm.ptr<f32>
    %1107 = llvm.mul %10, %5  : i64
    %1108 = llvm.mul %10, %7  : i64
    %1109 = llvm.add %1107, %1108  : i64
    %1110 = llvm.add %1109, %0  : i64
    %1111 = llvm.getelementptr %726[%1110] : (!llvm.ptr<f32>, i64) -> !llvm.ptr<f32>
    %1112 = llvm.load %1111 : !llvm.ptr<f32>
    %1113 = llvm.fmul %908, %1106  : f32
    %1114 = llvm.fadd %1112, %1113  : f32
    %1115 = llvm.mul %10, %8  : i64
    %1116 = llvm.mul %9, %7  : i64
    %1117 = llvm.add %1115, %1116  : i64
    %1118 = llvm.add %1117, %0  : i64
    %1119 = llvm.getelementptr %370[%1118] : (!llvm.ptr<f32>, i64) -> !llvm.ptr<f32>
    %1120 = llvm.load %1119 : !llvm.ptr<f32>
    %1121 = llvm.fmul %928, %1120  : f32
    %1122 = llvm.fadd %1114, %1121  : f32
    %1123 = llvm.mul %10, %8  : i64
    %1124 = llvm.mul %0, %7  : i64
    %1125 = llvm.add %1123, %1124  : i64
    %1126 = llvm.add %1125, %0  : i64
    %1127 = llvm.getelementptr %370[%1126] : (!llvm.ptr<f32>, i64) -> !llvm.ptr<f32>
    %1128 = llvm.load %1127 : !llvm.ptr<f32>
    %1129 = llvm.fmul %942, %1128  : f32
    %1130 = llvm.fadd %1122, %1129  : f32
    %1131 = llvm.mul %10, %8  : i64
    %1132 = llvm.mul %1, %7  : i64
    %1133 = llvm.add %1131, %1132  : i64
    %1134 = llvm.add %1133, %0  : i64
    %1135 = llvm.getelementptr %370[%1134] : (!llvm.ptr<f32>, i64) -> !llvm.ptr<f32>
    %1136 = llvm.load %1135 : !llvm.ptr<f32>
    %1137 = llvm.fmul %956, %1136  : f32
    %1138 = llvm.fadd %1130, %1137  : f32
    %1139 = llvm.mul %10, %8  : i64
    %1140 = llvm.mul %7, %7  : i64
    %1141 = llvm.add %1139, %1140  : i64
    %1142 = llvm.add %1141, %0  : i64
    %1143 = llvm.getelementptr %370[%1142] : (!llvm.ptr<f32>, i64) -> !llvm.ptr<f32>
    %1144 = llvm.load %1143 : !llvm.ptr<f32>
    %1145 = llvm.fmul %970, %1144  : f32
    %1146 = llvm.fadd %1138, %1145  : f32
    %1147 = llvm.mul %10, %8  : i64
    %1148 = llvm.mul %2, %7  : i64
    %1149 = llvm.add %1147, %1148  : i64
    %1150 = llvm.add %1149, %0  : i64
    %1151 = llvm.getelementptr %370[%1150] : (!llvm.ptr<f32>, i64) -> !llvm.ptr<f32>
    %1152 = llvm.load %1151 : !llvm.ptr<f32>
    %1153 = llvm.fmul %984, %1152  : f32
    %1154 = llvm.fadd %1146, %1153  : f32
    %1155 = llvm.mul %10, %8  : i64
    %1156 = llvm.mul %3, %7  : i64
    %1157 = llvm.add %1155, %1156  : i64
    %1158 = llvm.add %1157, %0  : i64
    %1159 = llvm.getelementptr %370[%1158] : (!llvm.ptr<f32>, i64) -> !llvm.ptr<f32>
    %1160 = llvm.load %1159 : !llvm.ptr<f32>
    %1161 = llvm.fmul %998, %1160  : f32
    %1162 = llvm.fadd %1154, %1161  : f32
    %1163 = llvm.mul %10, %8  : i64
    %1164 = llvm.mul %4, %7  : i64
    %1165 = llvm.add %1163, %1164  : i64
    %1166 = llvm.add %1165, %0  : i64
    %1167 = llvm.getelementptr %370[%1166] : (!llvm.ptr<f32>, i64) -> !llvm.ptr<f32>
    %1168 = llvm.load %1167 : !llvm.ptr<f32>
    %1169 = llvm.fmul %1012, %1168  : f32
    %1170 = llvm.fadd %1162, %1169  : f32
    %1171 = llvm.mul %10, %5  : i64
    %1172 = llvm.mul %10, %7  : i64
    %1173 = llvm.add %1171, %1172  : i64
    %1174 = llvm.add %1173, %0  : i64
    %1175 = llvm.getelementptr %726[%1174] : (!llvm.ptr<f32>, i64) -> !llvm.ptr<f32>
    llvm.store %1170, %1175 : !llvm.ptr<f32>
    %1176 = llvm.mul %10, %8  : i64
    %1177 = llvm.mul %10, %7  : i64
    %1178 = llvm.add %1176, %1177  : i64
    %1179 = llvm.add %1178, %1  : i64
    %1180 = llvm.getelementptr %370[%1179] : (!llvm.ptr<f32>, i64) -> !llvm.ptr<f32>
    %1181 = llvm.load %1180 : !llvm.ptr<f32>
    %1182 = llvm.mul %10, %5  : i64
    %1183 = llvm.mul %10, %7  : i64
    %1184 = llvm.add %1182, %1183  : i64
    %1185 = llvm.add %1184, %1  : i64
    %1186 = llvm.getelementptr %726[%1185] : (!llvm.ptr<f32>, i64) -> !llvm.ptr<f32>
    %1187 = llvm.load %1186 : !llvm.ptr<f32>
    %1188 = llvm.fmul %908, %1181  : f32
    %1189 = llvm.fadd %1187, %1188  : f32
    %1190 = llvm.mul %10, %8  : i64
    %1191 = llvm.mul %9, %7  : i64
    %1192 = llvm.add %1190, %1191  : i64
    %1193 = llvm.add %1192, %1  : i64
    %1194 = llvm.getelementptr %370[%1193] : (!llvm.ptr<f32>, i64) -> !llvm.ptr<f32>
    %1195 = llvm.load %1194 : !llvm.ptr<f32>
    %1196 = llvm.fmul %928, %1195  : f32
    %1197 = llvm.fadd %1189, %1196  : f32
    %1198 = llvm.mul %10, %8  : i64
    %1199 = llvm.mul %0, %7  : i64
    %1200 = llvm.add %1198, %1199  : i64
    %1201 = llvm.add %1200, %1  : i64
    %1202 = llvm.getelementptr %370[%1201] : (!llvm.ptr<f32>, i64) -> !llvm.ptr<f32>
    %1203 = llvm.load %1202 : !llvm.ptr<f32>
    %1204 = llvm.fmul %942, %1203  : f32
    %1205 = llvm.fadd %1197, %1204  : f32
    %1206 = llvm.mul %10, %8  : i64
    %1207 = llvm.mul %1, %7  : i64
    %1208 = llvm.add %1206, %1207  : i64
    %1209 = llvm.add %1208, %1  : i64
    %1210 = llvm.getelementptr %370[%1209] : (!llvm.ptr<f32>, i64) -> !llvm.ptr<f32>
    %1211 = llvm.load %1210 : !llvm.ptr<f32>
    %1212 = llvm.fmul %956, %1211  : f32
    %1213 = llvm.fadd %1205, %1212  : f32
    %1214 = llvm.mul %10, %8  : i64
    %1215 = llvm.mul %7, %7  : i64
    %1216 = llvm.add %1214, %1215  : i64
    %1217 = llvm.add %1216, %1  : i64
    %1218 = llvm.getelementptr %370[%1217] : (!llvm.ptr<f32>, i64) -> !llvm.ptr<f32>
    %1219 = llvm.load %1218 : !llvm.ptr<f32>
    %1220 = llvm.fmul %970, %1219  : f32
    %1221 = llvm.fadd %1213, %1220  : f32
    %1222 = llvm.mul %10, %8  : i64
    %1223 = llvm.mul %2, %7  : i64
    %1224 = llvm.add %1222, %1223  : i64
    %1225 = llvm.add %1224, %1  : i64
    %1226 = llvm.getelementptr %370[%1225] : (!llvm.ptr<f32>, i64) -> !llvm.ptr<f32>
    %1227 = llvm.load %1226 : !llvm.ptr<f32>
    %1228 = llvm.fmul %984, %1227  : f32
    %1229 = llvm.fadd %1221, %1228  : f32
    %1230 = llvm.mul %10, %8  : i64
    %1231 = llvm.mul %3, %7  : i64
    %1232 = llvm.add %1230, %1231  : i64
    %1233 = llvm.add %1232, %1  : i64
    %1234 = llvm.getelementptr %370[%1233] : (!llvm.ptr<f32>, i64) -> !llvm.ptr<f32>
    %1235 = llvm.load %1234 : !llvm.ptr<f32>
    %1236 = llvm.fmul %998, %1235  : f32
    %1237 = llvm.fadd %1229, %1236  : f32
    %1238 = llvm.mul %10, %8  : i64
    %1239 = llvm.mul %4, %7  : i64
    %1240 = llvm.add %1238, %1239  : i64
    %1241 = llvm.add %1240, %1  : i64
    %1242 = llvm.getelementptr %370[%1241] : (!llvm.ptr<f32>, i64) -> !llvm.ptr<f32>
    %1243 = llvm.load %1242 : !llvm.ptr<f32>
    %1244 = llvm.fmul %1012, %1243  : f32
    %1245 = llvm.fadd %1237, %1244  : f32
    %1246 = llvm.mul %10, %5  : i64
    %1247 = llvm.mul %10, %7  : i64
    %1248 = llvm.add %1246, %1247  : i64
    %1249 = llvm.add %1248, %1  : i64
    %1250 = llvm.getelementptr %726[%1249] : (!llvm.ptr<f32>, i64) -> !llvm.ptr<f32>
    llvm.store %1245, %1250 : !llvm.ptr<f32>
    %1251 = llvm.mul %10, %8  : i64
    %1252 = llvm.mul %9, %6  : i64
    %1253 = llvm.add %1251, %1252  : i64
    %1254 = llvm.add %1253, %10  : i64
    %1255 = llvm.getelementptr %14[%1254] : (!llvm.ptr<f32>, i64) -> !llvm.ptr<f32>
    %1256 = llvm.load %1255 : !llvm.ptr<f32>
    %1257 = llvm.mul %10, %5  : i64
    %1258 = llvm.mul %9, %7  : i64
    %1259 = llvm.add %1257, %1258  : i64
    %1260 = llvm.add %1259, %10  : i64
    %1261 = llvm.getelementptr %726[%1260] : (!llvm.ptr<f32>, i64) -> !llvm.ptr<f32>
    %1262 = llvm.load %1261 : !llvm.ptr<f32>
    %1263 = llvm.fmul %1256, %914  : f32
    %1264 = llvm.fadd %1262, %1263  : f32
    %1265 = llvm.mul %10, %8  : i64
    %1266 = llvm.mul %9, %6  : i64
    %1267 = llvm.add %1265, %1266  : i64
    %1268 = llvm.add %1267, %9  : i64
    %1269 = llvm.getelementptr %14[%1268] : (!llvm.ptr<f32>, i64) -> !llvm.ptr<f32>
    %1270 = llvm.load %1269 : !llvm.ptr<f32>
    %1271 = llvm.fmul %1270, %934  : f32
    %1272 = llvm.fadd %1264, %1271  : f32
    %1273 = llvm.mul %10, %8  : i64
    %1274 = llvm.mul %9, %6  : i64
    %1275 = llvm.add %1273, %1274  : i64
    %1276 = llvm.add %1275, %0  : i64
    %1277 = llvm.getelementptr %14[%1276] : (!llvm.ptr<f32>, i64) -> !llvm.ptr<f32>
    %1278 = llvm.load %1277 : !llvm.ptr<f32>
    %1279 = llvm.fmul %1278, %948  : f32
    %1280 = llvm.fadd %1272, %1279  : f32
    %1281 = llvm.mul %10, %8  : i64
    %1282 = llvm.mul %9, %6  : i64
    %1283 = llvm.add %1281, %1282  : i64
    %1284 = llvm.add %1283, %1  : i64
    %1285 = llvm.getelementptr %14[%1284] : (!llvm.ptr<f32>, i64) -> !llvm.ptr<f32>
    %1286 = llvm.load %1285 : !llvm.ptr<f32>
    %1287 = llvm.fmul %1286, %962  : f32
    %1288 = llvm.fadd %1280, %1287  : f32
    %1289 = llvm.mul %10, %8  : i64
    %1290 = llvm.mul %9, %6  : i64
    %1291 = llvm.add %1289, %1290  : i64
    %1292 = llvm.add %1291, %7  : i64
    %1293 = llvm.getelementptr %14[%1292] : (!llvm.ptr<f32>, i64) -> !llvm.ptr<f32>
    %1294 = llvm.load %1293 : !llvm.ptr<f32>
    %1295 = llvm.fmul %1294, %976  : f32
    %1296 = llvm.fadd %1288, %1295  : f32
    %1297 = llvm.mul %10, %8  : i64
    %1298 = llvm.mul %9, %6  : i64
    %1299 = llvm.add %1297, %1298  : i64
    %1300 = llvm.add %1299, %2  : i64
    %1301 = llvm.getelementptr %14[%1300] : (!llvm.ptr<f32>, i64) -> !llvm.ptr<f32>
    %1302 = llvm.load %1301 : !llvm.ptr<f32>
    %1303 = llvm.fmul %1302, %990  : f32
    %1304 = llvm.fadd %1296, %1303  : f32
    %1305 = llvm.mul %10, %8  : i64
    %1306 = llvm.mul %9, %6  : i64
    %1307 = llvm.add %1305, %1306  : i64
    %1308 = llvm.add %1307, %3  : i64
    %1309 = llvm.getelementptr %14[%1308] : (!llvm.ptr<f32>, i64) -> !llvm.ptr<f32>
    %1310 = llvm.load %1309 : !llvm.ptr<f32>
    %1311 = llvm.fmul %1310, %1004  : f32
    %1312 = llvm.fadd %1304, %1311  : f32
    %1313 = llvm.mul %10, %8  : i64
    %1314 = llvm.mul %9, %6  : i64
    %1315 = llvm.add %1313, %1314  : i64
    %1316 = llvm.add %1315, %4  : i64
    %1317 = llvm.getelementptr %14[%1316] : (!llvm.ptr<f32>, i64) -> !llvm.ptr<f32>
    %1318 = llvm.load %1317 : !llvm.ptr<f32>
    %1319 = llvm.fmul %1318, %1018  : f32
    %1320 = llvm.fadd %1312, %1319  : f32
    %1321 = llvm.mul %10, %5  : i64
    %1322 = llvm.mul %9, %7  : i64
    %1323 = llvm.add %1321, %1322  : i64
    %1324 = llvm.add %1323, %10  : i64
    %1325 = llvm.getelementptr %726[%1324] : (!llvm.ptr<f32>, i64) -> !llvm.ptr<f32>
    llvm.store %1320, %1325 : !llvm.ptr<f32>
    %1326 = llvm.mul %10, %5  : i64
    %1327 = llvm.mul %9, %7  : i64
    %1328 = llvm.add %1326, %1327  : i64
    %1329 = llvm.add %1328, %9  : i64
    %1330 = llvm.getelementptr %726[%1329] : (!llvm.ptr<f32>, i64) -> !llvm.ptr<f32>
    %1331 = llvm.load %1330 : !llvm.ptr<f32>
    %1332 = llvm.fmul %1256, %1031  : f32
    %1333 = llvm.fadd %1331, %1332  : f32
    %1334 = llvm.fmul %1270, %1045  : f32
    %1335 = llvm.fadd %1333, %1334  : f32
    %1336 = llvm.fmul %1278, %1053  : f32
    %1337 = llvm.fadd %1335, %1336  : f32
    %1338 = llvm.fmul %1286, %1061  : f32
    %1339 = llvm.fadd %1337, %1338  : f32
    %1340 = llvm.fmul %1294, %1069  : f32
    %1341 = llvm.fadd %1339, %1340  : f32
    %1342 = llvm.fmul %1302, %1077  : f32
    %1343 = llvm.fadd %1341, %1342  : f32
    %1344 = llvm.fmul %1310, %1085  : f32
    %1345 = llvm.fadd %1343, %1344  : f32
    %1346 = llvm.fmul %1318, %1093  : f32
    %1347 = llvm.fadd %1345, %1346  : f32
    %1348 = llvm.mul %10, %5  : i64
    %1349 = llvm.mul %9, %7  : i64
    %1350 = llvm.add %1348, %1349  : i64
    %1351 = llvm.add %1350, %9  : i64
    %1352 = llvm.getelementptr %726[%1351] : (!llvm.ptr<f32>, i64) -> !llvm.ptr<f32>
    llvm.store %1347, %1352 : !llvm.ptr<f32>
    %1353 = llvm.mul %10, %5  : i64
    %1354 = llvm.mul %9, %7  : i64
    %1355 = llvm.add %1353, %1354  : i64
    %1356 = llvm.add %1355, %0  : i64
    %1357 = llvm.getelementptr %726[%1356] : (!llvm.ptr<f32>, i64) -> !llvm.ptr<f32>
    %1358 = llvm.load %1357 : !llvm.ptr<f32>
    %1359 = llvm.fmul %1256, %1106  : f32
    %1360 = llvm.fadd %1358, %1359  : f32
    %1361 = llvm.fmul %1270, %1120  : f32
    %1362 = llvm.fadd %1360, %1361  : f32
    %1363 = llvm.fmul %1278, %1128  : f32
    %1364 = llvm.fadd %1362, %1363  : f32
    %1365 = llvm.fmul %1286, %1136  : f32
    %1366 = llvm.fadd %1364, %1365  : f32
    %1367 = llvm.fmul %1294, %1144  : f32
    %1368 = llvm.fadd %1366, %1367  : f32
    %1369 = llvm.fmul %1302, %1152  : f32
    %1370 = llvm.fadd %1368, %1369  : f32
    %1371 = llvm.fmul %1310, %1160  : f32
    %1372 = llvm.fadd %1370, %1371  : f32
    %1373 = llvm.fmul %1318, %1168  : f32
    %1374 = llvm.fadd %1372, %1373  : f32
    %1375 = llvm.mul %10, %5  : i64
    %1376 = llvm.mul %9, %7  : i64
    %1377 = llvm.add %1375, %1376  : i64
    %1378 = llvm.add %1377, %0  : i64
    %1379 = llvm.getelementptr %726[%1378] : (!llvm.ptr<f32>, i64) -> !llvm.ptr<f32>
    llvm.store %1374, %1379 : !llvm.ptr<f32>
    %1380 = llvm.mul %10, %5  : i64
    %1381 = llvm.mul %9, %7  : i64
    %1382 = llvm.add %1380, %1381  : i64
    %1383 = llvm.add %1382, %1  : i64
    %1384 = llvm.getelementptr %726[%1383] : (!llvm.ptr<f32>, i64) -> !llvm.ptr<f32>
    %1385 = llvm.load %1384 : !llvm.ptr<f32>
    %1386 = llvm.fmul %1256, %1181  : f32
    %1387 = llvm.fadd %1385, %1386  : f32
    %1388 = llvm.fmul %1270, %1195  : f32
    %1389 = llvm.fadd %1387, %1388  : f32
    %1390 = llvm.fmul %1278, %1203  : f32
    %1391 = llvm.fadd %1389, %1390  : f32
    %1392 = llvm.fmul %1286, %1211  : f32
    %1393 = llvm.fadd %1391, %1392  : f32
    %1394 = llvm.fmul %1294, %1219  : f32
    %1395 = llvm.fadd %1393, %1394  : f32
    %1396 = llvm.fmul %1302, %1227  : f32
    %1397 = llvm.fadd %1395, %1396  : f32
    %1398 = llvm.fmul %1310, %1235  : f32
    %1399 = llvm.fadd %1397, %1398  : f32
    %1400 = llvm.fmul %1318, %1243  : f32
    %1401 = llvm.fadd %1399, %1400  : f32
    %1402 = llvm.mul %10, %5  : i64
    %1403 = llvm.mul %9, %7  : i64
    %1404 = llvm.add %1402, %1403  : i64
    %1405 = llvm.add %1404, %1  : i64
    %1406 = llvm.getelementptr %726[%1405] : (!llvm.ptr<f32>, i64) -> !llvm.ptr<f32>
    llvm.store %1401, %1406 : !llvm.ptr<f32>
    %1407 = llvm.mul %10, %8  : i64
    %1408 = llvm.mul %0, %6  : i64
    %1409 = llvm.add %1407, %1408  : i64
    %1410 = llvm.add %1409, %10  : i64
    %1411 = llvm.getelementptr %14[%1410] : (!llvm.ptr<f32>, i64) -> !llvm.ptr<f32>
    %1412 = llvm.load %1411 : !llvm.ptr<f32>
    %1413 = llvm.mul %10, %5  : i64
    %1414 = llvm.mul %0, %7  : i64
    %1415 = llvm.add %1413, %1414  : i64
    %1416 = llvm.add %1415, %10  : i64
    %1417 = llvm.getelementptr %726[%1416] : (!llvm.ptr<f32>, i64) -> !llvm.ptr<f32>
    %1418 = llvm.load %1417 : !llvm.ptr<f32>
    %1419 = llvm.fmul %1412, %914  : f32
    %1420 = llvm.fadd %1418, %1419  : f32
    %1421 = llvm.mul %10, %8  : i64
    %1422 = llvm.mul %0, %6  : i64
    %1423 = llvm.add %1421, %1422  : i64
    %1424 = llvm.add %1423, %9  : i64
    %1425 = llvm.getelementptr %14[%1424] : (!llvm.ptr<f32>, i64) -> !llvm.ptr<f32>
    %1426 = llvm.load %1425 : !llvm.ptr<f32>
    %1427 = llvm.fmul %1426, %934  : f32
    %1428 = llvm.fadd %1420, %1427  : f32
    %1429 = llvm.mul %10, %8  : i64
    %1430 = llvm.mul %0, %6  : i64
    %1431 = llvm.add %1429, %1430  : i64
    %1432 = llvm.add %1431, %0  : i64
    %1433 = llvm.getelementptr %14[%1432] : (!llvm.ptr<f32>, i64) -> !llvm.ptr<f32>
    %1434 = llvm.load %1433 : !llvm.ptr<f32>
    %1435 = llvm.fmul %1434, %948  : f32
    %1436 = llvm.fadd %1428, %1435  : f32
    %1437 = llvm.mul %10, %8  : i64
    %1438 = llvm.mul %0, %6  : i64
    %1439 = llvm.add %1437, %1438  : i64
    %1440 = llvm.add %1439, %1  : i64
    %1441 = llvm.getelementptr %14[%1440] : (!llvm.ptr<f32>, i64) -> !llvm.ptr<f32>
    %1442 = llvm.load %1441 : !llvm.ptr<f32>
    %1443 = llvm.fmul %1442, %962  : f32
    %1444 = llvm.fadd %1436, %1443  : f32
    %1445 = llvm.mul %10, %8  : i64
    %1446 = llvm.mul %0, %6  : i64
    %1447 = llvm.add %1445, %1446  : i64
    %1448 = llvm.add %1447, %7  : i64
    %1449 = llvm.getelementptr %14[%1448] : (!llvm.ptr<f32>, i64) -> !llvm.ptr<f32>
    %1450 = llvm.load %1449 : !llvm.ptr<f32>
    %1451 = llvm.fmul %1450, %976  : f32
    %1452 = llvm.fadd %1444, %1451  : f32
    %1453 = llvm.mul %10, %8  : i64
    %1454 = llvm.mul %0, %6  : i64
    %1455 = llvm.add %1453, %1454  : i64
    %1456 = llvm.add %1455, %2  : i64
    %1457 = llvm.getelementptr %14[%1456] : (!llvm.ptr<f32>, i64) -> !llvm.ptr<f32>
    %1458 = llvm.load %1457 : !llvm.ptr<f32>
    %1459 = llvm.fmul %1458, %990  : f32
    %1460 = llvm.fadd %1452, %1459  : f32
    %1461 = llvm.mul %10, %8  : i64
    %1462 = llvm.mul %0, %6  : i64
    %1463 = llvm.add %1461, %1462  : i64
    %1464 = llvm.add %1463, %3  : i64
    %1465 = llvm.getelementptr %14[%1464] : (!llvm.ptr<f32>, i64) -> !llvm.ptr<f32>
    %1466 = llvm.load %1465 : !llvm.ptr<f32>
    %1467 = llvm.fmul %1466, %1004  : f32
    %1468 = llvm.fadd %1460, %1467  : f32
    %1469 = llvm.mul %10, %8  : i64
    %1470 = llvm.mul %0, %6  : i64
    %1471 = llvm.add %1469, %1470  : i64
    %1472 = llvm.add %1471, %4  : i64
    %1473 = llvm.getelementptr %14[%1472] : (!llvm.ptr<f32>, i64) -> !llvm.ptr<f32>
    %1474 = llvm.load %1473 : !llvm.ptr<f32>
    %1475 = llvm.fmul %1474, %1018  : f32
    %1476 = llvm.fadd %1468, %1475  : f32
    %1477 = llvm.mul %10, %5  : i64
    %1478 = llvm.mul %0, %7  : i64
    %1479 = llvm.add %1477, %1478  : i64
    %1480 = llvm.add %1479, %10  : i64
    %1481 = llvm.getelementptr %726[%1480] : (!llvm.ptr<f32>, i64) -> !llvm.ptr<f32>
    llvm.store %1476, %1481 : !llvm.ptr<f32>
    %1482 = llvm.mul %10, %5  : i64
    %1483 = llvm.mul %0, %7  : i64
    %1484 = llvm.add %1482, %1483  : i64
    %1485 = llvm.add %1484, %9  : i64
    %1486 = llvm.getelementptr %726[%1485] : (!llvm.ptr<f32>, i64) -> !llvm.ptr<f32>
    %1487 = llvm.load %1486 : !llvm.ptr<f32>
    %1488 = llvm.fmul %1412, %1031  : f32
    %1489 = llvm.fadd %1487, %1488  : f32
    %1490 = llvm.fmul %1426, %1045  : f32
    %1491 = llvm.fadd %1489, %1490  : f32
    %1492 = llvm.fmul %1434, %1053  : f32
    %1493 = llvm.fadd %1491, %1492  : f32
    %1494 = llvm.fmul %1442, %1061  : f32
    %1495 = llvm.fadd %1493, %1494  : f32
    %1496 = llvm.fmul %1450, %1069  : f32
    %1497 = llvm.fadd %1495, %1496  : f32
    %1498 = llvm.fmul %1458, %1077  : f32
    %1499 = llvm.fadd %1497, %1498  : f32
    %1500 = llvm.fmul %1466, %1085  : f32
    %1501 = llvm.fadd %1499, %1500  : f32
    %1502 = llvm.fmul %1474, %1093  : f32
    %1503 = llvm.fadd %1501, %1502  : f32
    %1504 = llvm.mul %10, %5  : i64
    %1505 = llvm.mul %0, %7  : i64
    %1506 = llvm.add %1504, %1505  : i64
    %1507 = llvm.add %1506, %9  : i64
    %1508 = llvm.getelementptr %726[%1507] : (!llvm.ptr<f32>, i64) -> !llvm.ptr<f32>
    llvm.store %1503, %1508 : !llvm.ptr<f32>
    %1509 = llvm.mul %10, %5  : i64
    %1510 = llvm.mul %0, %7  : i64
    %1511 = llvm.add %1509, %1510  : i64
    %1512 = llvm.add %1511, %0  : i64
    %1513 = llvm.getelementptr %726[%1512] : (!llvm.ptr<f32>, i64) -> !llvm.ptr<f32>
    %1514 = llvm.load %1513 : !llvm.ptr<f32>
    %1515 = llvm.fmul %1412, %1106  : f32
    %1516 = llvm.fadd %1514, %1515  : f32
    %1517 = llvm.fmul %1426, %1120  : f32
    %1518 = llvm.fadd %1516, %1517  : f32
    %1519 = llvm.fmul %1434, %1128  : f32
    %1520 = llvm.fadd %1518, %1519  : f32
    %1521 = llvm.fmul %1442, %1136  : f32
    %1522 = llvm.fadd %1520, %1521  : f32
    %1523 = llvm.fmul %1450, %1144  : f32
    %1524 = llvm.fadd %1522, %1523  : f32
    %1525 = llvm.fmul %1458, %1152  : f32
    %1526 = llvm.fadd %1524, %1525  : f32
    %1527 = llvm.fmul %1466, %1160  : f32
    %1528 = llvm.fadd %1526, %1527  : f32
    %1529 = llvm.fmul %1474, %1168  : f32
    %1530 = llvm.fadd %1528, %1529  : f32
    %1531 = llvm.mul %10, %5  : i64
    %1532 = llvm.mul %0, %7  : i64
    %1533 = llvm.add %1531, %1532  : i64
    %1534 = llvm.add %1533, %0  : i64
    %1535 = llvm.getelementptr %726[%1534] : (!llvm.ptr<f32>, i64) -> !llvm.ptr<f32>
    llvm.store %1530, %1535 : !llvm.ptr<f32>
    %1536 = llvm.mul %10, %5  : i64
    %1537 = llvm.mul %0, %7  : i64
    %1538 = llvm.add %1536, %1537  : i64
    %1539 = llvm.add %1538, %1  : i64
    %1540 = llvm.getelementptr %726[%1539] : (!llvm.ptr<f32>, i64) -> !llvm.ptr<f32>
    %1541 = llvm.load %1540 : !llvm.ptr<f32>
    %1542 = llvm.fmul %1412, %1181  : f32
    %1543 = llvm.fadd %1541, %1542  : f32
    %1544 = llvm.fmul %1426, %1195  : f32
    %1545 = llvm.fadd %1543, %1544  : f32
    %1546 = llvm.fmul %1434, %1203  : f32
    %1547 = llvm.fadd %1545, %1546  : f32
    %1548 = llvm.fmul %1442, %1211  : f32
    %1549 = llvm.fadd %1547, %1548  : f32
    %1550 = llvm.fmul %1450, %1219  : f32
    %1551 = llvm.fadd %1549, %1550  : f32
    %1552 = llvm.fmul %1458, %1227  : f32
    %1553 = llvm.fadd %1551, %1552  : f32
    %1554 = llvm.fmul %1466, %1235  : f32
    %1555 = llvm.fadd %1553, %1554  : f32
    %1556 = llvm.fmul %1474, %1243  : f32
    %1557 = llvm.fadd %1555, %1556  : f32
    %1558 = llvm.mul %10, %5  : i64
    %1559 = llvm.mul %0, %7  : i64
    %1560 = llvm.add %1558, %1559  : i64
    %1561 = llvm.add %1560, %1  : i64
    %1562 = llvm.getelementptr %726[%1561] : (!llvm.ptr<f32>, i64) -> !llvm.ptr<f32>
    llvm.store %1557, %1562 : !llvm.ptr<f32>
    %1563 = llvm.mul %10, %8  : i64
    %1564 = llvm.mul %1, %6  : i64
    %1565 = llvm.add %1563, %1564  : i64
    %1566 = llvm.add %1565, %10  : i64
    %1567 = llvm.getelementptr %14[%1566] : (!llvm.ptr<f32>, i64) -> !llvm.ptr<f32>
    %1568 = llvm.load %1567 : !llvm.ptr<f32>
    %1569 = llvm.mul %10, %5  : i64
    %1570 = llvm.mul %1, %7  : i64
    %1571 = llvm.add %1569, %1570  : i64
    %1572 = llvm.add %1571, %10  : i64
    %1573 = llvm.getelementptr %726[%1572] : (!llvm.ptr<f32>, i64) -> !llvm.ptr<f32>
    %1574 = llvm.load %1573 : !llvm.ptr<f32>
    %1575 = llvm.fmul %1568, %914  : f32
    %1576 = llvm.fadd %1574, %1575  : f32
    %1577 = llvm.mul %10, %8  : i64
    %1578 = llvm.mul %1, %6  : i64
    %1579 = llvm.add %1577, %1578  : i64
    %1580 = llvm.add %1579, %9  : i64
    %1581 = llvm.getelementptr %14[%1580] : (!llvm.ptr<f32>, i64) -> !llvm.ptr<f32>
    %1582 = llvm.load %1581 : !llvm.ptr<f32>
    %1583 = llvm.fmul %1582, %934  : f32
    %1584 = llvm.fadd %1576, %1583  : f32
    %1585 = llvm.mul %10, %8  : i64
    %1586 = llvm.mul %1, %6  : i64
    %1587 = llvm.add %1585, %1586  : i64
    %1588 = llvm.add %1587, %0  : i64
    %1589 = llvm.getelementptr %14[%1588] : (!llvm.ptr<f32>, i64) -> !llvm.ptr<f32>
    %1590 = llvm.load %1589 : !llvm.ptr<f32>
    %1591 = llvm.fmul %1590, %948  : f32
    %1592 = llvm.fadd %1584, %1591  : f32
    %1593 = llvm.mul %10, %8  : i64
    %1594 = llvm.mul %1, %6  : i64
    %1595 = llvm.add %1593, %1594  : i64
    %1596 = llvm.add %1595, %1  : i64
    %1597 = llvm.getelementptr %14[%1596] : (!llvm.ptr<f32>, i64) -> !llvm.ptr<f32>
    %1598 = llvm.load %1597 : !llvm.ptr<f32>
    %1599 = llvm.fmul %1598, %962  : f32
    %1600 = llvm.fadd %1592, %1599  : f32
    %1601 = llvm.mul %10, %8  : i64
    %1602 = llvm.mul %1, %6  : i64
    %1603 = llvm.add %1601, %1602  : i64
    %1604 = llvm.add %1603, %7  : i64
    %1605 = llvm.getelementptr %14[%1604] : (!llvm.ptr<f32>, i64) -> !llvm.ptr<f32>
    %1606 = llvm.load %1605 : !llvm.ptr<f32>
    %1607 = llvm.fmul %1606, %976  : f32
    %1608 = llvm.fadd %1600, %1607  : f32
    %1609 = llvm.mul %10, %8  : i64
    %1610 = llvm.mul %1, %6  : i64
    %1611 = llvm.add %1609, %1610  : i64
    %1612 = llvm.add %1611, %2  : i64
    %1613 = llvm.getelementptr %14[%1612] : (!llvm.ptr<f32>, i64) -> !llvm.ptr<f32>
    %1614 = llvm.load %1613 : !llvm.ptr<f32>
    %1615 = llvm.fmul %1614, %990  : f32
    %1616 = llvm.fadd %1608, %1615  : f32
    %1617 = llvm.mul %10, %8  : i64
    %1618 = llvm.mul %1, %6  : i64
    %1619 = llvm.add %1617, %1618  : i64
    %1620 = llvm.add %1619, %3  : i64
    %1621 = llvm.getelementptr %14[%1620] : (!llvm.ptr<f32>, i64) -> !llvm.ptr<f32>
    %1622 = llvm.load %1621 : !llvm.ptr<f32>
    %1623 = llvm.fmul %1622, %1004  : f32
    %1624 = llvm.fadd %1616, %1623  : f32
    %1625 = llvm.mul %10, %8  : i64
    %1626 = llvm.mul %1, %6  : i64
    %1627 = llvm.add %1625, %1626  : i64
    %1628 = llvm.add %1627, %4  : i64
    %1629 = llvm.getelementptr %14[%1628] : (!llvm.ptr<f32>, i64) -> !llvm.ptr<f32>
    %1630 = llvm.load %1629 : !llvm.ptr<f32>
    %1631 = llvm.fmul %1630, %1018  : f32
    %1632 = llvm.fadd %1624, %1631  : f32
    %1633 = llvm.mul %10, %5  : i64
    %1634 = llvm.mul %1, %7  : i64
    %1635 = llvm.add %1633, %1634  : i64
    %1636 = llvm.add %1635, %10  : i64
    %1637 = llvm.getelementptr %726[%1636] : (!llvm.ptr<f32>, i64) -> !llvm.ptr<f32>
    llvm.store %1632, %1637 : !llvm.ptr<f32>
    %1638 = llvm.mul %10, %5  : i64
    %1639 = llvm.mul %1, %7  : i64
    %1640 = llvm.add %1638, %1639  : i64
    %1641 = llvm.add %1640, %9  : i64
    %1642 = llvm.getelementptr %726[%1641] : (!llvm.ptr<f32>, i64) -> !llvm.ptr<f32>
    %1643 = llvm.load %1642 : !llvm.ptr<f32>
    %1644 = llvm.fmul %1568, %1031  : f32
    %1645 = llvm.fadd %1643, %1644  : f32
    %1646 = llvm.fmul %1582, %1045  : f32
    %1647 = llvm.fadd %1645, %1646  : f32
    %1648 = llvm.fmul %1590, %1053  : f32
    %1649 = llvm.fadd %1647, %1648  : f32
    %1650 = llvm.fmul %1598, %1061  : f32
    %1651 = llvm.fadd %1649, %1650  : f32
    %1652 = llvm.fmul %1606, %1069  : f32
    %1653 = llvm.fadd %1651, %1652  : f32
    %1654 = llvm.fmul %1614, %1077  : f32
    %1655 = llvm.fadd %1653, %1654  : f32
    %1656 = llvm.fmul %1622, %1085  : f32
    %1657 = llvm.fadd %1655, %1656  : f32
    %1658 = llvm.fmul %1630, %1093  : f32
    %1659 = llvm.fadd %1657, %1658  : f32
    %1660 = llvm.mul %10, %5  : i64
    %1661 = llvm.mul %1, %7  : i64
    %1662 = llvm.add %1660, %1661  : i64
    %1663 = llvm.add %1662, %9  : i64
    %1664 = llvm.getelementptr %726[%1663] : (!llvm.ptr<f32>, i64) -> !llvm.ptr<f32>
    llvm.store %1659, %1664 : !llvm.ptr<f32>
    %1665 = llvm.mul %10, %5  : i64
    %1666 = llvm.mul %1, %7  : i64
    %1667 = llvm.add %1665, %1666  : i64
    %1668 = llvm.add %1667, %0  : i64
    %1669 = llvm.getelementptr %726[%1668] : (!llvm.ptr<f32>, i64) -> !llvm.ptr<f32>
    %1670 = llvm.load %1669 : !llvm.ptr<f32>
    %1671 = llvm.fmul %1568, %1106  : f32
    %1672 = llvm.fadd %1670, %1671  : f32
    %1673 = llvm.fmul %1582, %1120  : f32
    %1674 = llvm.fadd %1672, %1673  : f32
    %1675 = llvm.fmul %1590, %1128  : f32
    %1676 = llvm.fadd %1674, %1675  : f32
    %1677 = llvm.fmul %1598, %1136  : f32
    %1678 = llvm.fadd %1676, %1677  : f32
    %1679 = llvm.fmul %1606, %1144  : f32
    %1680 = llvm.fadd %1678, %1679  : f32
    %1681 = llvm.fmul %1614, %1152  : f32
    %1682 = llvm.fadd %1680, %1681  : f32
    %1683 = llvm.fmul %1622, %1160  : f32
    %1684 = llvm.fadd %1682, %1683  : f32
    %1685 = llvm.fmul %1630, %1168  : f32
    %1686 = llvm.fadd %1684, %1685  : f32
    %1687 = llvm.mul %10, %5  : i64
    %1688 = llvm.mul %1, %7  : i64
    %1689 = llvm.add %1687, %1688  : i64
    %1690 = llvm.add %1689, %0  : i64
    %1691 = llvm.getelementptr %726[%1690] : (!llvm.ptr<f32>, i64) -> !llvm.ptr<f32>
    llvm.store %1686, %1691 : !llvm.ptr<f32>
    %1692 = llvm.mul %10, %5  : i64
    %1693 = llvm.mul %1, %7  : i64
    %1694 = llvm.add %1692, %1693  : i64
    %1695 = llvm.add %1694, %1  : i64
    %1696 = llvm.getelementptr %726[%1695] : (!llvm.ptr<f32>, i64) -> !llvm.ptr<f32>
    %1697 = llvm.load %1696 : !llvm.ptr<f32>
    %1698 = llvm.fmul %1568, %1181  : f32
    %1699 = llvm.fadd %1697, %1698  : f32
    %1700 = llvm.fmul %1582, %1195  : f32
    %1701 = llvm.fadd %1699, %1700  : f32
    %1702 = llvm.fmul %1590, %1203  : f32
    %1703 = llvm.fadd %1701, %1702  : f32
    %1704 = llvm.fmul %1598, %1211  : f32
    %1705 = llvm.fadd %1703, %1704  : f32
    %1706 = llvm.fmul %1606, %1219  : f32
    %1707 = llvm.fadd %1705, %1706  : f32
    %1708 = llvm.fmul %1614, %1227  : f32
    %1709 = llvm.fadd %1707, %1708  : f32
    %1710 = llvm.fmul %1622, %1235  : f32
    %1711 = llvm.fadd %1709, %1710  : f32
    %1712 = llvm.fmul %1630, %1243  : f32
    %1713 = llvm.fadd %1711, %1712  : f32
    %1714 = llvm.mul %10, %5  : i64
    %1715 = llvm.mul %1, %7  : i64
    %1716 = llvm.add %1714, %1715  : i64
    %1717 = llvm.add %1716, %1  : i64
    %1718 = llvm.getelementptr %726[%1717] : (!llvm.ptr<f32>, i64) -> !llvm.ptr<f32>
    llvm.store %1713, %1718 : !llvm.ptr<f32>
    %1719 = llvm.mul %10, %5  : i64
    %1720 = llvm.mul %10, %7  : i64
    %1721 = llvm.add %1719, %1720  : i64
    %1722 = llvm.add %1721, %10  : i64
    %1723 = llvm.getelementptr %726[%1722] : (!llvm.ptr<f32>, i64) -> !llvm.ptr<f32>
    %1724 = llvm.load %1723 : !llvm.ptr<f32>
    %1725 = llvm.mul %10, %5  : i64
    %1726 = llvm.mul %10, %7  : i64
    %1727 = llvm.add %1725, %1726  : i64
    %1728 = llvm.add %1727, %10  : i64
    %1729 = llvm.getelementptr %arg2[%1728] : (!llvm.ptr<f32>, i64) -> !llvm.ptr<f32>
    llvm.store %1724, %1729 : !llvm.ptr<f32>
    %1730 = llvm.mul %10, %5  : i64
    %1731 = llvm.mul %10, %7  : i64
    %1732 = llvm.add %1730, %1731  : i64
    %1733 = llvm.add %1732, %9  : i64
    %1734 = llvm.getelementptr %726[%1733] : (!llvm.ptr<f32>, i64) -> !llvm.ptr<f32>
    %1735 = llvm.load %1734 : !llvm.ptr<f32>
    %1736 = llvm.mul %10, %5  : i64
    %1737 = llvm.mul %10, %7  : i64
    %1738 = llvm.add %1736, %1737  : i64
    %1739 = llvm.add %1738, %9  : i64
    %1740 = llvm.getelementptr %arg2[%1739] : (!llvm.ptr<f32>, i64) -> !llvm.ptr<f32>
    llvm.store %1735, %1740 : !llvm.ptr<f32>
    %1741 = llvm.mul %10, %5  : i64
    %1742 = llvm.mul %10, %7  : i64
    %1743 = llvm.add %1741, %1742  : i64
    %1744 = llvm.add %1743, %0  : i64
    %1745 = llvm.getelementptr %726[%1744] : (!llvm.ptr<f32>, i64) -> !llvm.ptr<f32>
    %1746 = llvm.load %1745 : !llvm.ptr<f32>
    %1747 = llvm.mul %10, %5  : i64
    %1748 = llvm.mul %10, %7  : i64
    %1749 = llvm.add %1747, %1748  : i64
    %1750 = llvm.add %1749, %0  : i64
    %1751 = llvm.getelementptr %arg2[%1750] : (!llvm.ptr<f32>, i64) -> !llvm.ptr<f32>
    llvm.store %1746, %1751 : !llvm.ptr<f32>
    %1752 = llvm.mul %10, %5  : i64
    %1753 = llvm.mul %10, %7  : i64
    %1754 = llvm.add %1752, %1753  : i64
    %1755 = llvm.add %1754, %1  : i64
    %1756 = llvm.getelementptr %726[%1755] : (!llvm.ptr<f32>, i64) -> !llvm.ptr<f32>
    %1757 = llvm.load %1756 : !llvm.ptr<f32>
    %1758 = llvm.mul %10, %5  : i64
    %1759 = llvm.mul %10, %7  : i64
    %1760 = llvm.add %1758, %1759  : i64
    %1761 = llvm.add %1760, %1  : i64
    %1762 = llvm.getelementptr %arg2[%1761] : (!llvm.ptr<f32>, i64) -> !llvm.ptr<f32>
    llvm.store %1757, %1762 : !llvm.ptr<f32>
    %1763 = llvm.mul %10, %5  : i64
    %1764 = llvm.mul %9, %7  : i64
    %1765 = llvm.add %1763, %1764  : i64
    %1766 = llvm.add %1765, %10  : i64
    %1767 = llvm.getelementptr %726[%1766] : (!llvm.ptr<f32>, i64) -> !llvm.ptr<f32>
    %1768 = llvm.load %1767 : !llvm.ptr<f32>
    %1769 = llvm.mul %10, %5  : i64
    %1770 = llvm.mul %9, %7  : i64
    %1771 = llvm.add %1769, %1770  : i64
    %1772 = llvm.add %1771, %10  : i64
    %1773 = llvm.getelementptr %arg2[%1772] : (!llvm.ptr<f32>, i64) -> !llvm.ptr<f32>
    llvm.store %1768, %1773 : !llvm.ptr<f32>
    %1774 = llvm.mul %10, %5  : i64
    %1775 = llvm.mul %9, %7  : i64
    %1776 = llvm.add %1774, %1775  : i64
    %1777 = llvm.add %1776, %9  : i64
    %1778 = llvm.getelementptr %726[%1777] : (!llvm.ptr<f32>, i64) -> !llvm.ptr<f32>
    %1779 = llvm.load %1778 : !llvm.ptr<f32>
    %1780 = llvm.mul %10, %5  : i64
    %1781 = llvm.mul %9, %7  : i64
    %1782 = llvm.add %1780, %1781  : i64
    %1783 = llvm.add %1782, %9  : i64
    %1784 = llvm.getelementptr %arg2[%1783] : (!llvm.ptr<f32>, i64) -> !llvm.ptr<f32>
    llvm.store %1779, %1784 : !llvm.ptr<f32>
    %1785 = llvm.mul %10, %5  : i64
    %1786 = llvm.mul %9, %7  : i64
    %1787 = llvm.add %1785, %1786  : i64
    %1788 = llvm.add %1787, %0  : i64
    %1789 = llvm.getelementptr %726[%1788] : (!llvm.ptr<f32>, i64) -> !llvm.ptr<f32>
    %1790 = llvm.load %1789 : !llvm.ptr<f32>
    %1791 = llvm.mul %10, %5  : i64
    %1792 = llvm.mul %9, %7  : i64
    %1793 = llvm.add %1791, %1792  : i64
    %1794 = llvm.add %1793, %0  : i64
    %1795 = llvm.getelementptr %arg2[%1794] : (!llvm.ptr<f32>, i64) -> !llvm.ptr<f32>
    llvm.store %1790, %1795 : !llvm.ptr<f32>
    %1796 = llvm.mul %10, %5  : i64
    %1797 = llvm.mul %9, %7  : i64
    %1798 = llvm.add %1796, %1797  : i64
    %1799 = llvm.add %1798, %1  : i64
    %1800 = llvm.getelementptr %726[%1799] : (!llvm.ptr<f32>, i64) -> !llvm.ptr<f32>
    %1801 = llvm.load %1800 : !llvm.ptr<f32>
    %1802 = llvm.mul %10, %5  : i64
    %1803 = llvm.mul %9, %7  : i64
    %1804 = llvm.add %1802, %1803  : i64
    %1805 = llvm.add %1804, %1  : i64
    %1806 = llvm.getelementptr %arg2[%1805] : (!llvm.ptr<f32>, i64) -> !llvm.ptr<f32>
    llvm.store %1801, %1806 : !llvm.ptr<f32>
    %1807 = llvm.mul %10, %5  : i64
    %1808 = llvm.mul %0, %7  : i64
    %1809 = llvm.add %1807, %1808  : i64
    %1810 = llvm.add %1809, %10  : i64
    %1811 = llvm.getelementptr %726[%1810] : (!llvm.ptr<f32>, i64) -> !llvm.ptr<f32>
    %1812 = llvm.load %1811 : !llvm.ptr<f32>
    %1813 = llvm.mul %10, %5  : i64
    %1814 = llvm.mul %0, %7  : i64
    %1815 = llvm.add %1813, %1814  : i64
    %1816 = llvm.add %1815, %10  : i64
    %1817 = llvm.getelementptr %arg2[%1816] : (!llvm.ptr<f32>, i64) -> !llvm.ptr<f32>
    llvm.store %1812, %1817 : !llvm.ptr<f32>
    %1818 = llvm.mul %10, %5  : i64
    %1819 = llvm.mul %0, %7  : i64
    %1820 = llvm.add %1818, %1819  : i64
    %1821 = llvm.add %1820, %9  : i64
    %1822 = llvm.getelementptr %726[%1821] : (!llvm.ptr<f32>, i64) -> !llvm.ptr<f32>
    %1823 = llvm.load %1822 : !llvm.ptr<f32>
    %1824 = llvm.mul %10, %5  : i64
    %1825 = llvm.mul %0, %7  : i64
    %1826 = llvm.add %1824, %1825  : i64
    %1827 = llvm.add %1826, %9  : i64
    %1828 = llvm.getelementptr %arg2[%1827] : (!llvm.ptr<f32>, i64) -> !llvm.ptr<f32>
    llvm.store %1823, %1828 : !llvm.ptr<f32>
    %1829 = llvm.mul %10, %5  : i64
    %1830 = llvm.mul %0, %7  : i64
    %1831 = llvm.add %1829, %1830  : i64
    %1832 = llvm.add %1831, %0  : i64
    %1833 = llvm.getelementptr %726[%1832] : (!llvm.ptr<f32>, i64) -> !llvm.ptr<f32>
    %1834 = llvm.load %1833 : !llvm.ptr<f32>
    %1835 = llvm.mul %10, %5  : i64
    %1836 = llvm.mul %0, %7  : i64
    %1837 = llvm.add %1835, %1836  : i64
    %1838 = llvm.add %1837, %0  : i64
    %1839 = llvm.getelementptr %arg2[%1838] : (!llvm.ptr<f32>, i64) -> !llvm.ptr<f32>
    llvm.store %1834, %1839 : !llvm.ptr<f32>
    %1840 = llvm.mul %10, %5  : i64
    %1841 = llvm.mul %0, %7  : i64
    %1842 = llvm.add %1840, %1841  : i64
    %1843 = llvm.add %1842, %1  : i64
    %1844 = llvm.getelementptr %726[%1843] : (!llvm.ptr<f32>, i64) -> !llvm.ptr<f32>
    %1845 = llvm.load %1844 : !llvm.ptr<f32>
    %1846 = llvm.mul %10, %5  : i64
    %1847 = llvm.mul %0, %7  : i64
    %1848 = llvm.add %1846, %1847  : i64
    %1849 = llvm.add %1848, %1  : i64
    %1850 = llvm.getelementptr %arg2[%1849] : (!llvm.ptr<f32>, i64) -> !llvm.ptr<f32>
    llvm.store %1845, %1850 : !llvm.ptr<f32>
    %1851 = llvm.mul %10, %5  : i64
    %1852 = llvm.mul %1, %7  : i64
    %1853 = llvm.add %1851, %1852  : i64
    %1854 = llvm.add %1853, %10  : i64
    %1855 = llvm.getelementptr %726[%1854] : (!llvm.ptr<f32>, i64) -> !llvm.ptr<f32>
    %1856 = llvm.load %1855 : !llvm.ptr<f32>
    %1857 = llvm.mul %10, %5  : i64
    %1858 = llvm.mul %1, %7  : i64
    %1859 = llvm.add %1857, %1858  : i64
    %1860 = llvm.add %1859, %10  : i64
    %1861 = llvm.getelementptr %arg2[%1860] : (!llvm.ptr<f32>, i64) -> !llvm.ptr<f32>
    llvm.store %1856, %1861 : !llvm.ptr<f32>
    %1862 = llvm.mul %10, %5  : i64
    %1863 = llvm.mul %1, %7  : i64
    %1864 = llvm.add %1862, %1863  : i64
    %1865 = llvm.add %1864, %9  : i64
    %1866 = llvm.getelementptr %726[%1865] : (!llvm.ptr<f32>, i64) -> !llvm.ptr<f32>
    %1867 = llvm.load %1866 : !llvm.ptr<f32>
    %1868 = llvm.mul %10, %5  : i64
    %1869 = llvm.mul %1, %7  : i64
    %1870 = llvm.add %1868, %1869  : i64
    %1871 = llvm.add %1870, %9  : i64
    %1872 = llvm.getelementptr %arg2[%1871] : (!llvm.ptr<f32>, i64) -> !llvm.ptr<f32>
    llvm.store %1867, %1872 : !llvm.ptr<f32>
    %1873 = llvm.mul %10, %5  : i64
    %1874 = llvm.mul %1, %7  : i64
    %1875 = llvm.add %1873, %1874  : i64
    %1876 = llvm.add %1875, %0  : i64
    %1877 = llvm.getelementptr %726[%1876] : (!llvm.ptr<f32>, i64) -> !llvm.ptr<f32>
    %1878 = llvm.load %1877 : !llvm.ptr<f32>
    %1879 = llvm.mul %10, %5  : i64
    %1880 = llvm.mul %1, %7  : i64
    %1881 = llvm.add %1879, %1880  : i64
    %1882 = llvm.add %1881, %0  : i64
    %1883 = llvm.getelementptr %arg2[%1882] : (!llvm.ptr<f32>, i64) -> !llvm.ptr<f32>
    llvm.store %1878, %1883 : !llvm.ptr<f32>
    %1884 = llvm.mul %10, %5  : i64
    %1885 = llvm.mul %1, %7  : i64
    %1886 = llvm.add %1884, %1885  : i64
    %1887 = llvm.add %1886, %1  : i64
    %1888 = llvm.getelementptr %726[%1887] : (!llvm.ptr<f32>, i64) -> !llvm.ptr<f32>
    %1889 = llvm.load %1888 : !llvm.ptr<f32>
    %1890 = llvm.mul %10, %5  : i64
    %1891 = llvm.mul %1, %7  : i64
    %1892 = llvm.add %1890, %1891  : i64
    %1893 = llvm.add %1892, %1  : i64
    %1894 = llvm.getelementptr %arg2[%1893] : (!llvm.ptr<f32>, i64) -> !llvm.ptr<f32>
    llvm.store %1889, %1894 : !llvm.ptr<f32>
    llvm.return
  }
}


